BRCA/models/C1_best_1702917634.pth (torch, 5594 bytes, 2 tensors)

clf.0.weight f4 [5, 200]
000000 f7 d2 2a bd 19 f3 ff 3d 28 e0 b9 bc d8 d3 a0 3a
       -0.041705098 0.12497539 -0.022689894 0.0012270166
000010 56 98 78 3d da 6e 8a bd 8e 0d e1 bc d7 3e 06 3c
       0.060692154 -0.067594245 -0.027472284 0.008193693
000020 8a ea d8 3c 13 4b 01 bd 18 23 83 3c 9c 97 66 3d
       0.026479024 -0.031565737 0.016007945 0.05629693
000030 69 98 8e bd 1e 7b cd bc 41 ca e5 3d f1 a8 29 bd
       -0.06962664 -0.02508312 0.112202175 -0.04142088
000040 79 01 78 3d eb bf 62 3d 9d 92 ac 3d 9b 8f df bc
       0.06054828 0.05535881 0.08426402 -0.027290156
000050 89 94 f7 3d d4 b9 9b bd d3 e2 8a bd 36 af 9a 3c
       0.12088878 -0.07603803 -0.067815445 0.018882375
000060 0b 6b 2b 3c d3 59 9c bd 06 66 6e 3d b3 4a b7 bb
       0.010462533 -0.0763432 0.058202766 -0.0055936216
000070 07 44 fd bb 70 0a b3 bd 03 2a d7 3b 31 b3 47 3d
       -0.0077290568 -0.08742225 0.0065662875 0.048754875
000080 24 9a 21 ba 64 35 11 3e 6b 86 15 3e 36 2f 88 3d
       -0.00061646313 0.14180523 0.14602058 0.0664963
000090 e2 25 06 3d 74 0e e6 bc 25 6e 64 bc 63 ec ff 3c
       0.03275097 -0.028083064 -0.013942276 0.031240648
0000a0 f3 f9 29 bd b7 82 1a 3e 97 40 c4 3d d1 e1 4c bc
       -0.041498136 0.15088926 0.09582632 -0.012505011
0000b0 bf aa d0 3d 1c 28 74 3d 87 de dd bc 4a 99 36 3d
       0.10188817 0.059608564 -0.027083648 0.04457978
0000c0 70 20 d6 3d e2 6c 35 3e 16 52 6f 3d 14 85 b3 bc
       0.10455406 0.17717317 0.058427893 -0.021914043
0000d0 81 ea ce 3d 27 c4 84 bd e3 0f 96 3d 60 5c 0a bd
       0.10103322 -0.064827256 0.07327249 -0.033779502
0000e0 a9 16 26 3c 90 67 12 3e 1b 59 3b 3e 42 25 90 3d
       0.010137239 0.14297318 0.1829571 0.07038356
0000f0 1e 0a b6 3d f8 b9 6a 3d 38 5e 27 bc f1 f2 c4 3d
       0.088886485 0.05730626 -0.010215335 0.0961665
000100 74 0d 2f 3d 8c 2e 45 3d fb bd 8f bc 1b 64 a5 3d
       0.04273744 0.048140094 -0.017546644 0.08075734
000110 a9 06 40 3d 19 7d 62 3d 85 07 d8 bd 48 b1 00 3e
       0.04688135 0.055295084 -0.10548309 0.12567627
000120 b9 c5 e3 3c 68 06 3f bd 16 d2 a0 3d 37 36 bd 3c
       0.027804242 -0.04663697 0.07852571 0.02309714
000130 fb 77 88 bd 1d 1e ba 3d 9b 7a d6 3d b6 47 93 bc
       -0.066635095 0.09087775 0.10472604 -0.01797853
000140 ca 4e f5 bc 34 ad f0 3d d5 cc 28 3d 1d 6f 04 3d
       -0.029944796 0.11751786 0.041210968 0.03233253
000150 18 58 ec 3d 35 23 2e 3c 3b 63 b0 bb 5e 5c 0c bc
       0.1154024 0.010628511 -0.005382923 -0.008566944
000160 04 2d 4f bc eb 16 c0 3d cb e2 da bc 6e 50 12 3d
       -0.01264501 0.09379371 -0.026719471 0.035721235
000170 65 19 14 bd 33 5b dd 3d f2 16 dc bd 1c 11 f8 3c
       -0.03615703 0.108084105 -0.10746564 0.030281596
000180 79 66 64 3d 93 03 5f 3d 66 a6 51 3e 20 22 e8 bc
       0.055761788 0.054446768 0.20473632 -0.028336585
000190 66 12 8e bc 11 96 29 3e 25 78 a4 bd e1 06 2d bd
       -0.017342757 0.16561152 -0.08030728 -0.04224289
0001a0 75 64 26 3d cb 6b f0 3d d9 6f 5f 3d fa 5a ef 3c
       0.040623147 0.1173931 0.054550026 0.029218186
0001b0 05 b8 da 3d 92 f2 a1 bd 26 bc 84 3d c6 90 c3 3c
       0.1067963 -0.07907595 0.06481199 0.023872744
0001c0 61 dd 06 be 4e 95 d3 3d 0d 3d d0 3d 20 63 06 3e
       -0.13170387 0.10331212 0.101678945 0.1312375
0001d0 f0 de a0 bd a4 5b 78 3d 97 2c 35 3d 72 c8 42 3d
       -0.07855022 0.06063427 0.044231977 0.04755444
0001e0 32 68 fd 3d d0 ab 13 3e 52 00 52 3d 1e 28 a3 3d
       0.12373389 0.1442101 0.051269837 0.07966636
0001f0 c4 6a 61 bc fe ab bb 3c 4b b8 5a 3d b9 90 c8 bd
       -0.013758365 0.02290916 0.05339841 -0.09793229
000200 96 21 cf bc 07 87 80 3c bd cf 99 bd 5d 73 6e bd
       -0.02528457 0.015689386 -0.07510326 -0.058215488
000210 d5 24 2e 3d 2e 87 5e bd c8 9e 52 3d fe eb f8 bd
       0.042515595 -0.054328136 0.051420957 -0.12154387
000220 35 21 bc bd 5d 80 14 3e a5 3b 34 3c a3 25 e0 bd
       -0.09186021 0.14502092 0.0110005485 -0.10944679
000230 5e 11 7a bc d5 b0 cd bc 56 f6 9a 3d 41 7c 66 3d
       -0.01526293 -0.025108734 0.07566516 0.05627084
000240 5e 6c 4b bd 81 2e 21 3d d2 14 6f 3d 49 a8 c3 3b
       -0.049663894 0.03935099 0.058369465 0.005970989
000250 d6 44 1e be f1 f6 6c bc b1 87 5b 3d 61 de 49 3d
       -0.15455946 -0.014463172 0.053596202 0.049284343
000260 58 64 69 3d 74 8e 2a 3d c8 d0 af 3d ba 7f 91 bb
       0.05698046 0.04163976 0.08584744 -0.004440275
000270 68 bf 31 bd 80 af 8f bc 25 e9 3d 3d 50 cf 8f bd
       -0.04339543 -0.01753974 0.046364922 -0.070219636
000280 c3 f1 c8 3d a5 d2 90 3c 5f 64 1b 3d 21 e8 8c bd
       0.098117374 0.017678568 0.03793752 -0.068802126
000290 cf da 68 bd 31 45 f7 bd 87 66 24 3d d2 97 80 bd
       -0.056849297 -0.12073744 0.04013684 -0.062789574
0002a0 9b de a6 bb 1c f3 4f 3d 0e c6 6a bd 54 89 f2 bd
       -0.0050924546 0.050768957 -0.057317786 -0.118425995
0002b0 b1 bd 8e 3d 2a f8 2d bd c9 f0 96 bc f1 b3 d9 3d
       0.069697745 -0.042472996 -0.018425362 0.10630024
0002c0 ab 0d 46 3d 5f 2e 19 be 8b 2b c0 3d 56 81 0b 3e
       0.04835288 -0.14959095 0.09383305 0.13623556
0002d0 a7 36 5b bc 9f 36 dd bc f3 0b 87 bd e6 92 cd bd
       -0.013379729 -0.027003584 -0.06594076 -0.10037784
0002e0 bb c0 ec bc 2f c6 da 3c 71 f3 95 bd e0 b2 30 3d
       -0.028900495 0.02670583 -0.073218234 0.04313934
0002f0 6f 42 c8 3d e2 d7 f7 bd 23 e5 f9 bd 32 69 2c 3d
       0.09778296 -0.12101723 -0.122019075 0.04209251
000300 e5 ac 81 bd b6 04 bf 3d 60 7d 2b be 37 ad 68 bc
       -0.06331805 0.093270704 -0.16747046 -0.014201454
000310 df 65 53 bd a5 bb fa bc b4 4a 91 3d 25 d4 a0 3d
       -0.051610824 -0.030607054 0.070943266 0.07852963
000320 bc e9 5c 3b 7d de af 3d 35 a6 62 bd cc 82 d7 bc
       0.0033708652 0.08587358 -0.05533429 -0.026307486
000330 12 f8 14 3d 7e 52 73 3d 91 d1 ab bd 7c 17 3d bd
       0.03636939 0.059404843 -0.08389581 -0.046164975
000340 f7 54 a2 bd 28 0f d9 bd 55 e3 62 3d c2 77 7b bd
       -0.07926362 -0.10598594 0.055392582 -0.061393507
000350 aa 73 21 bd 1b c4 00 be f2 a1 fd 3d 40 ce 1f 3d
       -0.039416946 -0.12574808 0.12384404 0.039015055
000360 0d 7a 92 3d 19 c5 31 bd 60 a3 1a 3e 66 00 72 3d
       0.071521856 -0.043400858 0.15101385 0.05908241
000370 65 1e 7e 3d 55 da 46 bd 2a 4f 55 bd 15 9a 3d 3c
       0.062040705 -0.04854806 -0.05207745 0.011572381
000380 86 fd 1e bd 32 fd b3 3d c0 1d d9 3d 91 33 36 3b
       -0.038815998 0.087885275 0.106013775 0.0027801732
000390 e8 7b 85 3d 3f 34 ea 3d 3c 0b df 3c dc 00 64 bc
       0.06517774 0.114357464 0.027227037 -0.0139162205
0003a0 26 8c a0 3c 7b 05 50 3d 7b 3d 5b bc a9 66 45 3d
       0.019598078 0.050786477 -0.013381357 0.048193607
0003b0 4e ee 8d 3c 1d 65 52 bd e1 e6 4c bd 47 d6 31 3d
       0.017325547 -0.05136596 -0.05002487 0.04341724
0003c0 d7 df 8d 3d 5f 52 8f 3d ad ae 50 3d 20 ef 86 bc
       0.0692746 0.06998133 0.050947834 -0.016471446
0003d0 3b 0b 8d 3d ed 79 48 3d 03 81 89 bd 73 16 c9 3d
       0.06886908 0.048944402 -0.0671406 0.09818735
0003e0 c2 97 03 3d b8 fa 52 3e e8 98 53 3e af 94 81 bb
       0.03212715 0.20603454 0.20663798 -0.003954492
0003f0 a2 57 c0 3c 39 fa 44 be e0 b2 29 bd 67 01 34 bd
       0.023479287 -0.19236077 -0.041430354 -0.04394665

clf.0.bias f4 [5]
000000 6e 8a 6b bd 52 ff 74 bd e6 72 4f bd 47 c5 06 3e
       -0.057505064 -0.059813805 -0.050646685 0.13161193
000010 32 0c c2 bd
       -0.09474982
