BRCA/models/C1_best_1703027228.pth (torch, 5594 bytes, 2 tensors)

clf.0.weight f4 [5, 200]
0	0xbd6bc145	-0.057557363
1	0xbdb80e0e	-0.08987056
2	0x3e1fa0be	0.15588662
3	0x3e669fc8	0.22521889
4	0xbdac3247	-0.08408027
5	0x3ca534f9	0.02016686
6	0x3e0fdfc8	0.1405021
7	0xbc804d30	-0.015661806
8	0xbe59693e	-0.21231553
9	0x3debc0ed	0.11511407
10	0x3e023503	0.12715535
11	0xbcd8e5aa	-0.0264767
12	0x3e6d82fa	0.23194495
13	0xbcfce1da	-0.030869413
14	0xbdbb9459	-0.091591544
15	0x3e3e4cbf	0.18583964
16	0xbe0611d2	-0.13092735
17	0x3d68c9f2	0.056833215
18	0xbcabae0f	-0.020957021
19	0x3d753aab	0.059870403
20	0x3e66281f	0.22476242
21	0x3dcc672d	0.09980617
22	0x3daf6c2d	0.08565555
23	0xbc82d053	-0.015968477
24	0xbda66079	-0.081238694
25	0x3e8ae0aa	0.2712453
26	0x3e0500b6	0.12988552
27	0xbd525e5c	-0.05135952
28	0xbe828483	-0.25491723
29	0x3d8909bc	0.0669131
30	0xbc153f6b	-0.009109358
31	0xbdf76124	-0.12079075
32	0x3dd874af	0.10569131
33	0x3e14f437	0.14546286
34	0x3c6a8cb2	0.014315771
35	0x3db63ba7	0.088980965
36	0xbd939f2d	-0.07208095
37	0x3e65ed44	0.22453791
38	0x3e001587	0.12508212
39	0x3cc8fde9	0.024535136
40	0xbdbf938d	-0.09354315
41	0x3e09083a	0.13382044
42	0x3da1df83	0.079039596
43	0xba4a8247	-0.00077251013
44	0x3e372f1b	0.17889063
45	0x3d52a322	0.051425107
46	0x3d171236	0.0368826
47	0xbd40b09e	-0.047043435
48	0x3e68394a	0.22678104
49	0xbca1b758	-0.019740745
50	0x3dc7ae8d	0.0975009
51	0xbcb698db	-0.022289684
52	0x3e093e67	0.13402711
53	0xbda6d403	-0.08145907
54	0xbd53c0fd	-0.05169772
55	0xbdef824b	-0.11694773
56	0x3dcf8e88	0.101346076
57	0x3e555774	0.20834142
58	0x3c93b8e7	0.018032504
59	0x3df57154	0.11984506
60	0xbe24b737	-0.16085516
61	0x3e808ea2	0.2510882
62	0x3e720cf4	0.23637754
63	0x3d35d0c8	0.044388562
64	0x3d2ffc2f	0.04296511
65	0x3dfe681e	0.124222025
66	0x3dc97112	0.098360196
67	0xbda62185	-0.08111862
68	0x3d83f4c4	0.0644317
69	0x3d442d1c	0.047894582
70	0xbe41c4ea	-0.18922773
71	0xbd278635	-0.040899474
72	0x3e897967	0.26850435
73	0x3e193ed6	0.14965376
74	0xbe471c9b	-0.19444506
75	0xbd129ffc	-0.035797104
76	0x3d478836	0.048713885
77	0x3d398682	0.045294292
78	0x3c28a5e0	0.010293454
79	0xbdd1ce8c	-0.10244474
80	0xbc51a991	-0.012796775
81	0xbd0f231e	-0.0349456
82	0x3dddf0e7	0.10836964
83	0x3caeee2c	0.021353804
84	0x3d36df6f	0.044646677
85	0x3dc9a372	0.09845628
86	0xbcddc2ae	-0.02707037
87	0xbe1846e0	-0.14870787
88	0xbc59e87d	-0.013300058
89	0x3d0c63c6	0.03427484
90	0xbe3bfa27	-0.18357144
91	0x3cff9d76	0.031203013
92	0x3e40289a	0.18765488
93	0x3e304dec	0.17217225
94	0x3d1ace36	0.037794314
95	0xbc15532a	-0.009114066
96	0xbd18bdbd	-0.037290324
97	0x3e6d64fb	0.23183052
98	0x3dd2c921	0.102922685
99	0x3dd933ae	0.1060556
100	0x3e1f6856	0.15567145
101	0x3c15c316	0.00914075
102	0xbc50480d	-0.012712491
103	0x3dbfdaba	0.09367891
104	0xbddf1e00	-0.10894394
105	0xbd8784a2	-0.066170946
106	0xbdd52ced	-0.104089595
107	0x3d4ec50e	0.050480895
108	0xbd12d3ff	-0.035846706
109	0x3e6766f7	0.22597872
110	0x3e2d1c05	0.1690522
111	0x3e27a438	0.16371238
112	0x3c6f3396	0.014599701
113	0x3d2515cf	0.040304
114	0x3d93dca2	0.07219817
115	0x3bb1e118	0.0054284446
116	0xbe351006	-0.17681894
117	0xba59bb72	-0.00083058246
118	0x3de54fc5	0.111968555
119	0xbd14ac01	-0.03629685
120	0x3e831e3f	0.25609013
121	0xbe7d1694	-0.24715644
122	0x3e13168c	0.1436407
123	0x3e1c8ce0	0.15288115
124	0x3e5d457f	0.21608542
125	0xbdf336cb	-0.11875685
126	0x3dc861b1	0.09784258
127	0xba423f53	-0.0007409949
128	0x3d7f3f17	0.062316027
129	0xbd9cabaa	-0.0764993
130	0x3c740337	0.014893345
131	0x3e4fd553	0.2029622
132	0x3e1ed4d5	0.15510876
133	0xbcb43277	-0.02199672
134	0xbca2b9d0	-0.019863993
135	0x3e757741	0.23971273
136	0xbd4bb2f7	-0.04973122
137	0x3c17989d	0.009252694
138	0x3cefca0a	0.029271144
139	0x3df596ee	0.11991678
140	0xbda03ac4	-0.07823709
141	0x3daccc00	0.084373474
142	0x3c99f66a	0.018794257
143	0x3db46a3d	0.08809326
144	0xbe10b17d	-0.14130206
145	0x3c93b315	0.018029729
146	0x3d7eb583	0.06218482
147	0xbec2277e	-0.37920755
148	0x3e2c3ccf	0.16820072
149	0xbb4dd353	-0.0031406477
150	0x3b49e4b5	0.0030806486
151	0xbdd70abc	-0.10500094
152	0xbde46b8b	-0.11153325
153	0xbda41a34	-0.0801281
154	0x3dd7686e	0.10517965
155	0xbb22dd66	-0.0024851202
156	0x3d435692	0.04768998
157	0xbc9bfd29	-0.019041615
158	0x3e6dd512	0.23225811
159	0xbae60e5a	-0.0017551885
160	0x3d130145	0.035889883
161	0x3e192056	0.14953741
162	0xbd92a2ed	-0.07159982
163	0x3de5f33e	0.112280354
164	0x3ce9024a	0.028443474
165	0xbce94e68	-0.02847977
166	0x3e0fed96	0.14055476
167	0x3e08bec4	0.13354021
168	0xbe1ad655	-0.15120824
169	0x3dd3baca	0.103383616
170	0xbdf48950	-0.11940253
171	0x3da4c544	0.08045438
172	0x3e3ce104	0.18445212
173	0x3b298480	0.002586633
174	0x3b2d65fc	0.0026458493
175	0x3da0b313	0.07846656
176	0x3e353643	0.1769648
177	0xbe09670d	-0.13418217
178	0x3e2072f2	0.15668848
179	0x3dd4b9f2	0.10387029
180	0xbd6da8c4	-0.058022276
181	0x3e0baf9d	0.1364121
182	0x3dc0c5d2	0.09412731
183	0x3da68a7d	0.08131883
184	0xbd7dc85d	-0.06195866
185	0xbe019eb9	-0.12658204
186	0x3dae7d88	0.08520037
187	0x3cde44cf	0.02713242
188	0x3e009c20	0.12559557
189	0x3da0cdb9	0.078517385
190	0xbc2cab5c	-0.010538902
191	0xbc1c211e	-0.00952938
192	0xbd93a566	-0.072092816
193	0x3bc36c7d	0.0059638605
194	0x3e83393f	0.25629613
195	0xbdb69d46	-0.08916716
196	0xbe17388f	-0.14767669
197	0x3e1385bb	0.14406483
198	0x3e2acc71	0.1667955
199	0x3d14814b	0.036256116
200	0x3e368361	0.17823555
201	0xbe203e3e	-0.15648744
202	0x3e700d1d	0.23442502
203	0xbe1c1cd9	-0.1524538
204	0xbbe30804	-0.006928446
205	0x3daace2c	0.083401054
206	0x3e0b26bb	0.13588993
207	0x3ea783c1	0.32717708
208	0x3dee985a	0.116501525
209	0xbc92ab50	-0.017903954
210	0x3da8fa7c	0.08250901
211	0x3e51017f	0.20410727
212	0x3e590d48	0.21196473
213	0x3d88810b	0.06665238
214	0xbdf82be9	-0.1211775
215	0x3e0713b8	0.13191116
216	0xbe3658f5	-0.17807372
217	0x3d4c90b1	0.049942676
218	0x3debb3ed	0.115089275
219	0x3eb32b0d	0.34993783
220	0x3dba4a48	0.09096199
221	0xbd654d17	-0.05598172
222	0x3e842a8f	0.2581372
223	0xbdbaffdb	-0.09130832
224	0x3d4d45dd	0.050115455
225	0x3c826d86	0.015921365
226	0x3e4da828	0.20083678
227	0xbd07bb07	-0.033137348
228	0x3da71f08	0.081602156
229	0xbd9016d4	-0.07035604
230	0xbdb0af27	-0.08627158
231	0x3e0faf9a	0.1403183
232	0xbdc3efa3	-0.095671915
233	0x3e467b60	0.19383001
234	0xbddca8b6	-0.107743666
235	0x3dc033a9	0.093848534
236	0xbe24637b	-0.16053574
237	0xbc714373	-0.014725554
238	0xbdc001a3	-0.09375312
239	0x3c6f47b5	0.014604499
240	0x3e109fcf	0.14123462
241	0xbbd272db	-0.0064223832
242	0x3d15c4fc	0.036564812
243	0x3ca79f30	0.020461649
244	0xbd3fc9e7	-0.04682341
245	0x3d7a6d91	0.061139647
246	0x3dbd90f7	0.092561655
247	0x3ddaf703	0.10691645
248	0xbd5a67b0	-0.05332154
249	0xbd6de215	-0.058076937
250	0x3e5177cf	0.2045586
251	0x3d8b3756	0.06797664
252	0x3d1fd0cc	0.039017484
253	0xbc7939c6	-0.015211528
254	0xbcb04213	-0.021515882
255	0x3e9ce38d	0.30642357

clf.0.bias f4 [5]
0	0xbe99e74b	-0.30059275
1	0xbea0806f	-0.31347987
2	0xbebea3fa	-0.3723448
3	0x3f60b43a	0.87775004
4	0xbf044992	-0.5167476
