BRCA/models/C1_best_1703028637.pth (torch, 5594 bytes, 2 tensors)

clf.0.weight f4 [5, 200]
0	0xbd5cab91	-0.053874556
1	0xbe43b47c	-0.19111818
2	0xbe154c2b	-0.14579837
3	0x3d79c9f7	0.060983624
4	0xbe960420	-0.29300022
5	0xbe253ae8	-0.16135752
6	0xbcfe570c	-0.031047367
7	0xbd940a69	-0.07228548
8	0xbe1c8b99	-0.15287627
9	0xbd48a502	-0.04898549
10	0xbdaa3330	-0.083105445
11	0x3d636310	0.055514395
12	0xbd8f5d48	-0.07000214
13	0x3e14520e	0.14484426
14	0x3d3c0e83	0.045912277
15	0xbac1dd0b	-0.0014790607
16	0x3ba4dac1	0.0050309603
17	0xbd93e776	-0.07221882
18	0xbe1a0223	-0.15039878
19	0x3dcc2fb1	0.09970034
20	0x3e4fcf4b	0.2029392
21	0x3dda09d6	0.10646407
22	0x3e0290f6	0.1275061
23	0xbe0746f3	-0.13210659
24	0xbe24c499	-0.16090621
25	0x3d58219f	0.05276644
26	0xbdcc7917	-0.099840336
27	0x3e2550f9	0.1614417
28	0x3e7050b1	0.23468281
29	0x3d4335c8	0.04765871
30	0xbe47167c	-0.19442171
31	0x3d423877	0.04741713
32	0x3e6dfd40	0.23241138
33	0xbb442b61	-0.0029933082
34	0xbd939257	-0.072056465
35	0xbd2270c3	-0.03965832
36	0x3d75392f	0.059868988
37	0x3e9d319e	0.30701917
38	0x3da5dafc	0.080984086
39	0x3e19278f	0.14956497
40	0x3de0c016	0.109741375
41	0xbbed31fe	-0.0072386255
42	0x3e0c6260	0.13709402
43	0x3de6bf24	0.11266926
44	0xbe63000f	-0.22167991
45	0xbe38feba	-0.1806592
46	0x3d832d80	0.06405163
47	0x3e0e62d5	0.13904889
48	0x3d13d8b0	0.03609532
49	0x3d48049e	0.04883253
50	0xbd992a00	-0.07478714
51	0xbd57da58	-0.052698463
52	0x3ddfee24	0.109340936
53	0x3df40d23	0.11916568
54	0x3d95ea33	0.073200606
55	0xbce02785	-0.027362594
56	0xbd852cdb	-0.06502696
57	0xbb936b8b	-0.004498904
58	0xbe27485d	-0.16336198
59	0x3d481128	0.048844486
60	0xbdc393c3	-0.09549668
61	0x3ca391a3	0.019966906
62	0xbda5dfdd	-0.08099339
63	0xbde0e196	-0.10980527
64	0x3d4c12e5	0.049822707
65	0xbe8e6980	-0.27814865
66	0x3d4cfd51	0.05004627
67	0x3d028cae	0.031872444
68	0x3bf13294	0.0073607657
69	0x3e944703	0.28960428
70	0x3d813fed	0.06311021
71	0x3ce57eee	0.028014626
72	0x3e0c73d8	0.13716066
73	0xbdd04db7	-0.10171073
74	0xbb57476a	-0.0032848963
75	0xbe08109b	-0.13287584
76	0x3bad81dd	0.005295022
77	0x3d868886	0.065690085
78	0x3bd2df06	0.006435278
79	0x3d499991	0.049218718
80	0xbe3f34db	-0.18672507
81	0xbd00800d	-0.03137212
82	0x3d24dd7b	0.040250283
83	0x3d5c17f5	0.053733785
84	0x3d962329	0.07330925
85	0x3cde9f7a	0.027175654
86	0x3e3a2adf	0.18180417
87	0x3e058715	0.13039811
88	0xbd242567	-0.040074732
89	0xbd8291fa	-0.06375499
90	0x3e2c6c0a	0.16838089
91	0xbd462254	-0.04837258
92	0xbdbb2306	-0.091375396
93	0xbdcb7295	-0.09933964
94	0xbd09ec59	-0.033672664
95	0x3de6448f	0.11243545
96	0x3d711317	0.058856096
97	0x3e178de9	0.14800228
98	0x3da6b3b2	0.08139743
99	0xbd8419bd	-0.06450222
100	0x3d2401cd	0.04004078
101	0x3e31606d	0.1732194
102	0xbda1b60f	-0.07896053
103	0xbcabf199	-0.020989226
104	0xbe143c8d	-0.14476223
105	0x3d647068	0.05577126
106	0x3df4076a	0.119154766
107	0xbde6b472	-0.11264886
108	0x3d74fc06	0.05981066
109	0xbd2622ea	-0.04056064
110	0x3cd79662	0.026316825
111	0x3d9a23cd	0.0752636
112	0x3db09cbc	0.08623645
113	0x3d624bd7	0.055248108
114	0x3de9cb3f	0.11415719
115	0x3dabce0d	0.083889104
116	0x3dcf16d6	0.101117775
117	0xbd8248d3	-0.06361546
118	0xbe075a1b	-0.13217966
119	0x3e12e909	0.14346708
120	0x3ca9e52b	0.020739159
121	0x3e1f9157	0.15582787
122	0xbc974aab	-0.018468222
123	0xbd71c6d9	-0.059027527
124	0x3dd35e52	0.103207245
125	0x3c74f352	0.01495059
126	0x3e66a826	0.22525081
127	0xbd284083	-0.04107715
128	0x3c9a3c53	0.018827593
129	0xbad56ba9	-0.0016282696
130	0xbe5914c7	-0.21199332
131	0x3dd68618	0.10474795
132	0x3e4018fe	0.18759534
133	0x3cdec6c5	0.02719439
134	0xbd6b79b5	-0.057489116
135	0x3daf3361	0.085547216
136	0xbd4765ed	-0.04868119
137	0x3daf9bcd	0.085746385
138	0x3cb127ed	0.021625483
139	0x3e8c2039	0.27368334
140	0x3de6501d	0.11245749
141	0xbdb53e33	-0.08849754
142	0xbc27732e	-0.010220332
143	0xbcbd7dd7	-0.023131294
144	0xbdcf624a	-0.10126169
145	0xbe384d8d	-0.17998333
146	0x3d865d44	0.06560758
147	0xbdab822b	-0.08374437
148	0x3dd91b60	0.106009245
149	0x3c08a7df	0.008340805
150	0xbb4150cd	-0.0029497624
151	0xbcce6e8d	-0.0251992
152	0xbd7adcb5	-0.06124564
153	0xbcb22968	-0.02174826
154	0x3c26fa72	0.010191547
155	0xbe17a3c6	-0.14808568
156	0xbd40aed4	-0.04704173
157	0xbd89e87b	-0.06733795
158	0x3d3b637c	0.045749173
159	0x3e24ce14	0.16094238
160	0x3e9321b5	0.28736654
161	0xbbbfa628	-0.005848665
162	0xb8bffc5b	-9.1545946e-05
163	0x3dd31fde	0.103088126
164	0x3c1082fa	0.00882029
165	0x3cf1a1a3	0.02949602
166	0x3d1ae7c1	0.037818674
167	0xbe1fdd50	-0.15611768
168	0xbd2be9ab	-0.04197089
169	0xbe0cb353	-0.13740282
170	0x3cdd2b2f	0.02699813
171	0x3d140050	0.03613311
172	0xbcb67f62	-0.022277538
173	0x3e4bf25b	0.1991667
174	0x3cbf45cc	0.023348711
175	0xbce4d351	-0.027932795
176	0x3d416e01	0.04722405
177	0xbe5b6604	-0.21425635
178	0xbdbb743a	-0.09153028
179	0xbe3a879f	-0.18215798
180	0xbd6c4acb	-0.057688516
181	0x3e11deab	0.14245097
182	0xbd75827e	-0.0599389
183	0x3cfa65c7	0.03056611
184	0xbd17bbe2	-0.037044413
185	0x39b25035	0.00034010565
186	0xbcfcfbe5	-0.030881831
187	0x3e3d57a5	0.18490465
188	0xbde8cbf1	-0.11367024
189	0xbc0d3122	-0.008617671
190	0xbcc692e7	-0.02423997
191	0x3db091da	0.08621569
192	0xbb94a5d0	-0.004536368
193	0xbc9e6843	-0.019336825
194	0x3d3478e4	0.044060603
195	0xbbe608b4	-0.0070200805
196	0x3dba8684	0.09107688
197	0x3e6ed550	0.2332356
198	0xbd1ddf78	-0.038543195
199	0x3dcf3549	0.10117585
200	0xbd75eca0	-0.060040116
201	0x3cc1a2f3	0.02363727
202	0x3e236098	0.15954816
203	0x3da171bc	0.07883021
204	0xbe097b5b	-0.13425963
205	0x3e77e394	0.24207908
206	0x3d015510	0.031575263
207	0x3e3065bf	0.17226313
208	0x3e0c1405	0.13679512
209	0xbdea1ebe	-0.11431645
210	0x3d6c032a	0.057620205
211	0x3c542367	0.012947894
212	0x3cb37e92	0.02191094
213	0x3e11cceb	0.14238326
214	0xbe16539e	-0.14680335
215	0x3e09f8f8	0.1347388
216	0x3db17e72	0.08666696
217	0x3dda61c4	0.106631786
218	0xbc3476ad	-0.011014623
219	0x3d5d4d30	0.05402869
220	0xbd88da70	-0.06682289
221	0x3dd3c926	0.103411004
222	0xbddcdf26	-0.1078475
223	0x3d458846	0.048225664
224	0xbdd06111	-0.10174764
225	0x3e88fe48	0.267565
226	0x3c477c47	0.012175626
227	0x3d5b78b7	0.05358192
228	0xbcd9b357	-0.026574774
229	0x3de53c8e	0.111931905
230	0xbcc2582a	-0.02372368
231	0x3bcfa284	0.006336512
232	0x3deecdee	0.11660372
233	0x3d83ed5f	0.06441759
234	0xbb46cebf	-0.0030335633
235	0x3b000a99	0.0019537567
236	0xbe2bc0f2	-0.16772822
237	0xbdd22a2f	-0.10261952
238	0xbe22c892	-0.15896824
239	0x3d27da10	0.040979445
240	0x3dfe91e8	0.12430173
241	0xb89dc3c3	-7.522807e-05
242	0x3e02ead6	0.12784895
243	0xbe20159e	-0.15633246
244	0xbeb4d818	-0.35321116
245	0x3d1c5e5e	0.038175933
246	0xbc0a6b3f	-0.008448421
247	0x3dd1900c	0.10232553
248	0xbde90cbc	-0.11379382
249	0xbdbde48a	-0.09272106
250	0xbdc75b0c	-0.09734163
251	0xbddcb416	-0.10776536
252	0x3dc7d345	0.09757093
253	0xbe386c4d	-0.18010063
254	0x3e22740e	0.15864584
255	0x3dba36ca	0.090924814

clf.0.bias f4 [5]
0	0xbbcca728	-0.0062455125
1	0xbca7a2b0	-0.020463318
2	0xbbd46c83	-0.006482662
3	0x3c3ebfde	0.011642424
4	0xb9838f5e	-0.00025093084
