BRCA/models/C1_best_1703022083.pth (torch, 5594 bytes, 2 tensors)

clf.0.weight f4 [5, 200]
0.18186805 -0.045078572 0.075636655 0.0627754 0.02872065 -0.12883337 -0.017174145 0.09389756
0.012024385 0.46535543 -0.11973799 0.02630432 0.07605722 0.026764546 0.09718641 0.02480009
0.066848464 -0.08560264 -0.016238825 -0.0036965075 0.269393 -0.044016622 0.14174008 -0.10811888
0.11465934 -0.2666791 -0.027590409 0.108907096 0.084926195 0.20917796 0.14346191 0.078636356
-0.0478794 -0.032857597 -0.03051497 -0.04411627 -0.038961463 0.011272551 0.11191429 0.025639594
0.0043733036 0.10921723 0.040500026 0.020597504 0.24588312 -0.11978641 0.11675593 0.25868607
0.025547354 -0.058825847 0.082400694 0.22275497 -0.016780451 0.0401419 -0.08426398 0.068456516
-0.008226212 0.09391804 0.10559673 -0.004398199 0.01804182 -0.011709468 0.10380682 0.13946632
-0.18960285 0.18060188 -0.050160713 0.17888127 0.06638775 0.14801991 -0.0019126106 0.12535773
-0.057411604 -0.19781044 0.04353011 0.024124846 0.2874215 0.012609866 -0.021178335 -0.067974694
-0.16914172 -0.15995066 -0.055154625 0.07640332 0.29406402 0.10102195 0.10735924 0.10160929
0.064874865 -0.30769417 0.10225052 0.06760014 0.018858396 -0.029878302 0.037476037 0.12056699
0.14994164 0.17755115 0.06719562 0.08270365 0.10191443 0.03496239 -0.03728287 0.11272279
0.10690631 0.1490708 -0.093835235 0.22669862 0.18390094 0.36724433 -0.19795524 -0.06433126
0.14538358 -0.06419966 -0.07281726 0.12679286 0.05584315 0.12206374 0.12784366 0.16480394
-0.021221085 0.14556271 -0.22235644 -0.058231313 0.058860656 0.03358964 0.07496864 0.0112677105
0.041279692 0.14300771 -0.15128218 0.003275356 -0.12707448 0.069356054 0.1564886 -0.18520465
-0.16170831 0.14757122 0.048267446 -0.04286219 -0.09822594 -0.12676612 0.10180139 -0.070995435
-0.0705505 -0.16860887 0.055502094 -0.050379764 -0.05191118 0.12906201 0.08800601 0.054087516
-0.0021982444 -0.03828006 -0.1148482 -0.012190402 0.13540576 -0.011349764 0.12292067 0.02239542
-0.084661394 0.08784667 -0.26430747 -0.11569392 -0.36096883 -0.0032253684 -0.1858098 -0.014241138
-0.06423577 -0.032045987 0.07637475 -0.04121693 0.0825671 0.04558653 0.1418177 -0.27622524
0.22195454 -0.0025609867 -0.20297097 0.05450806 0.1679693 -0.08272631 -0.1516297 0.38104415
-0.04120162 -0.28617537 -0.12113054 -0.15823211 0.2488305 0.20773852 0.030624548 -0.11210357
0.10617221 0.09003217 -0.17401229 0.0053125536 -0.00817621 -0.012603726 -0.10193336 0.06817694
-0.15918462 0.020790076 0.02027836 0.005934159 0.012011453 -0.11305471 0.21175168 -0.054633733
-0.18902305 -0.085237056 0.062107243 -0.13558924 -0.22906451 0.36377832 -0.037803713 0.04297786
0.10017416 0.01368058 -0.07459528 0.07687328 0.072798446 0.012797027 -0.06252287 -0.0778504
-0.095015086 0.087978646 0.122077145 -0.06454197 -0.17652875 -0.0716051 0.20038183 0.09289586
-0.27560773 0.09071622 0.089120574 -0.2719112 -0.22434841 0.06614477 0.20349258 -0.11326089
-0.04185957 0.2002929 0.14288877 0.157965 0.26113275 -0.08925947 -0.053796235 -0.110167444
0.022907995 0.05778548 0.3928407 0.18836732 0.07684343 -0.07632996 0.060668875 0.29689214
00000000: 9e3b 3a3e 4fa4 38bd 64e7 9a3d 6490 803d
00000010: 9247 eb3c e5ec 03be cbb0 8cbc 5d4d c03d
00000020: ed01 453c 1143 ee3e 3139 f5bd 287c d73c
00000030: e3c3 9b3d 5241 db3c ab09 c73d 8f29 cb3c
00000040: d9e7 883d 7050 afbd 4907 85bc 1b41 72bb
00000050: e1ed 893e c64a 34bd 5024 113e 6e6d ddbd
00000060: 84d2 ea3d 2a8a 88be 4805 e2bc af0a df3d
00000070: c9ed ad3d bf32 563e aee7 123e 190c a13d
00000080: 311d 44bd b095 06bd 88fa f9bc 43b3 34bd
00000090: 0e96 1fbd 81b0 383c 5233 e53d 200a d23c
000000a0: ee4d 8f3b 48ad df3d 5be3 253d 19bc a83c
000000b0: c9c8 7b3e 9452 f5bd bc1d ef3d 8072 843e
000000c0: af48 d13c 5ff3 70bd b2c1 a83d e119 643e
000000d0: 2877 89bc d56b 243d 9892 acbd ee32 8c3d
000000e0: 3cc7 06bc 1a58 c03d 1943 d83d c41e 90bb
000000f0: 70cc 933c 12d9 3fbc ac98 d43d 42d0 0e3e
00000100: 4027 42be b3ef 383e 5275 4dbd a72c 373e
00000110: 4df6 873d 8892 173e 90b0 faba c75d 003e
00000120: 6e28 6bbd d28e 4abe a14c 323d 78a1 c53c
00000130: e928 933e 9d99 4e3c 307e adbc 5136 8bbd
00000140: 7d33 2dbe 1bca 23be d1e9 61bd 5879 9c3d
00000150: 8f8f 963e 99e4 ce3d 29df db3d 8818 d03d
00000160: 1ddd 843d 178a 9dbe b868 d13d f171 8a3d
00000170: ec7c 9a3c 57c3 f4bc 7980 193d d3eb f63d
00000180: 4d8a 193e f8cf 353e db9d 893d 8860 a93d
00000190: 83b8 d03d b934 0f3d ecb5 18bd 35db e63d
000001a0: b2f1 da3d 04a6 183e b02c c0bd af23 683e
000001b0: 8750 3c3e 7307 bc3e c7b4 4abe 1cc0 83bd
000001c0: 6fdf 143e 1d7b 83bd 3721 95bd fdd5 013e
000001d0: c9bb 643d 8efc f93d 73e9 023e 5dc2 283e
000001e0: d7d7 adbc 640e 153e 68b1 63be f583 6ebd
000001f0: df17 713d 4a95 093d 2989 993d 349c 383c
00000200: e514 293d 9d70 123e b7e9 1abe 5ba7 563b
00000210: d01f 02be 8c0a 8e3d 8c3e 203e 4aa6 3dbe
00000220: dd96 25be e91c 173e 16b4 453d 4490 2fbd
00000230: ae2a c9bd face 01be 3f7d d03d 0e66 91bd
00000240: c87c 90bd cea7 2cbe 2a56 633d 035b 4ebd
00000250: d1a0 54bd d528 043e 7f3c b43d df8a 5d3d
00000260: 6c10 10bb 8dcb 1cbd 8835 ebbd 40ba 47bc
00000270: cfa7 0a3e 5cf4 39bc d5bd fb3d 9a76 b73c
00000280: f462 adbd f4e8 b33d 4f53 87be eff0 ecbd
00000290: e8d0 b8be b460 53bb ed44 3ebe a953 69bc
000002a0: 0b8e 83bd a742 03bd 5d6a 9c3d 15d3 28bd
000002b0: f118 a93d f1b8 3a3d a938 113e 656d 8dbe
000002c0: 0d48 633e 3ad6 27bb 9fd7 4fbe d843 5f3d
000002d0: 2500 2c3e 696c a9bd d144 1bbe 3818 c33e
000002e0: 08c3 28bd 9485 92be 4a13 f8bd 9907 22be
000002f0: 6ccd 7e3e 68b9 543e 55e0 fa3c 8e96 e5bd
00000300: d170 d93d c962 b83d 4730 32be ee14 ae3b
00000310: 83f5 05bc dc7f 4ebc 70c2 d0bd 5aa0 8b3d
00000320: 4b01 23be f34f aa3c ce1e a63c 5573 c23b
00000330: afcb 443c 3a89 e7bd 6fd5 583e 9fc7 5fbd
00000340: 428f 41be c490 aebd 2a64 7e3d e8d7 0abe
00000350: e38f 6abe 2741 ba3e 11d8 1abd 8d09 303d
00000360: 1c28 cd3d 8324 603c 69c5 98bd bd6f 9d3d
00000370: 5a17 953d 9faa 513c fe0b 80bd 0870 9fbd
00000380: 4597 c2bd 262e b43d 9503 fa3d 952e 84bd
00000390: f4c3 34be b2a5 92bd e530 4d3e 2f40 be3d
000003a0: 751c 8dbe 6dc9 b93d d984 b63d f237 8bbe
000003b0: 97bb 65be e976 873d 5c60 503e 53f5 e7bd
000003c0: f174 2bbd 9519 4d3e 6f51 123e 94c1 213e
000003d0: 31b3 853e abcd b6bd 7159 5cbd 789f e1bd
000003e0: 8ca9 bb3c 78b0 6c3d 6b22 c93e 5de3 403e
000003f0: 1760 9d3d e252 9cbd ed7f 783d 3f02 983e

clf.0.bias f4 [5]
-0.005714562 0.28793916 -0.47975436 0.5764868 -0.30529347
00000000: 3841 bbbb c36c 933e 5da2 f5be a494 133f
00000010: 6d4f 9cbe
