BRCA/models/C1_best_1702941393.pth (torch, 5594 bytes, 2 tensors)

clf.0.weight f4 [5, 200]
000000 d3 63 aa 3b c2 18 62 3d b1 39 f6 3d 86 15 dc 3d
       0.0051998883 0.055199392 0.120227225 0.10746293
000010 d1 dd 0f 3e be 47 25 bd 60 2f d9 3d 1c 1c 26 bd
       0.1404946 -0.04035162 0.10604739 -0.04055415
000020 3d 93 cf 3d d3 09 4b be 20 92 6e bd ec 31 04 3e
       0.10135505 -0.19827966 -0.058244824 0.12909669
000030 a8 88 86 3d 6e 03 81 bd c0 ae 06 3e 44 2e 04 be
       0.06569034 -0.06299482 0.131526 -0.12908274
000040 ea 03 3a 3e da eb 24 bd 77 7b 07 be ab 2f 82 3c
       0.18165556 -0.040263988 -0.13230692 0.01589187
000050 c0 2a 2a 3d 5c 0b a6 bd e4 bb ad 3d fd ef 74 bd
       0.041544676 -0.081076354 0.08483103 -0.059799183
000060 1f d0 98 3d ca 4b 84 3d 45 6a 29 be 16 0b 04 bc
       0.07461571 0.06459768 -0.16544445 -0.008059284
000070 ad 52 06 be 72 d3 10 3d 8f b7 95 bc 69 c2 26 bc
       -0.13117476 0.0353579 -0.018276004 -0.010178187
000080 c7 78 3c bd 37 57 eb 3d 44 89 a6 3d ba 52 0b be
       -0.04601362 0.11491244 0.0813165 -0.13605776
000090 29 f9 ff 3b b7 9b a8 bd e0 01 c8 3d 58 fd e3 3c
       0.0078116846 -0.08232825 0.09765983 0.027830765
0000a0 fa 71 68 3d ed 91 24 3c 93 23 95 bc e9 43 60 bd
       0.05674932 0.010044557 -0.01820544 -0.054752264
0000b0 d1 90 df b9 5d 7c c3 bc c8 a5 f7 3d 08 80 cc bb
       -0.0004264177 -0.023863012 0.12092167 -0.0062408485
0000c0 f5 b3 ac bd 31 da f1 3d bb 70 78 bd 37 7f e6 bc
       -0.084327616 0.11809195 -0.060654383 -0.028136833
0000d0 12 58 c5 3d 0a 62 b1 bd 66 7d 77 bd 3a 95 d6 bd
       0.09635939 -0.086612776 -0.060422324 -0.104776815
0000e0 7c 4c 2d 3d 00 69 55 bc e3 20 40 bd 57 64 09 3c
       0.04230927 -0.013025522 -0.046906363 0.008385739
0000f0 71 0e e4 3c 1e e2 85 3c 54 11 08 3d 4f 20 a1 3d
       0.027838917 0.016343173 0.03321965 0.078674905
000100 e5 13 84 bc 37 e5 ca 3c 1a 0b 0a bc a3 d5 95 bc
       -0.016122768 0.024767501 -0.008425498 -0.018290346
000110 fa 08 b0 3d c8 bf 09 3c f9 64 53 3d 8b a4 f3 bc
       0.08595462 0.008407541 0.051609967 -0.029741546
000120 87 15 de bc 3f 43 0d bd dc ac 0b bd cd 9a b4 39
       -0.027109874 -0.03448796 -0.0341004 0.0003444761
000130 aa f8 72 3c 08 6a 3b 3d f1 9a 99 3b ee cc 70 3d
       0.014829794 0.045755416 0.00468766 0.058789186
000140 ff ee 29 be 2b 56 26 3d 54 ce 6b bb 26 e8 9b 3d
       -0.16595076 0.04060952 -0.0035981135 0.07612638
000150 84 02 c6 bd 64 c4 0a 3e 45 11 0a 3e 95 57 93 3c
       -0.096684486 0.1355148 0.1348315 0.017986098
000160 2b 77 a1 3b 76 97 18 3d 37 b3 c6 3d 4f 66 7d 3d
       0.004927536 0.03725382 0.09702151 0.061865147
000170 ba 6c 04 be 56 02 85 3d 2f 3a 89 3c 74 a4 c4 3c
       -0.12932101 0.06494586 0.016751377 0.024004199
000180 2b 94 10 3d a3 42 08 3c d1 f1 86 3d dd 24 44 be
       0.035297554 0.008316669 0.065890916 -0.19154687
000190 6c 43 73 3d 57 0d cf 3d 0f 87 dd bd 82 fb 70 bd
       0.05939047 0.10109966 -0.10816776 -0.058833607
0001a0 b8 4c 36 3e 76 61 b0 bc bf 3f 1f 3e ed 9f 13 3a
       0.17802703 -0.021530848 0.15551661 0.0005631436
0001b0 cb 0f dc bc 20 d2 94 3d 04 65 1d 3e 2a 2f f9 3d
       -0.026863 0.07266641 0.15370566 0.12167199
0001c0 e1 73 d2 3d 99 68 69 3c cc b2 a0 3d 16 22 2d 3e
       0.102760084 0.014246129 0.07846603 0.16907534
0001d0 55 d0 d7 3d b6 99 14 3e 72 dd eb bd c8 ee c1 bc
       0.10537783 0.14511761 -0.11516847 -0.02367343
0001e0 00 21 a1 bd 6e e4 29 3d cc ca 29 bc 35 5a 98 bd
       -0.078676224 0.041477613 -0.010363292 -0.074390806
0001f0 72 19 64 3d b0 8e b9 bd 12 67 70 3d d3 58 d1 3d
       0.05568833 -0.090604186 0.058692046 0.1022202
000200 4a ac a6 3d bd 6c 9f bd cf 53 25 bd cc 94 5f bd
       0.0813833 -0.07784412 -0.04036313 -0.054585263
000210 3e d7 da bc 81 d8 18 be a5 35 52 bc 06 cd 17 bd
       -0.026713964 -0.1492634 -0.012830173 -0.03706076
000220 2e c6 c5 3d 2a ce 3b 3d aa d2 e3 bd f0 41 7c 3d
       0.096569404 0.04585091 -0.11124165 0.06158632
000230 f4 32 b2 bb 93 84 da bd 76 8c c2 bc 4f 15 87 bd
       -0.005438203 -0.10669818 -0.023748618 -0.06595861
000240 f7 e1 4f bc 12 86 b4 3d 40 97 6e bc ff f8 ae 3d
       -0.012688152 0.088146344 -0.014562428 0.08543586
000250 8e ac 10 bd a7 d0 ce ba e0 90 6d 3d c3 b9 3a 3d
       -0.03532081 -0.0015778736 0.05799949 0.045587312
000260 0e 33 04 bd 10 88 f3 3c fb 3a cc bd 04 f4 de bd
       -0.032275252 0.029727966 -0.09972187 -0.10886386
000270 88 ba 02 3d 7b ef 29 bd ec 8f e8 3b e2 80 5e 3d
       0.03191617 -0.041488152 0.007097235 0.05432213
000280 6a f6 85 bd da 79 42 3e ff 77 d1 3d 21 61 e3 3a
       -0.065411404 0.18991795 0.102279656 0.0017347672
000290 6e ca 67 3d 1e 7b ff 3b dc ab 68 3d 31 16 cc ba
       0.056589536 0.007796659 0.056804523 -0.0015570578
0002a0 12 8f 53 3e c7 5f 1e 3d 67 11 1c 3e 81 76 01 3d
       0.20660046 0.03866556 0.15241013 0.031607155
0002b0 61 8c 9c bd ce 6d 21 3e d5 23 10 3e be 32 fc bc
       -0.07643963 0.15764543 0.14076169 -0.030785915
0002c0 28 43 54 bd a7 2c 6c 3d 8d eb 62 be ae 5e 08 bd
       -0.051821858 0.05765977 -0.22160168 -0.03329342
0002d0 31 64 af bc 69 80 49 bd 01 86 09 3c ab 00 f3 bb
       -0.02141008 -0.049194727 0.008393765 -0.007415851
0002e0 3e c5 b0 3d 88 88 94 3b 6b d7 42 3d 24 d9 8e 3d
       0.08631371 0.0045328774 0.04756872 0.0697501
0002f0 51 4c a7 bc d4 f5 e0 bc 65 f2 53 bd 2b 26 bc bc
       -0.020422133 -0.02746097 -0.051744837 -0.022967419
000300 40 17 96 bd 31 df 30 bd 2f 55 50 3d e6 a3 4c 3c
       -0.07328653 -0.043181602 0.050862487 0.012490248
000310 1d a9 fd 3b 61 ce ba 3d 39 eb 10 3d 09 ee 6c 3d
       0.007741107 0.09121395 0.035380576 0.057844196
000320 b3 01 a5 bd b7 c2 4b 3e cc a2 bb 3d 01 42 49 3d
       -0.08056965 0.19898497 0.091619104 0.04913521
000330 64 f2 0d 3d c3 44 45 3c 2c 81 e7 3d 3f 15 c1 3c
       0.03465499 0.01204032 0.113039345 0.023569701
000340 38 2c c7 bc 8d b7 20 3e e1 3a 81 3d 25 a3 3a bd
       -0.024313077 0.15695019 0.063100584 -0.045565743
000350 53 0f ac 3d e2 81 20 3b 19 ab c0 3c b1 49 9d bd
       0.0840136 0.0024491479 0.023519086 -0.07680071
000360 3c 97 fc bc c6 09 c8 3d 6d 03 a7 3d 54 b9 db bc
       -0.030833833 0.09767489 0.0815495 -0.02682177
000370 9f 43 7c 3c 6f f8 a3 bd 8c d7 47 bc e9 12 a6 3d
       0.0153969815 -0.08006369 -0.0121973865 0.081090756
000380 76 47 06 3e ac 07 c6 bd dd d1 87 bd e2 48 e8 3d
       0.13113198 -0.09669432 -0.06631825 0.11342026
000390 0e 3e 9f bc e0 62 63 3c a0 a5 a4 3c a4 89 f3 3c
       -0.01943877 0.013878554 0.020098507 0.029728718
0003a0 6e 14 82 bd d1 03 b2 bc 64 f8 e8 bd 23 21 e8 bd
       -0.06351553 -0.021730335 -0.11375502 -0.11334445
0003b0 ba db e3 bb bf fc ef bd cd 3e 0f 3e 39 1b f1 bc
       -0.0069536837 -0.11718129 0.139888 -0.029431926
0003c0 c6 c8 4b 3d 59 68 fb bd b0 95 1a 3e 70 de 0f 3e
       0.04975202 -0.12275762 0.15096164 0.14049697
0003d0 4d 71 97 3d 50 0c a1 3d a4 1c bb bd 92 33 ed 3b
       0.07394657 0.078636765 -0.09136322 0.0072388137
0003e0 94 50 11 bb 31 ae a5 3d 40 6e f3 bc 18 64 90 3b
       -0.0022173272 0.08089865 -0.029715657 0.0044064634
0003f0 f0 ac 96 bd 7d a0 bb bd 89 fe 40 3e bb da cb bd
       -0.07357204 -0.0916147 0.18847097 -0.09953829

clf.0.bias f4 [5]
000000 eb 51 ac bc 66 4e b2 bd 4b 49 e6 bd f0 7c 20 3e
       -0.021035155 -0.087063596 -0.11244448 0.1567266
000010 af 9b 02 bd
       -0.031886753
