BRCA/models/C1_best_1703025795.pth (torch, 5594 bytes, 2 tensors)

clf.0.weight f4 [5, 200]
00000000: 05cd 1abd a90e 9a3d faf4 963c c269 f33c
00000010: db63 a53c 0e0c f73c e6f1 56bd d705 adbb
00000020: 1871 79bc 04bc 1bbc 44df 033e b5ee 88bc
00000030: d616 83bd 069d d9bd b3cd 073d 8e02 cf3c
00000040: ef23 1b3d a779 d23d 0cb0 9d3d f34e de3d
00000050: c0a2 af3d d06c 5f3d 7299 1cbd c0d5 62be
00000060: 6bd4 0c3d b606 69bb f3b9 c1ba f7a1 853d
00000070: e81b acbb 1aec a13d 8599 b9bd 4ec3 703c
00000080: 87e0 84bd 578c cb3d 3f91 eb3d c3a6 1d3e
00000090: 4fd9 173d 63e8 c2bd 1685 f43c 9f59 6fbc
000000a0: d69e 94bd bf07 27be a50e c5bd db94 b53c
000000b0: 2606 cabd 6205 a23c 9730 083e 0d0e 1ebd
000000c0: b634 c43b c0ca ae3d d5a7 20bd 218b 11bc
000000d0: d2d6 bcbd 67aa a53c 5320 333d 0fdc 193c
000000e0: ff70 e03c fcb5 16bc 5219 753c 5b11 513d
000000f0: c29a 4c3d 4e3d b13d 3637 87bc f716 1f3e
00000100: d7e1 c63d c33d c3bd 872c a0bb 0f1e 81bd
00000110: 3248 133c 2eaf d13c e495 853c 9e14 973d
00000120: cf40 943c 6f63 313c f6d5 29bd abe8 333c
00000130: 6271 efbc 5879 2cbd 9387 99bd 9493 91bd
00000140: 1868 7bbc 43e0 bbbc 941e bbbc 2689 fabd
00000150: f7b9 f0bd 47cf a1bd 748d 9a3d 65b3 b2bd
00000160: 07c4 05bc 0cef babd 3650 ea3d 0daa 8dbd
00000170: 80af 693d 7564 ae3c 3d8a d43c 7a69 c2bd
00000180: 8c38 f8bb b144 aebd 1c0d 4f3e 0e3e a73d
00000190: 7d2a d63d 95d4 5bbd b0db 0c3e bf41 a5bd
000001a0: 1e27 d8b9 9f96 3fbd eafc 0b3d bc8e 51bd
000001b0: 3154 93bd 1b51 8b3d 3a28 05bd fb27 1bbd
000001c0: 54c7 b33d a128 5d3c c989 623d fbc4 07be
000001d0: 9c46 f83c b45d 513d a2ed e73c a5e0 663c
000001e0: 0d9c 88bd 66e6 16be 195e 4ebe 9cd4 1c3d
000001f0: b007 503d 4496 2abc c987 853d a974 133e
00000200: 4872 aebc 483c 633d c7ea 96bc 5a66 c9bc
00000210: 6922 423d 2aa4 083d 477e 9b3d 7c71 8abd
00000220: c91b 22be 97d1 53bd ead7 dabb 72a9 35be
00000230: 0108 6dbd 0cbf 9bbd 08d5 ccbd 478c 5f3d
00000240: 2703 c93c e8d6 6b3d c507 c13d 24c3 b43d
00000250: f30d b3bd b229 b03d f56e 993c 3633 d83d
00000260: 37e8 f83c 9def 963d a990 3a3e 1680 f53d
00000270: e75b 153b 517d 85ba 78cb c1bc 4a27 013e
00000280: 13f7 4dbc 62f6 1d3d 29c8 043e f7fa 703c
00000290: 382a dd3c b6fb e4bc ee7a a93d ed27 703d
000002a0: 04f1 6cbd 3db6 d73c 68fb f33b f044 8c3d
000002b0: 82f5 963d fbc1 36be 6940 dc3d a1e5 b93d
000002c0: 64aa 34bd 3b7f 2dbc 5fc2 be3c 5398 1bbe
000002d0: ff0e ae3c 08ee 06be c8dd 38bb 94a2 60bd
000002e0: 45ec 49bd 60b0 d0bb 3464 96bd 3ac2 b83d
000002f0: e3db aebd 0dc0 c93c eec5 f5bc b18f 45bc
00000300: 905c 2b3e ee98 64bd 253d debb 1254 60bd
00000310: 4612 163d f963 0abd 7b7d 55bd 0300 063d
00000320: 4e14 80bc 8f83 393d d47b 033e 7cc3 a63c
00000330: 188a 72ba df2e 953b 5402 e53c a8ea 00bd
00000340: 2673 1e3d ae6e 793d 03a4 7e3d 507d 0bbe
00000350: 0935 c2bd 633a e2bc 3c13 acbd 6386 723c
00000360: 7dee 9e3d 786b 0d3e ff25 033c 694d 3f3e
00000370: 80f4 9f3d 38e0 073e 4ba5 ffba 2d18 36bd
00000380: ae74 7f3a 679d dabc 542d 1ebd 9f33 dfbd
00000390: 0e99 95bd de6a 053e 38d4 12bd eee4 203d
000003a0: b6a7 b5bd 27ec 503e f77d 8d3c 5a9a 033d
000003b0: 1e8d 40bd b850 89bd f79b 8f3d f759 acbd
000003c0: ec59 74bd 8719 e2bd 5dca 8c3c bb79 713d
000003d0: a34a 78bd 027d ba3c 30a7 2e3e e59e 613d
000003e0: 092c f6bd 6aa1 fa3d cf55 d23d ebf6 a9bd
000003f0: bad4 5cbc 47e9 9bbe 4a1d 013e f4b5 2d3e
-0.037793178 0.075223275 0.01842736 0.029713515 0.020189216 0.030157115 -0.052476786 -0.005280237
-0.015224718 -0.009505276 0.12878138 -0.016715387 -0.0640084 -0.10625653 0.033155154 0.025269773
0.037876066 0.102771096 0.07699594 0.10854902 0.08575964 0.05454713 -0.038232274 -0.22151852
0.034382265 -0.0035556979 -0.0014780149 0.06525033 -0.00525235 0.07906361 -0.09062485 0.014695002
-0.06488138 0.09938877 0.11502313 0.15395646 0.037072476 -0.095169805 0.029848617 -0.01460877
-0.07256858 -0.16311549 -0.09621934 0.022165706 -0.09864454 0.019777957 0.13299786 -0.03858762
0.005987729 0.08534765 -0.039222557 -0.008883269 -0.09220661 0.020222856 0.043732 0.009390845
0.02739763 -0.009198662 0.01495965 0.051041942 0.049952276 0.08654271 -0.016505819 0.15536104
0.09711044 -0.095332645 -0.0048881206 -0.06304561 0.008989381 0.025596227 0.016306825 0.07376979
0.01809731 0.0108269295 -0.041463815 0.010980765 -0.02922887 -0.04210791 -0.07496562 -0.071082264
-0.015344642 -0.022934085 -0.02284173 -0.1223319 -0.1175422 -0.07900863 0.07546511 -0.08725623
-0.008164412 -0.09127626 0.1144108 -0.069172 0.057052135 0.021288136 0.025944823 -0.09492774
-0.0075751003 -0.085091956 0.20219845 0.08166133 0.10457323 -0.05366953 0.13755679 -0.08069181
-0.00041227875 -0.046774503 0.034176745 -0.051161513 -0.071937926 0.06802579 -0.032509066 -0.037879925
0.08778253 0.013498456 0.055307183 -0.13258736 0.030307107 0.051114753 0.028311554 0.014091645
-0.06670389 -0.14736328 -0.20153083 0.038288698 0.05078858 -0.010411803 0.065200396 0.14399971
-0.021294728 0.05547741 -0.018422497 -0.024584938 0.047396097 0.033359684 0.07592445 -0.06759927
-0.15830912 -0.051713552 -0.006678571 -0.1774042 -0.05786896 -0.07604799 -0.1000157 0.05457714
0.024537636 0.057577997 0.0942531 0.088262826 -0.08742895 0.08601703 0.018729666 0.10556643
0.030384166 0.07369921 0.18219246 0.11987321 0.0022790374 -0.0010184442 -0.023656592 0.12612644
-0.012571114 0.038565047 0.1296698 0.014708272 0.02699767 -0.027952056 0.082754 0.058631826
-0.057847038 0.026332015 0.0074457414 0.06849086 0.07371046 -0.17847435 0.10754473 0.09077001
-0.04410781 -0.010589416 0.023286043 -0.15194826 0.021247385 -0.13176739 -0.0028208364 -0.054842547
-0.04929759 -0.006368682 -0.07343331 0.09021421 -0.08538034 0.02462771 -0.030001607 -0.0120581845
0.16734529 -0.055809908 -0.0067821913 -0.054767676 0.03663852 -0.033786748 -0.05212162 0.032714855
-0.015634682 0.04529148 0.12840205 0.020356886 -0.0009252145 0.0045527066 0.027955212 -0.031473786
0.038684033 0.060896568 0.062168133 -0.13622022 -0.09482772 -0.027615732 -0.08402106 0.014802548
0.07760332 0.13810527 0.008004664 0.18681873 0.078103065 0.13269126 -0.0019504217 -0.04445665
0.00097448647 -0.026686383 -0.038617447 -0.10898518 -0.073045835 0.13029048 -0.03584692 0.039280824
-0.08869879 0.20402585 0.017271979 0.032129623 -0.04700958 -0.06704849 0.0701217 -0.08415597
-0.05965607 -0.11040025 0.017186338 0.05895398 -0.060618054 0.022764686 0.17055964 0.055083174
-0.12020118 0.122378185 0.10270273 -0.08299049 -0.013478452 -0.30451414 0.12608829 0.16963941

clf.0.bias f4 [5]
00000000: e651 67bd 80fb debd 8c2f abbd 1b54 da3d
00000010: 975f 2dbd
-0.05647459 -0.108878136 -0.08358678 0.10660573 -0.04232749
