BRCA/models/C1_best_1702938751.pth (torch, 5594 bytes, 2 tensors)

clf.0.weight f4 [5, 200]
000000 58 a8 01 3a 75 9c 34 bd e0 58 13 3e f7 22 19 3d
       0.00049460446 -0.04409452 0.14389372 0.03738686
000010 62 61 b8 3d 27 31 44 bb de a6 92 3c 06 d0 dd 3d
       0.09002949 -0.0029936524 0.017901834 0.10830693
000020 7d 48 54 3d 98 ce f1 3d 6c ad f0 3c 7a 10 08 3d
       0.051826943 0.11806983 0.029379569 0.03321884
000030 3c be c8 3d e8 eb 09 3e 0f e0 af bd be 68 84 bd
       0.09801909 0.13468897 -0.08587658 -0.064652905
000040 50 9f 2d bd f6 45 c6 bd 45 b7 01 3e 04 91 05 bd
       -0.04238826 -0.09681313 0.12667568 -0.032609
000050 fe 98 3a 3d 64 76 b1 3d d2 7c 2c 3e 18 71 ea 3d
       0.04555606 0.08665159 0.1684449 0.11447352
000060 d9 41 e9 bc 20 be 7c bc 38 5d 05 bc bd 13 ad 3d
       -0.028473781 -0.015426189 -0.008139901 0.084510304
000070 50 cd 64 3d 66 e0 91 3d 62 47 22 3d 4e 05 0e 3c
       0.055859864 0.07122879 0.039618857 0.008668257
000080 d2 0f d8 3d 40 e5 06 bd 16 f9 af 3b 9f 25 a2 bc
       0.105498925 -0.032933474 0.0053702695 -0.01979333
000090 6e 4e 81 bd 49 25 cb 3d 36 48 ff bb 19 67 7c 3d
       -0.063137874 0.09919221 -0.0077905906 0.06162176
0000a0 90 ce 02 be 63 16 06 3d f5 58 3f bd ec ae 95 3d
       -0.1277411 0.032736193 -0.046715695 0.07308754
0000b0 62 13 bb bc a8 b3 81 bd 41 85 c5 3c a3 1e 0b 3c
       -0.02283639 -0.06333095 0.024111392 0.008491191
0000c0 f9 0e 8f 3d ca 20 3e bd 83 91 8a bc 4a d8 2f 3d
       0.06985278 -0.04641799 -0.016915089 0.04293088
0000d0 23 86 23 3e 47 0e 99 bc 3c 66 7d 3d 7d 7f 57 be
       0.15969138 -0.018683566 0.061865076 -0.21044727
0000e0 06 7d 78 3d ed 8b 2a 3c 47 76 e7 bc be 35 a6 3d
       0.060666107 0.0104093375 -0.028254641 0.08115719
0000f0 1b c3 c5 3d 04 57 cf 3b 79 51 4c 3d 80 f1 af 3b
       0.09656354 0.0063275117 0.049882386 0.005369365
000100 32 58 1d 3b 5c af 76 3d 9d 53 fd 3b f0 dd 89 3d
       0.0024008867 0.06022583 0.0077309147 0.06731784
000110 34 fa 1e bd 1b 14 d3 3d 45 54 4e 3d 08 ec 18 be
       -0.03881283 0.10306569 0.050373334 -0.14933789
000120 49 bb e8 3b dc 0f ab 3b a7 bb 83 3d 04 18 91 3d
       0.0071024043 0.0052203964 0.06432276 0.07084659
000130 e8 f5 4d bd 63 d0 bf 3d 11 af 81 bb dd 02 9a bd
       -0.050283343 0.093659185 -0.003957637 -0.075200774
000140 8d 36 75 3a 22 b3 5c bd c2 36 22 3e 60 7b 07 3e
       0.0009354137 -0.05388177 0.15841201 0.13230658
000150 47 35 2d bd 41 39 9d 3d e2 87 71 3b 5e 9d 99 bd
       -0.042287137 0.07676936 0.0036854674 -0.075007185
000160 fb 69 15 3e cf 35 32 bc 7a e0 0b be 51 fc c0 bd
       0.1459121 -0.010877087 -0.1365985 -0.094231255
000170 4d ac d2 bd e9 28 82 bb 8d 30 25 be c2 22 0a bd
       -0.1028677 -0.003972162 -0.16131802 -0.033724554
000180 23 d1 27 3c ab b0 76 bd a9 4b 85 3d f4 89 ff 3d
       0.010242733 -0.060227077 0.06508572 0.12477484
000190 04 71 4c bd 7c 43 6c bc 84 ff 65 3d b5 4e dd bc
       -0.049912468 -0.014420386 0.05615188 -0.02701507
0001a0 19 db 53 3e 8f c3 0b 3e 3d 53 33 3d b1 7e 23 3d
       0.20689048 0.13648818 0.043780554 0.039915744
0001b0 ec 29 9e 3c 3f b9 63 3c 0e bd 13 3e 32 0f 1b 3e
       0.0193071 0.013899147 0.14427587 0.15142515
0001c0 d2 3d 01 3d e5 58 43 be f5 02 fa 3c e3 d9 f7 bb
       0.031553097 -0.1907688 0.030518988 -0.007563816
0001d0 ab c3 c2 3d 93 f4 ad 3d d6 d5 1d 3d d1 35 3d bd
       0.09509977 0.084939145 0.038534008 -0.0461939
0001e0 9b 70 1d bd c7 97 13 3d fa d2 f2 3d 39 30 59 bd
       -0.038437467 0.036033418 0.11856647 -0.053024504
0001f0 97 7b 07 be cd 24 14 3d df 44 ca bb 1a 37 a1 3d
       -0.1323074 0.03616791 -0.006172761 0.07871838
000200 15 e4 08 be 01 17 89 bd 85 7a 3f 3d 9a de 0a bd
       -0.13368256 -0.06693841 0.046747703 -0.033903696
000210 d6 0b 87 3d 5e ba 05 3d ef 66 4b bd 0a de 58 3e
       0.065940544 0.032648437 -0.049658712 0.21178451
000220 a9 41 24 3e 77 9e 04 3e ef 3e a8 bb 3d 9b d4 3c
       0.16040672 0.12951075 -0.0051344554 0.02595293
000230 26 23 ef 3d 85 af 3e 3c 79 e8 93 3a 3a fb a6 3c
       0.11676626 0.011638527 0.0011284492 0.020383466
000240 1f b6 d7 bc 76 50 ac 3d 95 74 0e bb f3 95 44 3d
       -0.02633196 0.08413784 -0.0021736969 0.047994565
000250 d1 2b a3 bd f5 39 19 3d 00 f4 9f 3d da b2 fe 3b
       -0.07967342 0.037408788 0.07810211 0.0077727856
000260 8b b8 47 3e e1 2e c8 3d 56 4a d6 3c 1b 98 97 3d
       0.19503991 0.097745664 0.026158493 0.07402059
000270 a6 8c 3e bd cc 53 8c bd fc 6f 59 bc a2 d7 45 3d
       -0.04652085 -0.068519205 -0.013271328 0.048301347
000280 83 9e b9 bc b8 d7 31 bd 15 b4 ae 3c 79 3f 56 be
       -0.022658592 -0.043418616 0.021326104 -0.2092265
000290 fb 46 ab 3d 90 b8 82 3d 13 13 de bd f1 84 63 3c
       0.08363148 0.06382859 -0.10843482 0.013886676
0002a0 39 62 5b bd a6 37 38 3d c9 78 4b 3b 14 b0 ec 3c
       -0.05356047 0.044974945 0.0031047335 0.028892554
0002b0 02 c4 95 bd 08 3e 83 bd 4b 3e ae 3c 2a 65 b5 3d
       -0.07312776 -0.06408316 0.021269938 0.08857186
0002c0 7d 1a ee 3c 64 8c 90 3d 8c 81 87 3d f0 7a d8 3d
       0.029065365 0.070580274 0.06616506 0.105703235
0002d0 5c 61 f0 bc 5b 93 28 be dc 09 91 bc fb a3 b2 3b
       -0.0293433 -0.16462462 -0.017704897 0.005451677
0002e0 f9 ed 88 3d 79 57 5e bd 95 56 ed 3d 19 98 d5 3d
       0.06686015 -0.05428264 0.1158878 0.10429401
0002f0 87 0b 78 3d 37 4b 32 3b e2 6d e2 bc 86 c6 60 bc
       0.06055787 0.0027205476 -0.027640287 -0.013719207
000300 64 ba 36 bd 22 07 03 3c 51 d8 f0 3d b0 33 81 bb
       -0.04461135 0.007997306 0.11760009 -0.003942929
000310 a7 14 5b bd 71 2b e3 3c 77 33 3e bc dd 88 35 3c
       -0.053486492 0.027730675 -0.01160895 0.011079994
000320 e7 fe c3 bd ca db 8e bd 0a 95 35 3d 52 bc 9e bc
       -0.09570103 -0.06975515 0.044331588 -0.019376907
000330 16 29 48 bd 12 f8 9b 3d 2c bb 39 3c 70 96 bc bd
       -0.048867308 0.07615675 0.011336129 -0.09208381
000340 38 16 80 bd 36 5a 72 3d a1 6a c5 3d 8f 17 04 bd
       -0.06254238 0.059168063 0.096394785 -0.03224903
000350 77 ab 03 bc b1 05 05 3e ec 55 e9 bd 93 9c 82 3d
       -0.008036486 0.12990452 -0.113933414 0.063775204
000360 80 d8 8f 3c 03 30 f0 bc 7d 13 9d 3d 09 32 33 3e
       0.01755929 -0.029319769 0.07669733 0.17499556
000370 b0 bb f8 3d 6b f8 c1 3c 0b df 96 bc 39 41 a1 3d
       0.121451735 0.023678025 -0.018416902 0.07873768
000380 d0 f5 a9 3d 84 36 8a ba 77 35 cf 3d c9 67 69 3d
       0.08298838 -0.0010544811 0.101176195 0.056983743
000390 7e 30 7b bc 21 40 92 3b 4e f5 70 bd 55 e1 02 3e
       -0.015331386 0.004463211 -0.05882769 0.1278127
0003a0 e8 a4 25 3d 78 42 31 be a6 ed f8 3c 0a 78 29 3c
       0.04044047 -0.17310512 0.030386757 0.010343561
0003b0 8a 07 1d 3d bc 9e 01 3b a2 c6 37 bd 55 4f ae 3d
       0.038337268 0.001977845 -0.044867165 0.08511225
0003c0 23 4c d9 bd 66 d9 94 bc 14 a6 05 3e 3a b7 a2 3c
       -0.10610225 -0.01817007 0.13051635 0.01986276
0003d0 1e 3e a6 bd f3 96 4e bd 2e 33 74 3d f9 8a d7 3d
       -0.08117317 -0.050436925 0.05961912 0.10524554
0003e0 89 58 8e bd c9 35 a9 bd 91 83 86 3d 3e 79 35 3d
       -0.069504805 -0.08262212 0.06568063 0.04430508
0003f0 92 46 02 bc e0 e8 6a 3d 85 b4 4b 3e 77 0c 06 3d
       -0.007951396 0.057350993 0.19893081 0.03272673

clf.0.bias f4 [5]
000000 d7 ac 8e bd 1e 19 04 bd 4e 49 83 bd 51 d7 f0 3d
       -0.0696656 -0.032250516 -0.06410466 0.11759818
000010 b3 60 9c bd
       -0.076356314
