BRCA/models/C2_best_1703025795.pth (torch, 5594 bytes, 2 tensors)

clf.0.weight f4 [5, 200]
00000000: 0ef1 d8bc 250d 6b3d c4cb c7bc 43a8 ce3d
00000010: 7b5f ab3c f478 20be 89ef 853d 4a27 303d
00000020: 3fb3 5e3d 5483 45be 861c 83bd bcfa 21bd
00000030: aa5f 37be 8106 e3bd 42dd d1bd 8104 923d
00000040: 6c52 8d3d c83e 473b 7ed4 cc3a 96b6 c43b
00000050: 7f29 733c 3947 eabc 0074 ef3c 27d3 64bd
00000060: 45ad 84bc deb0 1ebd 06d7 edbd 9045 053d
00000070: ff70 9d3d a63a 00bc 517f 053e 3bcb be3d
00000080: 5d2a 0bbd 0b63 893a d2c6 2f3b 89ad 6abb
00000090: 2d00 9b3d 2def 3c3d 6578 283c 70fe 38bd
000000a0: 8f2a 8ebd 9350 a2bb 5045 a7bc fab2 c1bb
000000b0: bd69 a5bc dcc3 70bd b6af b13c af46 563c
000000c0: 74b4 c83d 74e9 533c ea8e 0f3e 5e61 20bd
000000d0: 31af 5f3d 1235 11bd 5c99 9dbc 28e2 7cbc
000000e0: 8644 1c3d f99d 53bd 9282 423b ae8e 893d
000000f0: 4fcf 85bc f567 81bd 3110 823d 5fd1 643c
00000100: 4b47 243d ebb5 e1bc 83ba 4c3b 4390 0bbd
00000110: 6daa 603c 3218 503d 0edc 80bc 2995 d5bd
00000120: d6ce 0e3b b5d7 03bb 2583 49bc 439a f6bc
00000130: adb6 a2bc 8759 6ebc b295 e93d 9560 febc
00000140: a00b 933c 5752 ac3c 90b9 73bd 1ed1 29bd
00000150: 0252 34be b504 2f3d 8883 edbd 1e1e 503d
00000160: d41e e73d 6e1f edbd fa53 893c e932 bcbd
00000170: d50f 5e3b a57b bebc 6c56 90bd 678a 8f3c
00000180: 9a2d 1dbe 91b1 3b3d b09e efbc a778 53bd
00000190: 88b5 30bd 6e02 e6bc 071c 7bbc e771 ad3c
000001a0: 0006 c83d 7986 95bc 6a35 a4bc 6f11 c0bb
000001b0: b0f0 29be 5c65 803d ffb4 453c e512 fd3c
000001c0: 8881 573d e2f0 a03d 30de 4e3d 57d2 c73c
000001d0: e899 b8bd ce0a 58bd 023a 6fbc b476 093d
000001e0: 0700 513c 80cf 29bd 15a5 8a3d 8335 c83c
000001f0: 7350 3b3d 6b9b 623d 5f29 71bd 2d17 02bd
00000200: f566 32be 4b9f 63bd 113e fc3d 2211 013d
00000210: 5b7c d73b 64fa e23d 5fb9 8dbc 7cef c23d
00000220: 6dfc e2bc d61e 07bc d8e2 0cbc afe5 b7bd
00000230: d498 02be 763c 9dbd b8e5 ac3d 2821 a4bd
00000240: a2c5 603c 9ec8 a83c b054 df3d 3873 06bd
00000250: 4d46 1c3e f9e9 afbd f6cc 52bd b221 40ba
00000260: 1079 5bbd d19b ffbd 0019 933b 02e8 043e
00000270: 813b b3bc 63db 233c 67fe a9bc 66f0 5a3c
00000280: 7106 943d 94b4 823d a7cc dc3d ddba 833d
00000290: 2360 413b 5b6f 043e c128 6ebd 8a1d 8c3d
000002a0: 7643 483d 17fd 16bd 8bc7 19bc cfc6 6bbd
000002b0: 9b73 1e3c 605b ca3d b678 8bbc 6380 9abd
000002c0: 1233 cd3d c0dd 353c 032f 7f3b 949a 07be
000002d0: 027b 8cbc d3d8 0f3d 4864 363d 5357 9b3c
000002e0: bd70 273e 4463 2a3d c51d c8bd 1a24 b1bd
000002f0: 8823 1f3c 2241 1d3d f6ee f5bc 4218 dabc
00000300: 460c e43d aa39 343e 0b27 2a3d 6d50 68bd
00000310: 724d 07bd 29cc 16be 7867 d03d a9d4 293d
00000320: 7b21 8dbd 3988 d43d 38bd 9bbb d61a 993d
00000330: 5e77 c83d c346 03be 2668 e03d 581f 583c
00000340: 4b9e 9c3d 8aaa bf3c e76f 6cbd ebd6 21bd
00000350: e8bc c5bc 7791 a7bd 33dc 273d b6fe 833d
00000360: f1e4 973d 794a 13bd 736c 09bd d8bd 6bbd
00000370: 1a1c 4c3b 720f 35bd 8f7a 25be 061d 6cbd
00000380: 9e7b 81bc 5d46 cebc 0662 033d 0d69 903d
00000390: 530c d53d f8e1 89bd 127c 843c 822a 493d
000003a0: 5534 08bd b74d 9abd cfdd 0ebd d02d a53c
000003b0: 5366 5b3d c2a1 9b3d 6333 b5bd a6eb 0bbc
000003c0: 17f5 cabd 5389 9cbb 055e 02bc ae3f 36be
000003d0: e63c 96bc c533 d6bc b5db f2bc ca3e 543d
000003e0: 25cb 6b3d 7b67 9d3d 5f60 093d 374e 11bd
000003f0: 0abf 7d3d ad6f 173d d431 03bd e847 ee3a
-0.026482131 0.057385582 -0.024389155 0.10090687 0.020919552 -0.1567114 0.06539828 0.04300622
0.05437016 -0.19288379 -0.06401925 -0.03954576 -0.17907587 -0.11085225 -0.1024728 0.07129765
0.06900486 0.003040241 0.0015627292 0.0060032113 0.014841436 -0.028598415 0.029230118 -0.055865433
-0.016195903 -0.038742892 -0.11613278 0.032537043 0.07687568 -0.007826483 0.13036849 0.09316107
-0.033975948 0.0010481788 0.0026821387 -0.0035809001 0.07568393 0.046126533 0.010282611 -0.045164526
-0.06941711 -0.004953453 -0.020418793 -0.0059112282 -0.020192022 -0.058780536 0.02169023 0.013078376
0.09800044 0.0129340775 0.14019361 -0.039155357 0.054610435 -0.035451002 -0.019238167 -0.015434779
0.038151287 -0.051664326 0.0029679877 0.06716667 -0.016334204 -0.06318656 0.063507445 0.013965934
0.040107053 -0.027552566 0.00312391 -0.034073126 0.013712508 0.050804324 -0.01572993 -0.10428841
0.0021790764 -0.0020117585 -0.012299334 -0.030102855 -0.019862497 -0.014547712 0.11405505 -0.031051913
0.01794988 0.021035356 -0.059503138 -0.041459195 -0.17609408 0.0427291 -0.11597353 0.050809972
0.11285177 -0.1157826 0.016763676 -0.09189398 0.0033883948 -0.023252318 -0.07047734 0.01752205
-0.15349427 0.045823637 -0.029250473 -0.051628735 -0.04314187 -0.02807733 -0.015326506 0.021172477
0.097667694 -0.018252598 -0.020045001 -0.0058614532 -0.16595721 0.06269333 0.012067079 0.030892799
0.052613765 0.07858445 0.050504863 0.02439229 -0.0901373 -0.05274468 -0.0146012325 0.03356047
0.012756354 -0.041457653 0.06769768 0.024439579 0.04573102 0.055324 -0.058877345 -0.031760383
-0.17422087 -0.055571835 0.12316526 0.03151048 0.0065761036 0.110829145 -0.017300306 0.09518334
-0.027708257 -0.008247098 -0.008599006 -0.089793555 -0.12753612 -0.07677548 0.08442253 -0.080141366
0.013718994 0.020603474 0.10904825 -0.032824725 0.15261193 -0.085895486 -0.051464997 -0.000732924
-0.05358225 -0.124808915 0.004489064 0.12979129 -0.02187896 0.010001036 -0.020751191 0.0133629795
0.07227791 0.06382099 0.10781222 0.06432126 0.0029506765 0.12933104 -0.058144335 0.06841572
0.04889246 -0.03686246 -0.009385954 -0.057562646 0.009671117 0.0988071 -0.017025333 -0.07544019
0.100195065 0.011100233 0.0038937933 -0.1324256 -0.017148498 0.03511889 0.04452923 0.018962538
0.163516 0.041598573 -0.09771303 -0.08649464 0.009713061 0.038392194 -0.030021172 -0.026622895
0.111351535 0.17600122 0.04154114 -0.056717325 -0.033032842 -0.14726318 0.10175985 0.041462574
-0.068911515 0.10377545 -0.0047527812 0.07475822 0.097883925 -0.12819962 0.10957365 0.013191067
0.076473795 0.023396749 -0.057723906 -0.039511602 -0.02413793 -0.08182042 0.040981483 0.06445067
0.07416714 -0.035959695 -0.03355069 -0.057554096 0.003114468 -0.044204183 -0.16160034 -0.057644866
-0.015806016 -0.025180036 0.032075904 0.07051287 0.10402741 -0.06732553 0.016172443 0.049112804
-0.033253033 -0.07534354 -0.034879502 0.020163447 0.05356438 0.07599212 -0.08847692 -0.00854007
-0.099100284 -0.0047771125 -0.007956986 -0.1779773 -0.018339586 -0.026147733 -0.02964578 0.051817693
0.05756678 0.07685753 0.033539172 -0.035474982 0.061949767 0.036971737 -0.03202994 0.0018179389

clf.0.bias f4 [5]
00000000: 3220 c6bd 022c f83c 857a a5bd 741e 1c3e
00000010: 06f1 95bd
-0.096741095 0.030294422 -0.08080009 0.15245992 -0.07321362
