BRCA/models/C2_best_1703022083.pth (torch, 5594 bytes, 2 tensors)

clf.0.weight f4 [5, 200]
000000 44 f9 26 bd 60 fd 39 3d ff 2e 1d bd 11 5e 1f bd
       -0.040765062 0.045407653 -0.038374897 -0.038908068
000010 4b 4c e7 3c 06 67 b6 bc 5e e0 05 3d df a1 0a 3e
       0.028234622 -0.022265922 0.032684676 0.13538311
000020 a8 db 6d 3d 1c f7 40 bd cc b4 49 3d f2 59 67 3d
       0.05807081 -0.047110662 0.049244687 0.056482263
000030 74 3e ee 3d 86 cc 24 3d a9 20 26 3e 50 28 c1 3d
       0.11633006 0.04023411 0.16223396 0.09431517
000040 ba 6d bf bd 6b 47 bd bb 9c 5d 76 39 8a 39 01 bd
       -0.093471006 -0.005776336 0.0002349526 -0.031549014
000050 a1 11 60 bd 58 8e 8b 3e 94 cd 99 3b df 00 40 3d
       -0.054704312 0.27257037 0.0046936963 0.04687583
000060 29 6f 16 3e 96 e7 d2 3d ba 97 7c 3d fe 30 f9 3d
       0.14690842 0.10298078 0.061668135 0.12167548
000070 f9 5d 12 bd 58 a9 19 3e d7 67 01 bc 72 46 3c 3e
       -0.03573415 0.15006006 -0.0078982925 0.18386248
000080 38 16 98 bc b0 9e d6 bb b3 69 fd 3d 2d 84 ad 3e
       -0.018565282 -0.0065496787 0.12373676 0.33889905
000090 8a ad fd 3a 7a 2f 50 3b ff af 0e 3e 12 4e 84 bc
       0.0019354087 0.003176658 0.13934325 -0.016150508
0000a0 89 b8 e2 3b f9 24 06 3e 89 e0 95 bc 13 8a 34 bc
       0.006918971 0.13100041 -0.018295543 -0.011019248
0000b0 52 1b 26 3d ed e5 44 bc f9 7e 16 3e c0 b9 16 3e
       0.0405534 -0.012017709 0.14696874 0.14719296
0000c0 41 23 58 3d d3 ab 5f bb 04 df 69 3d ac 66 13 bd
       0.052767996 -0.0034129515 0.05709745 -0.035986587
0000d0 99 f2 30 3c 60 2e a2 3d 3d 12 2e 3e d9 5b 76 3e
       0.010800027 0.079190016 0.16999145 0.24058475
0000e0 4c 25 b1 3d 16 85 65 bb 26 31 d9 3d 42 fe ef 3d
       0.08649692 -0.0035021952 0.106050774 0.11718418
0000f0 cd 8a 00 bd 44 5f a3 3d 12 c9 16 3d 9e 63 90 3d
       -0.03138237 0.07977155 0.03681285 0.070502505
000100 cd de 82 3d 64 a4 87 3d 05 dc 85 3d d5 0c 58 3e
       0.06390152 0.06623152 0.06536106 0.21098645
000110 45 44 14 3d 1a ec 83 3d a8 e5 a4 3d 5d 8b 3d bc
       0.03619792 0.06441517 0.08051616 -0.011568871
000120 b9 a0 a7 3d c8 4c c5 3d f8 f3 32 3e 1e 21 0a 3d
       0.08184952 0.096337855 0.17475879 0.03372299
000130 f2 05 d0 3d 72 d0 0d 3e 77 03 ed 3c 08 a8 34 bc
       0.10157384 0.13849047 0.028932316 -0.01102639
000140 5f b4 d6 bc 9b 06 ac 3d 07 d2 4d 3d 2a 4a 0d bc
       -0.026209055 0.083996974 0.050249126 -0.008623639
000150 b9 8d 44 3d 69 5a 84 bd 67 e4 82 bd 40 81 1f 3e
       0.04798672 -0.06462557 -0.063912205 0.15576649
000160 de e2 4d bd 51 f6 f1 3d 06 44 a4 3a df d1 84 3c
       -0.050265186 0.11814559 0.001253248 0.016213356
000170 d5 36 30 3e 35 35 ad bd 1c 1d f3 3d 02 75 68 3b
       0.17208417 -0.08457414 0.118707865 0.0035470133
000180 40 4e 95 3d e8 82 11 3e 11 3d c4 bc 00 06 66 3d
       0.07290316 0.14210093 -0.0239549 0.056158066
000190 d9 89 19 3e 40 99 b2 3c 99 e6 78 3d 6b 11 92 3d
       0.14993991 0.02180159 0.06076679 0.071322285
0001a0 f4 3f 58 bd 0e ef 7c 3a f8 42 5a 3e 33 a2 95 3d
       -0.052795365 0.0009648659 0.21314609 0.07306328
0001b0 90 ea 04 bd 5a 7a 2e 3d a4 5e f3 3c cf 81 46 3c
       -0.03245026 0.042597152 0.029708214 0.01211591
0001c0 e0 2d 1b 3e 8c e2 f8 bc 4d 13 34 3d 6b cf d0 3d
       0.15154219 -0.030381463 0.04396372 0.10195812
0001d0 46 9b d5 3d 0d 59 70 3d 7c 5e 5c 3e 45 52 b3 3c
       0.10430007 0.058678675 0.21520418 0.021889815
0001e0 26 ac bb 3c 37 8e 9f bd 9f 2c 54 3d 0f 59 0f bd
       0.022909235 -0.07790797 0.051800366 -0.034997042
0001f0 fb bc 8b bd 04 4b 4f 3d 23 47 21 3e c2 f9 ad 3d
       -0.068231545 0.05060865 0.15749793 0.08494903
000200 30 fc e4 3d a5 af b6 3d bb 04 24 3e 45 d0 f7 3c
       0.111809134 0.0892022 0.1601743 0.030250678
000210 8a da 32 bd f6 af 02 bd 9a 02 0a 3e d1 a2 0f bd
       -0.043665446 -0.03190609 0.13477555 -0.035067383
000220 5b f2 fe 3d 27 49 65 3d b3 6d b3 3d 80 2d df 3d
       0.124485694 0.055977967 0.08761158 0.1089735
000230 24 ae af bc c2 f1 37 3e 72 2e eb 3b 0d 3b e5 3c
       -0.021445341 0.17963317 0.0071771676 0.02798226
000240 64 fa ed 3c fb 19 e6 3d 6d 89 f7 3c 24 c3 17 be
       0.02905006 0.11235424 0.030216897 -0.14820534
000250 7e 88 91 3d 65 89 26 bd af bf 30 3d 42 c4 23 3c
       0.07106112 -0.040658373 0.043151554 0.009995522
000260 46 e9 81 bd ab 43 b3 3d 2f 67 dd bb f5 fa b5 bd
       -0.063433215 0.08753141 -0.006756685 -0.08885757
000270 4b d0 97 3d 6b 0c d9 bc 7b 2c dc bd c0 84 e6 bc
       0.074127756 -0.02649518 -0.107506715 -0.028139472
000280 53 51 a8 3e 2f bc 59 3d 64 cc 28 bc 64 00 8b bc
       0.32874545 0.05315798 -0.010302637 -0.01696796
000290 9d a7 b3 3c 9b 90 01 3e 10 cf 0f 3d d8 84 b9 3c
       0.02193051 0.12652819 0.03510958 0.022646353
0002a0 34 26 30 3e 1b 43 b1 3d 66 49 19 3e 3e 8f 87 bb
       0.17202073 0.086553775 0.14969406 -0.004136949
0002b0 c8 a0 df 3c 89 c4 b9 3d ef 20 79 3e 1d 6c a1 3d
       0.027298346 0.09070689 0.2432897 0.07881949
0002c0 df dd 79 bc 8d 26 dc bc 16 e5 db 3d 62 7b 8b 3d
       -0.015250652 -0.026873851 0.10737054 0.06810643
0002d0 f8 a1 b0 bb 18 31 cf 3c b6 94 05 3e 12 3f 3c 3c
       -0.005390402 0.025291964 0.1304501 0.0114896465
0002e0 23 e6 97 bd 05 b1 0e 3e 2d d3 23 ba 39 99 6c bd
       -0.07416942 0.13934715 -0.0006249424 -0.057763312
0002f0 72 2b 88 3d 25 d5 eb 3d 42 0c 91 bd 1c ae 63 bd
       0.066489115 0.115152635 -0.07082416 -0.055585966
000300 3e 3a d7 3d 42 a2 b2 3c af 7c 38 bd 5f 0e f8 3d
       0.10509156 0.021805886 -0.045040783 0.12112116
000310 df 65 b5 bc ea 61 81 3d 3f 65 e7 3c 51 97 23 3e
       -0.022143302 0.06317504 0.02824652 0.15975691
000320 54 d7 aa bc 28 d7 ab bd 80 f8 24 3d f6 d8 f7 3d
       -0.02085463 -0.08390647 0.04027605 0.12101929
000330 e8 d0 71 bd 00 1e 2d bb 3e a5 ab 3d 9a da 10 3e
       -0.05903712 -0.0026415586 0.08381127 0.1414589
000340 95 93 6b 3d 40 7e e1 bd 2f 0a 09 3d cf 8f b9 3d
       0.057513792 -0.110104084 0.033456977 0.090606324
000350 8a 96 20 3e f7 14 91 bc c7 06 23 3e d5 9a a6 3d
       0.15682426 -0.017710192 0.15920554 0.081350006
000360 30 e9 c6 bd 17 d8 80 bc 18 37 1f bd a2 b6 5d 3d
       -0.09712446 -0.01572804 -0.0388709 0.05412925
000370 c2 91 40 3d 76 ad 06 3e 4b b0 a3 3c fe 27 cc 3c
       0.047014005 0.13152108 0.019981524 0.024921414
000380 32 f1 28 3e d0 c9 d1 3c cd c0 02 3d a5 53 77 bc
       0.16498259 0.025608927 0.03192215 -0.015095626
000390 70 de 03 bc 73 68 70 3e a9 cf 06 3e be 09 f1 3d
       -0.008048639 0.23477344 0.13165154 0.11769436
0003a0 fc 1b d3 bc 80 e1 c4 bb 34 b2 35 3e 0e e6 7d 3c
       -0.02577018 -0.006008327 0.1774376 0.015496744
0003b0 79 e3 ac bc fd 31 17 bd 0a 30 46 3c 88 98 d8 bc
       -0.021104561 -0.036912907 0.012096414 -0.02643992
0003c0 86 01 8b 3d 7e 65 87 3d 8e 8f 09 be 37 bc a3 3c
       0.067874 0.06611155 -0.13433668 0.019987209
0003d0 15 34 22 3e 41 5d 66 bc 7e f8 be 3d 6e 75 7a 3e
       0.1584018 -0.014060319 0.0932474 0.24458858
0003e0 07 66 16 3e ff 72 2a 3d bf 72 35 3e 24 7d 4a bd
       0.14687358 0.041613575 0.17719553 -0.04943575
0003f0 c0 fa 9b 3d 4b 3f 03 3e 05 13 1a 3c 78 b8 a5 3d
       0.07616186 0.12817113 0.009403949 0.08091825

clf.0.bias f4 [5]
000000 b4 17 de 3e 46 98 f6 bd 1e 8a ab bf 16 28 8b 3f
       0.4337746 -0.120407626 -1.3401525 1.0871608
000010 9d 54 4d bf
       -0.80207235
