BRCA/models/C2_best_1702941393.pth (torch, 5594 bytes, 2 tensors)

clf.0.weight f4 [5, 200]
0	0x3d22407d	0.039612282
1	0xbd81dd3f	-0.063410275
2	0xbb45a47c	-0.0030157855
3	0x3e0d98b8	0.13827789
4	0xbe143a03	-0.14475255
5	0x3dcd943f	0.10038041
6	0xbbb56f36	-0.005536939
7	0x3c4f8e19	0.012668156
8	0xbd498e1a	-0.049207784
9	0x3d591dfb	0.053007107
10	0xbd1ae00e	-0.03781133
11	0xbd0e926a	-0.0348076
12	0x3cb3ae8c	0.021933816
13	0x3e08597f	0.1331539
14	0xbdee1630	-0.11625326
15	0xbb944a2c	-0.0045254435
16	0x3d9636c3	0.07334664
17	0x3dbcb488	0.09214121
18	0xbda75f8c	-0.08172521
19	0xbb94cad5	-0.004540781
20	0xba9b882b	-0.0011866143
21	0xbd0a76ae	-0.033804588
22	0x3d7ccaae	0.061716728
23	0xbe169aa5	-0.1470743
24	0x3dcdbd31	0.10045851
25	0x3e062ae6	0.13102302
26	0x3ce9c4a8	0.028536156
27	0x3d31a4fd	0.043370236
28	0xbd13a1e0	-0.036043048
29	0xbdc5ab29	-0.09651787
30	0xbdf427d1	-0.11921657
31	0x3cc98781	0.024600746
32	0x3e05c046	0.13061628
33	0x3dc63090	0.09677231
34	0x3c345195	0.011005779
35	0x3d32f321	0.043688897
36	0x3e1636cb	0.1466934
37	0xbd88f279	-0.06686873
38	0x3ded341d	0.115822054
39	0xbb2f68db	-0.002676538
40	0xbc8c770f	-0.017146615
41	0xbc340b06	-0.010988956
42	0x3dc811a6	0.09768991
43	0x3d0134e2	0.031544574
44	0x3dbeba9c	0.09312937
45	0x3c87ff98	0.016601369
46	0x3d7a738a	0.061145343
47	0x3da402be	0.080083355
48	0xbc667a39	-0.014067226
49	0x3d3be391	0.04587132
50	0x3dc27fd6	0.09497039
51	0x3e150b02	0.1455498
52	0x3e297f8a	0.16552559
53	0x3c31ed8f	0.010859861
54	0xbd9edfec	-0.077575535
55	0xbd7435f2	-0.05962176
56	0xbc29a516	-0.010354301
57	0xbd183c45	-0.037166853
58	0xbd39f6a6	-0.045401238
59	0x3dc8f2bf	0.09811925
60	0xbda801e5	-0.08203486
61	0x3d4b96b6	0.049704276
62	0xbe2b068b	-0.16701715
63	0x3be205e4	0.006897675
64	0x3dacb6d0	0.08433306
65	0xbb0f5ace	-0.0021874192
66	0xbdebb73d	-0.11509559
67	0x3d36c0ab	0.044617336
68	0xbca632e8	-0.020287946
69	0xbe0c78c8	-0.1371795
70	0x3d21830f	0.039431628
71	0x3c1cca8b	0.009569774
72	0x3cf7cbf7	0.030248625
73	0x3e3737c6	0.1789237
74	0xbab8d43c	-0.0014101337
75	0x3e1ff915	0.15622361
76	0xbd9af4dd	-0.07566235
77	0xbd9228b9	-0.071366735
78	0x3c0fada3	0.008769426
79	0xbd1afd21	-0.03783906
80	0x3d63c478	0.05560729
81	0x3d656c7e	0.05601167
82	0x3d9a8160	0.075442076
83	0x3c8b564a	0.01700892
84	0x3cecdad5	0.028912941
85	0x3d93593b	0.07194754
86	0xbd204565	-0.03912868
87	0x3d8c3394	0.06845775
88	0x3c6bed6e	0.014399869
89	0x3d8e2a74	0.06941691
90	0x3d0c0716	0.034186445
91	0x3cc648eb	0.024204692
92	0x3ded4e89	0.11587245
93	0xbd50496b	-0.050851267
94	0xbd914089	-0.07092387
95	0x3bcb8f02	0.006212116
96	0x3de4965e	0.11161493
97	0x3d71a914	0.058999136
98	0xbd8d8db1	-0.06911791
99	0xbc453f49	-0.012039014
100	0xbdd20085	-0.10254005
101	0xbd6bae2f	-0.05753916
102	0x3c849473	0.016184067
103	0xbd95b7b5	-0.0731043
104	0x3e436043	0.1907969
105	0x3d8a500f	0.06753551
106	0xbc6225cc	-0.013802957
107	0xbd97ccb6	-0.074120924
108	0x3c483b5d	0.012221185
109	0x3bceb2ba	0.006307927
110	0x3e0750b2	0.13214377
111	0x3b8a621c	0.0042231213
112	0x3da2a344	0.07941297
113	0x3e0991fd	0.13434596
114	0x3cc3fb4b	0.023923537
115	0x3cb6d049	0.022316115
116	0x3df1b727	0.11802512
117	0x3dc8e681	0.0980959
118	0x3e34241e	0.17591903
119	0xbd285d98	-0.041104883
120	0x3d3cbcc9	0.046078477
121	0xbac79e2e	-0.0015229636
122	0x3d7a7f20	0.061156392
123	0xbd2057dd	-0.039146293
124	0x3d5d72ad	0.05406444
125	0x3e3283f1	0.17433144
126	0x3d1ddf97	0.03854331
127	0x3db400e9	0.08789236
128	0x3d7071ef	0.058702406
129	0x3d2d2ef7	0.042281117
130	0x3e24ad7b	0.16081803
131	0xbd225210	-0.039629042
132	0xbce4d743	-0.027934676
133	0xbd1257f9	-0.03572843
134	0x3e07688c	0.13223475
135	0x3d28a4dc	0.041172847
136	0xbe198e08	-0.14995587
137	0x3e1cd28f	0.15314697
138	0xbe0a3f70	-0.13500762
139	0xbda6bca2	-0.081414476
140	0x3d995f0a	0.074888304
141	0xbe37b29b	-0.17939226
142	0xbbe44c56	-0.0069671078
143	0x3cd40d23	0.02588517
144	0xbdaa28ae	-0.0830854
145	0xbbba095b	-0.005677385
146	0x3db688e6	0.0891283
147	0xbc1fb585	-0.0097478675
148	0xbd0b1b2e	-0.033961467
149	0x3c8df9ac	0.017330967
150	0x3d017812	0.03160865
151	0x3d320980	0.04346609
152	0x3d42e94b	0.047585767
153	0x3d039b45	0.0321305
154	0x3d10263e	0.03519272
155	0xbb956d3c	-0.004560141
156	0xbb649910	-0.0034881271
157	0xbd15e762	-0.036597617
158	0x3d38f0f1	0.045151655
159	0x3db013eb	0.08597549
160	0x3d88d042	0.06680347
161	0x3bf26ac6	0.0073979823
162	0x3e01a78b	0.12661569
163	0x3c59cd79	0.013293617
164	0xbd7ad13b	-0.061234694
165	0xbe61c820	-0.22048998
166	0x3db8982f	0.09013402
167	0x3ced7a12	0.028988872
168	0x3d54ae49	0.051924024
169	0xbc815a9c	-0.015790276
170	0x3c96fd8a	0.018431444
171	0x3d9e24e9	0.07721884
172	0xbd7baa5e	-0.06144177
173	0x3c0614db	0.008183683
174	0xbc47e1fa	-0.012199873
175	0xbc10e1d1	-0.008842901
176	0xbd6764e9	-0.05649272
177	0xbd9f8334	-0.07788697
178	0xbbeb34b4	-0.0071779136
179	0x3d4d40b9	0.050110552
180	0xbd8a2344	-0.06745008
181	0xbde9eed7	-0.11422508
182	0x3c0ccfbb	0.008594449
183	0x3e325539	0.17415322
184	0x3d3d4af0	0.046214044
185	0x3dbb0ab6	0.09132902
186	0xbceb5d15	-0.028730908
187	0xbd79de92	-0.061003275
188	0x3d1b32bb	0.037890177
189	0xbdc21b6e	-0.09477888
190	0x3e853a84	0.26021206
191	0x3d902b07	0.07039457
192	0x3e0beecd	0.13665314
193	0xbe0ec97b	-0.13944046
194	0x3e22acc0	0.15886211
195	0xbc7313f9	-0.014836305
196	0xbd62e69f	-0.05539572
197	0xbbae8247	-0.005325589
198	0x3c93709e	0.017998036
199	0x3ddd0ba9	0.107932396
200	0xbd38f631	-0.04515666
201	0xbe31e2ee	-0.17371723
202	0x3d109650	0.0352996
203	0x3e087fd3	0.13330011
204	0xbda983d9	-0.08277101
205	0x3c83126e	0.015999999
206	0x3bba2b9b	0.0056814677
207	0x3bf9eee5	0.0076273554
208	0xbdfc2dad	-0.123133995
209	0xbd975ea4	-0.07391098
210	0x3d6e7a64	0.05822219
211	0xbcf29245	-0.029610762
212	0xbc42b984	-0.011885051
213	0xbd80ba3e	-0.06285523
214	0x3b61b624	0.003444084
215	0xbe47432e	-0.19459221
216	0x3d68e7f3	0.05686183
217	0x3ddecf55	0.10879389
218	0x3da36847	0.07978874
219	0x3d21f347	0.039538648
220	0x3aaedd79	0.001334115
221	0xbe1442a0	-0.1447854
222	0x3c229aea	0.00992463
223	0xbda6eee1	-0.08151031
224	0x3dff2f83	0.12460234
225	0x3dea8e75	0.11452953
226	0x3d4ac1c3	0.04950119
227	0x3d7072d4	0.05870326
228	0xbd3b07bf	-0.045661684
229	0xbe08a08e	-0.13342497
230	0x3d63eb55	0.055644352
231	0x3d921201	0.0713234
232	0xba22986d	-0.0006202523
233	0x3e0f5785	0.1399823
234	0x3dcb057b	0.09913155
235	0xbd1563fc	-0.036472306
236	0x3d80292b	0.06257852
237	0x3d90208c	0.07037458
238	0xbb361d52	-0.0027788472
239	0x3d8f52d8	0.06998223
240	0x3dbdb90d	0.09263811
241	0x3d88db23	0.06682422
242	0xbce315fe	-0.027720448
243	0x3dc11621	0.09428049
244	0x3d910d96	0.070826694
245	0xbda2838a	-0.07935245
246	0x3dd1309c	0.1021435
247	0xbd009603	-0.031393062
248	0x3d0e5469	0.03474847
249	0x3e26144a	0.16218677
250	0x3e115a57	0.14194618
251	0x3da1067b	0.07862564
252	0x3daa3732	0.08311309
253	0x3d3281c5	0.04358079
254	0x39b1529e	0.00033821625
255	0x3dd50307	0.10400968

clf.0.bias f4 [5]
0	0xbcb135d5	-0.021632114
1	0xbc616dea	-0.013759116
2	0xbe23f2dd	-0.16010614
3	0x3e0b5b45	0.13609035
4	0xbd4a8a8c	-0.049448535
