BRCA/models/C2_best_1703027228.pth (torch, 5594 bytes, 2 tensors)

clf.0.weight f4 [5, 200]
-0.09763235 0.5203855 -0.06014413 0.38214052 0.15741406 -0.23429048 0.52910936 0.12106222
-0.14875978 -0.083295465 0.08857464 0.04086422 0.109421015 -0.13976035 -0.15064447 -0.10126365
0.4746709 -0.030059787 0.0375064 -0.05275189 -0.09733161 -0.35388073 -0.15855488 -0.047948256
-0.08543095 -0.14933313 -0.074304625 -0.035325408 0.13828379 -0.1416908 -0.23705886 0.016405895
0.2934915 -0.1511374 -0.043623894 0.21418262 0.035136174 -0.1842486 0.049643025 -0.08233969
-0.019319883 0.024376182 -0.24569991 -0.04683397 -0.08369452 -0.10278182 0.18942657 0.1756924
-0.19259274 -0.10460549 0.10983997 -0.049018692 0.045696653 0.17239279 -0.06655853 -0.020580772
-0.048269875 0.13360547 0.09668516 0.33712345 -0.045740325 0.036871098 0.0340013 0.14830004
-0.0822198 -0.1824106 0.09811958 0.106383435 -0.08266135 -0.2211251 -0.18585888 -0.021699961
0.029040232 0.17194289 0.14025512 -0.027958207 -0.0074688224 -0.057091042 0.0009927737 -0.20576183
-0.032590847 -0.09790496 -0.023135299 -0.09478817 0.06182041 -0.16612054 0.14600947 -0.14690334
-0.054953244 0.005135063 0.0032524157 -0.010754069 0.056518592 -0.05305049 -0.09201769 0.15042163
0.0152647 -0.165864 -0.0067428243 0.107808635 0.116433196 -0.20238557 -0.06885107 -0.085699335
-0.086810775 -0.10178788 -0.20697883 -0.07582502 -0.094901584 -0.058314614 0.020754797 0.07176624
0.09287989 -0.06883625 0.43661267 0.09240126 -0.047058303 0.05046761 0.04603909 -0.10004758
-0.025286665 -0.08311354 0.117646836 0.06097206 -0.0013942552 0.109006815 -0.046558198 -0.031547736
0.2543699 0.15108415 -0.018760454 -0.016161567 0.11718441 0.210009 0.04296506 0.01980384
-0.046262443 0.06704617 -0.050132442 0.05957077 0.048656262 0.09776562 -0.18790387 -0.11581881
0.12130369 0.015462404 -0.15389144 -0.16671109 0.20028302 0.04717801 -0.026159042 -0.06633648
-0.035305567 0.12571074 0.14947563 0.027774133 0.00010080986 0.01408275 0.14833133 -0.057483107
-0.020152455 -0.042728327 -0.045500174 0.076610565 -0.019875895 -0.07305801 -0.075758494 -0.15200736
0.010122599 -0.03237019 0.02598734 0.098059855 -0.12511821 -0.06943058 -0.108095825 0.009136196
0.040351447 0.44909593 0.00258331 0.100805596 -0.08234553 -0.08773326 -0.061346166 -0.1683904
0.02481122 0.087289475 0.047123168 0.05726928 -0.14797735 -0.07278007 0.26387638 -0.091434054
0.11818444 0.17842901 0.07667709 -0.036193244 0.04760896 0.15975931 0.0031141497 0.48425835
0.03482526 0.1901349 0.13294275 0.2528389 -0.049046375 -0.16307187 -0.055120517 0.23068891
0.10554875 0.22629131 0.30761072 0.13195117 0.27232018 0.09104347 0.12214098 0.11013818
-0.14442253 -0.029159367 -0.010083262 0.09313857 0.1034823 -0.046996403 0.064723276 0.16141064
-0.043602694 0.13216661 0.059699863 -0.05796037 0.06468155 0.060580816 0.030104715 -0.026032211
-0.10644083 -0.047402233 0.031976208 -0.12178306 0.12778836 -0.1615988 0.17356393 -0.089832194
0.04546618 0.19041047 -0.22100636 0.04409759 0.14690493 0.04189468 -0.029802462 -0.12016039
0.012108606 -0.08797207 -0.13088223 0.11365242 0.14077078 -0.14615276 0.028041432 0.10622254
00000000: 78f3 c7bd fc37 053f b159 76bd eca7 c33e
00000010: 2731 213e d8e9 6fbe b673 073f 78ef f73d
00000020: 7c54 18be d096 aabd 9f66 b53d 3e61 273d
00000030: 2018 e03d 561d 0fbe 8b42 1abe 5163 cfbd
00000040: 1008 f33e f13f f6bc 50a0 193d 5e12 58bd
00000050: cc55 c7bd db2f b5be 365c 22be 6465 44bd
00000060: 6cf6 aebd c9ea 18be 062d 98bd 60b1 10bd
00000070: 449a 0d3e 6517 11be 8fbf 72be a865 863c
00000080: 8544 963e c3c3 1abe f8ae 32bd b052 5b3e
00000090: f3ea 0f3d aaab 3cbe 7c56 4b3d b6a1 a8bd
000000a0: bb44 9ebc 8fb0 c73c c298 7bbe fad4 3fbd
000000b0: 0868 abbd 467f d2bd 0af9 413e b5e8 333e
000000c0: 0837 45be 673b d6bd c7f3 e03d d3c7 48bd
000000d0: 6a2c 3b3d bc87 303e d74f 88bd 0299 a8bc
000000e0: a2b6 45bd dfcf 083e df02 c63d 729b ac3e
000000f0: 355a 3bbd 2606 173d f244 0b3d f7db 173e
00000100: db62 a8bd d8c9 3abe ebf2 c83d 8fdf d93d
00000110: 5b4a a9bd 9e6e 62be ca51 3ebe 1ec4 b1bc
00000120: c8e5 ed3c cc11 303e 0a9f 0f3e 9c08 e5bc
00000130: 06bd f4bb 4cd8 69bd f51f 823a 3bb3 52be
00000140: fb7d 05bd 6582 c8bd 3d86 bdbc 4d20 c2bd
00000150: 6637 7d3d 811b 2abe 8283 153e d46d 16be
00000160: a716 61bd 0844 a83b 7b26 553b d631 30bc
00000170: 0a80 673d 784b 59bd c573 bcbd 2108 1a3e
00000180: cb18 7a3c 41d8 29be e9f2 dcbb c6ca dc3d
00000190: 8774 ee3d 2a3e 4fbe ca01 8dbd 2283 afbd
000001a0: d9c9 b1bd 2a76 d0bd 42f2 53be 264a 9bbd
000001b0: c35b c2bd 4edb 6ebd f705 aa3c 2efa 923d
000001c0: d037 be3d 05fa 8cbd b28b df3e df3c bd3d
000001d0: 35c0 40bd 20b7 4e3d 7c93 3c3d bfe5 ccbd
000001e0: fb25 cfbc 6f37 aabd d3f0 f03d d7bd 793d
000001f0: 71bf b6ba f73e df3d cfb3 3ebd 3338 01bd
00000200: c63c 823e ceb5 1a3e 86af 99bc 4365 84bc
00000210: 61fe ef3d 990c 573e 21fc 2f3d aa3b a23c
00000220: b07d 3dbd 814f 893d ad57 4dbd 7b00 743d
00000230: ca4b 473d 5739 c83d df69 40be 6a32 edbd
00000240: 126e f83d 0656 7d3c b895 1dbe 50b6 2abe
00000250: fe16 4d3e bb3d 413d 7d4b d6bc 6cdb 87bd
00000260: 929c 10bd 51ba 003e 2410 193e 9486 e33c
00000270: e269 d338 56bb 663c 2be4 173e 6873 6bbd
00000280: c316 a5bc e603 2fbd 645e 3abd 00e6 9c3d
00000290: c6d2 a2bc 709f 95bd 4527 9bbd d1a7 1bbe
000002a0: 42d9 253c 9b96 04bd 67e3 d43c 9bd3 c83d
000002b0: fd1e 00be 9f31 8ebd 5861 ddbd fcaf 153c
000002c0: 8f47 253d e7ef e53e c04c 293b 2a73 ce3d
000002d0: c6a4 a8bd 7fad b3bd 1e46 7bbd 886e 2cbe
000002e0: e640 cb3c d3c4 b23d 3904 413d 3193 6a3d
000002f0: 6087 17be b80d 95bd ce1a 873e c741 bbbd
00000300: af0a f23d 18b6 363e e108 9d3d 5e3f 14bd
00000310: 9d01 433d f297 233e c316 4c3b b6f0 f73e
00000320: efa4 0e3d b9b2 423e 2522 083e 1a74 813e
00000330: dae4 48bd 50fc 26be 0dc6 61bd b739 6c3e
00000340: f129 d83d e9b8 673e 277f 9d3e 351e 073e
00000350: 8d6d 8b3e 0075 ba3d 0d25 fa3d 2090 e13d
00000360: 80e3 13be a0df eebc 4434 25bc 6fbf be3d
00000370: 87ee d33d 4d7f 40bd a38d 843d d548 253e
00000380: bd98 32bd af56 073e d887 743d da67 6dbd
00000390: c377 843d 9723 783d 2a9e f63c 8141 d5bc
000003a0: a6fd d9bd d828 42bd 7cf9 023d 6669 f9bd
000003b0: f4da 023e 287a 25be beba 313e f1f9 b7bd
000003c0: bf3a 3a3d f6fa 423e 7e4f 62be ad9f 343d
000003d0: 3f6e 163e c299 2b3d 4b24 f4bc a716 f6bd
000003e0: 2d63 463c b32a b4bd fe05 06be 9ac2 e83d
000003f0: 3726 103e 12a9 15be 25b7 e53c 348b d93d

clf.0.bias f4 [5]
0.087574124 -0.25780198 -0.40216 0.58910775 -0.12541455
00000000: 105a b33d 9ffe 83be eae7 cdbe c4cf 163f
00000010: ac6c 00be
