BRCA/models/C2_best_1703028637.pth (torch, 5594 bytes, 2 tensors)

clf.0.weight f4 [5, 200]
00000000: 528b a73d 062b aebd 9a6b 173d 9bbc 62be
00000010: 5d5c ad3d 807c 24bd 1c6c adbd 1acf 00bc
00000020: a46c 083e 93c2 083e abf9 4c3d 5c28 093e
00000030: 1c33 173e 5e08 6f3d ccd4 153d f4b0 0cbc
00000040: fbe4 563d 9a00 e2bc ba4f fe3d 78aa a23d
00000050: 57d5 94bd a8f3 df3d 6b9d 3bbd 8916 14bd
00000060: b9dd 88bd e72d f3bd 7e29 ba3d 203f 023e
00000070: 61ea db3c 4bca aa3d 7ddd 3abe f546 0d3e
00000080: 4709 353e acd0 d4bd c58a b03d 3ee3 31be
00000090: 1ed0 cabd 128b 083d ce0c 633c 579b 2b3e
000000a0: 302d 15be 19bb 163e d890 8a3d f215 d1bb
000000b0: 4144 893d 1b7d d8bd 6ab4 e1bc f682 f2bc
000000c0: 128a 8fbd dca8 f03d 4e39 70bd f459 063d
000000d0: f91e d6bd 0091 e0bc d748 4f3d b77f ea3d
000000e0: 9567 473e 026f 803e d4a0 2e3e f7af b9bd
000000f0: 5504 1fbe 6cd6 12bc 8be4 d7bd ecc1 e43d
00000100: a914 1abe 7048 0e3e 53ad a9bd 80a3 11bd
00000110: c8f3 afbd 145d 0f3e 2c12 21bd e8fd ab3d
00000120: 056f 1c3e dcdf c3bd e1d0 49bc bfbb d23d
00000130: d5eb 36bd b4f6 84be e3c4 803d 878e 633e
00000140: 2f81 b3bd 4249 c23a 6516 c33d 532f 343d
00000150: fdaf c6bd a153 a8bd c5f3 e6bb 37ee 17bd
00000160: f98a 0f3d d362 c13d ae88 923d 4979 023c
00000170: 8a5c c7bd 6c3f 753d 61a4 b2bd 76f7 08be
00000180: b420 dd37 465a 143c 47e3 8d3e 3c57 b53d
00000190: a3d4 3cbe a4fd 2abd 145d ca3d e2f7 223d
000001a0: 4faf 78bc 8c12 793d edbe 7b3e 54f0 36bc
000001b0: 2951 8bba 3cb5 21be c545 753d f673 1e3d
000001c0: 8aed c6bd 1815 453e 9853 7d3d 2fdb 09bc
000001d0: 7aea 413d 6530 203c 6586 81bd 1aa5 333d
000001e0: 8fbf a7bd d92d 1e3e b907 cabd 7b95 613b
000001f0: 1086 5a3e 77d5 29be 7ae2 493e c821 de3d
00000200: d49e eabd 4a4a f83c 54c2 71bc cbb7 9abd
00000210: 2280 813d a8e1 9b3d 1b53 b73d 371e 63bd
00000220: bb8b 003d 4ecb 7a3d 6c0b 10bd f36f f6bd
00000230: 4bb0 aa3c 6823 263d c331 923c 5465 88bd
00000240: 121f 29bc 0290 85bc 5623 14bd 6afe 353d
00000250: 4ac3 bc3d ff47 8d3c 0052 0a3e fa3f 983b
00000260: 4014 2dbd 6175 113e 2de6 e3bd 157a 503c
00000270: d7f6 9abd c249 2bbd 6802 b33c c331 37be
00000280: 3422 8a3d d902 8d3e 3e60 1bbd 8f71 d5bd
00000290: ec30 61bd b55e 8dbd 6ed4 a0bd bdce 893c
000002a0: 9633 6abc 6496 aabd 50a6 5c3b eaed 553e
000002b0: 9c83 883d db3a 27bd c948 0bbd d89c f33d
000002c0: 6405 073b dc20 163d 7090 663e 2d0a 38be
000002d0: e609 2f3d f66f 88bd 56be f03b 5b28 0b3e
000002e0: 657f d73c 7e2a fbbc 4f74 3c3d 1700 e6bc
000002f0: c2b7 933c 44c3 653d f29e a93c df5e 8b3d
00000300: 8b24 47bd f57a 4f3d 2541 173d 55d7 e43d
00000310: 3ff4 153c e504 8c3d c724 90bc 801d 42bd
00000320: 136a 263c 9638 003c de59 c9bd 94dd 17bd
00000330: 895b 86bd ba2d 983c 4d96 513e 05b0 3fbe
00000340: f763 3d3c 6478 94bd fa6e 30be 533b 39bd
00000350: cb25 b43d c64c e0bd 2fef 0ebe 0370 54bd
00000360: ef45 94bd 9b3c 073d 7c76 e2bd 6e16 6a3e
00000370: c45d ce3c bce4 82bd 4825 3a3c da5f 00bd
00000380: 6808 353c 3fd4 4e3d 1fa8 203d 5357 acbd
00000390: d3b9 dfbc 0899 5d3d 3137 6fbc 2358 1d3d
000003a0: 620e 7d3d 9d64 e23c ce38 d1bc 9321 7c3e
000003b0: 9912 c1bc e68b 883d ad07 4bbe 4fc5 e53d
000003c0: e003 103d a0fa 2fbe c024 0d3e 08e4 18bd
000003d0: 1394 0fbe 005f a03d 828d d4bd 50ad 5b3e
000003e0: a449 303e 6ea3 d63c 6ca9 023e e44b cc3d
000003f0: 6261 48bc ea87 1e3d b511 ce3d 7095 653d
0.0818087 -0.085043 0.03696785 -0.2214226 0.084648825 -0.040157795 -0.08467886 -0.007861877
0.13322693 0.13355474 0.05004279 0.13394302 0.1476559 0.05835759 0.036579892 -0.008587111
0.052464467 -0.027588177 0.124175504 0.079426706 -0.07267254 0.109351456 -0.045804422 -0.036154304
-0.06682915 -0.118739896 0.09089945 0.12719393 0.026845159 0.083393656 -0.18248554 0.13796599
0.1767932 -0.103913635 0.08620218 -0.17371842 -0.099029765 0.033335753 0.013858033 0.16758476
-0.14568019 0.1471981 0.06765908 -0.00638079 0.067024715 -0.10570737 -0.027551848 -0.029603463
-0.07008757 0.11750957 -0.0586484 0.03280063 -0.10455126 -0.027412891 0.050606575 0.11450141
0.19473107 0.25084692 0.17053539 -0.09066766 -0.15528996 -0.008962255 -0.10541638 0.111698
-0.15046944 0.1389482 -0.08285012 -0.035556316 -0.085914195 0.1400035 -0.03932397 0.08398038
0.15276726 -0.09564182 -0.012317867 0.10289716 -0.0446585 -0.2596947 0.06287553 0.22222339
-0.08764874 0.0014822858 0.09525756 0.043990444 -0.09701536 -0.08219076 -0.0070481026 -0.037092414
0.035044644 0.09442677 0.07154976 0.007963487 -0.09734447 0.059874937 -0.08722759 -0.13375649
2.6360482e-05 0.009054726 0.2771246 0.08854529 -0.1844049 -0.041745797 0.098810345 0.03978718
-0.015178516 0.060808703 0.24584551 -0.011165697 -0.0010629046 -0.15791792 0.05988099 0.038684808
-0.09713276 0.19246328 0.0618473 -0.008414074 0.047342755 0.009777163 -0.06324462 0.043858625
-0.08190834 0.15447177 -0.09864754 0.0034421373 0.21340203 -0.16585337 0.197153 0.10846287
-0.11456075 0.030308861 -0.014755804 -0.07554587 0.063232675 0.076114 0.08951398 -0.055448737
0.031383257 0.061229043 -0.035167143 -0.12033071 0.020836016 0.04056111 0.017845994 -0.06659952
-0.010322349 -0.01630402 -0.03616651 0.04443208 0.09216936 0.017246244 0.13507843 0.0046462985
-0.04225564 0.14204933 -0.11127887 0.012724419 -0.07566612 -0.041818388 0.021851733 -0.17890076
0.06744805 0.27541235 -0.03793358 -0.1042205 -0.054978296 -0.069028296 -0.07853018 0.016822213
-0.014294526 -0.08329466 0.0033668466 0.20891538 0.066657275 -0.040827613 -0.03400496 0.1189515
0.0020602578 0.03665243 0.22516036 -0.17972632 0.04273405 -0.0666198 0.0073469086 0.13589613
0.026305864 -0.03065991 0.046009358 -0.028076215 0.018031958 0.056094423 0.020705674 0.068052046
-0.048618834 0.05065437 0.03692736 0.11173884 0.009152471 0.06836871 -0.017595662 -0.047391415
0.010157126 0.007825991 -0.09831594 -0.037076548 -0.06560428 0.018576492 0.20467491 -0.1871949
0.011559478 -0.07249525 -0.17229834 -0.04522259 0.08796271 -0.10952143 -0.13958429 -0.051864635
-0.07239901 0.033016782 -0.11057755 0.22860119 0.025191195 -0.06391284 0.011361428 -0.03134141
0.0110493675 0.050495382 0.039222833 -0.08415093 -0.027310288 0.05410102 -0.014600561 0.03841413
0.061781295 0.027635867 -0.025539782 0.24622183 -0.023568438 0.066673085 -0.19827147 0.11219274
0.035159945 -0.1718545 0.1378355 -0.037326843 -0.1402133 0.0783062 -0.10378553 0.21452832
0.17215592 0.026200976 0.12759942 0.099754125 -0.012230249 0.038703837 0.10061971 0.056050718

clf.0.bias f4 [5]
00000000: 617c b6bc f692 0abd 95c7 57bc d530 c63c
00000010: 35b6 42bc
-0.022276105 -0.03383156 -0.013170143 0.024193207 -0.011884262
