BRCA/models/C2_best_1702917634.pth (torch, 5594 bytes, 2 tensors)

clf.0.weight f4 [5, 200]
000000 d1 a5 7e 3d 21 62 af bd c2 80 b2 bc f7 71 f7 3a
       0.062169854 -0.085636385 -0.021789912 0.0018878569
000010 48 fe c8 3d 2b 1a bf 3c 07 91 09 3d ba 0a 1a bc
       0.09814125 0.023327908 0.033585574 -0.0094019715
000020 c8 66 8f 3d 70 45 4e 3e 17 f6 85 3c 06 41 17 3c
       0.07002026 0.20143676 0.016352696 0.009231811
000030 c6 50 4c be 88 8b 23 3c 79 b4 72 bd cf 3f 47 3d
       -0.19952688 0.009981997 -0.059254143 0.048644837
000040 b9 ff c9 bd 45 bf 6d bb 3e 4f 10 bd 4e af 33 3d
       -0.09863228 -0.0036277336 -0.03523182 0.043868355
000050 1f e6 d8 bb b1 7f bd 3d 1c 34 44 3d 6a 8c e2 bd
       -0.0066192294 0.09252871 0.047901258 -0.11061938
000060 b7 74 30 be 2b 8d 47 3e a7 08 2d bd de 3c 5f 3c
       -0.17232023 0.19487445 -0.04224458 0.013625352
000070 a0 5f 7a 3e 67 37 e5 bc 90 67 cc bd 10 5d 6f bd
       0.2445054 -0.02798052 -0.099806905 -0.05843836
000080 82 e2 a4 bd 68 58 3e be 96 1b 67 bd 9f 10 02 bd
       -0.080510154 -0.18588412 -0.056422792 -0.031754132
000090 b3 fd e8 bd 69 30 8c be 95 e4 8e bd a6 3f a2 3d
       -0.11376514 -0.27380684 -0.06977192 0.07922296
0000a0 8c 8a c1 bd d7 c3 e3 3c 23 f5 95 3c 0a 29 2c 3b
       -0.09450254 0.027803345 0.018305367 0.0026269578
0000b0 49 30 3a 3d 2f 59 47 bd 15 bb 1d 3d ce 63 ae 3a
       0.045456205 -0.048669036 0.038508493 0.0013304891
0000c0 dc 50 98 3c 73 0e 7b 3d 49 78 33 be ac 8f ea 3c
       0.018593244 0.061293077 -0.17526354 0.028632961
0000d0 e1 fc a6 bb 84 b7 3f 3d cd a4 74 3b fd d8 e7 bc
       -0.0050960635 0.046805874 0.0037329674 -0.02830171
0000e0 44 fd 28 be 27 49 3b 3d 74 ed cf 3d e0 23 c8 bc
       -0.16502863 0.04572406 0.101527125 -0.024431169
0000f0 f3 27 9a 3d 2a 9e be bc d7 12 e5 bc 40 7c 07 3e
       0.07527151 -0.023268778 -0.027963085 0.13230991
000100 fe 4b 17 3d f7 90 66 3d ed 81 0a 3d 86 29 b4 3b
       0.036937706 0.056290593 0.033815313 0.005498114
000110 2c 52 00 bd 8e ff 8d bd c8 cf 21 3d d4 3a 5f bd
       -0.031328365 -0.06933509 0.039504796 -0.054499462
000120 1d 08 61 bd 07 43 e2 3c e7 4f ad bb ac b4 01 bd
       -0.054939378 0.027619852 -0.005289066 -0.031666443
000130 9c 94 cb 3c 64 a2 84 3d a3 19 a7 bd dd 93 39 be
       0.024851136 0.06476286 -0.08159187 -0.18122812
000140 3e 43 b1 bc 48 db 0c bd 69 b4 73 3d 02 3c 9b 3c
       -0.021638509 -0.03438881 0.059498224 0.018949512
000150 00 e3 31 bd 90 38 41 3e a4 da 74 3d 82 3f 8a 3c
       -0.043429375 0.18869233 0.059778824 0.016875986
000160 09 03 cc 3d bf 13 35 3d a5 68 6c 3d d2 cf fd bd
       0.099615164 0.044208284 0.057716984 -0.12393154
000170 bb 59 86 3d 31 33 87 bd 3a 91 12 3e a1 aa 74 bd
       0.065600835 -0.06601561 0.14313212 -0.059733037
000180 59 be e9 3d a1 7a e5 3d a4 5e 56 bd 8d 01 6a 3d
       0.11413259 0.1120503 -0.05233635 0.057130385
000190 df f9 2d bd ee 5c c2 bd 41 0a a6 bc ad 7a cd b9
       -0.042474624 -0.09490381 -0.020268561 -0.00039192048
0001a0 f2 0b b1 3c ae 85 8e bc 5f 48 f9 3d b8 8a e1 3c
       0.021612141 -0.017397728 0.12172007 0.027531967
0001b0 f0 0e 06 bd f8 f4 cd 3d 0f 5a 12 3d 1c 08 26 3e
       -0.03272909 0.1005649 0.035730418 0.16214031
0001c0 44 ef 23 bc 02 cc c4 3c 65 45 32 bc e0 22 f4 3d
       -0.010005776 0.02402306 -0.010880803 0.119207144
0001d0 f2 a1 77 bd f3 68 80 bd 6c 7d f3 bc 46 11 94 ba
       -0.060457177 -0.062700175 -0.029722892 -0.0011296652
0001e0 63 e3 14 bd ca 6d 79 bd 5e c9 13 bd c4 d2 7d 3c
       -0.036349665 -0.06089572 -0.03608071 0.015492145
0001f0 5a 14 4d 3d 57 d2 3e 3e cf 86 2c 3d 2d 95 1f 3e
       0.050068237 0.18634926 0.04212075 0.1558425
000200 ca 83 c8 bd 4d ff 02 bd fa 1d cf 3d 69 08 c2 3d
       -0.09790762 -0.031981755 0.101131395 0.0947426
000210 78 8a cf 3d 03 aa 52 3c 35 ca 3c 3e 45 c6 b1 3d
       0.10133833 0.012857917 0.18436511 0.08680395
000220 4a 67 cd bd b7 24 e7 bb 8a 97 6d 3d f2 9d 6c 38
       -0.100294665 -0.0070539373 0.058005847 5.6413883e-05
000230 6f 0f 5e 3d 51 d9 26 3d 2c de a8 bd 74 e1 c6 bc
       0.054213937 0.040734593 -0.08245501 -0.024277426
000240 40 23 a9 3c c4 27 c9 3c 08 0a 19 3d c7 d0 64 3c
       0.020646691 0.024555095 0.037363082 0.013965792
000250 ef e4 10 bd 19 7a 20 be 9c f4 60 bd 15 7b e9 3c
       -0.035374578 -0.15671577 -0.054920778 0.028501073
000260 48 34 16 3d 92 65 9e bc 3f 8d cc bc 8b 54 19 bd
       0.036670953 -0.019335542 -0.024969695 -0.037434142
000270 18 e7 d5 3d fd 03 fe 3d c7 6d 71 bb a9 27 e6 3a
       0.10444468 0.124031045 -0.0036839114 0.0017559427
000280 e6 cf ae bb e3 40 5b bd 4c c8 a8 bd 93 b0 37 bd
       -0.005334842 -0.053528678 -0.082413286 -0.04484613
000290 b6 d9 86 bc d0 aa de bd 3f 38 7e 3e 5e cb 41 bd
       -0.016461235 -0.10872424 0.24826144 -0.047313087
0002a0 54 b5 a3 3d ed b1 19 3d b5 cd 27 bb 91 38 11 bd
       0.0799357 0.0375232 -0.0025604789 -0.035454337
0002b0 13 6a 5f bb 1e 96 e6 bd dd 2b f0 3d b6 19 86 bd
       -0.0034090325 -0.11259101 0.11727116 -0.06547873
0002c0 b4 e8 55 3e 6e 6f e1 bc 7b c4 38 3e d9 4a 86 bd
       0.2088955 -0.027518954 0.18043701 -0.06557245
0002d0 d4 13 0c bd 0a 84 3f 3d 30 c9 3b bd 3f 88 13 3e
       -0.034198597 0.04675678 -0.045846164 0.14407443
0002e0 b7 53 46 bb 2c 41 1c bc 9c c8 22 3e 6e 8f 9d 3d
       -0.00302623 -0.009537023 0.15896839 0.07693373
0002f0 1a a3 23 3d 27 01 9e 3d 9a 66 d8 bd 45 9d a2 bd
       0.039950468 0.077150635 -0.10566445 -0.07940153
000300 9e df 22 3d db 54 c2 bd 0f f7 cd bc eb 08 f7 3c
       0.03976404 -0.09488841 -0.02514222 0.03015562
000310 9a 95 4b 3e 60 68 21 3c a0 a8 45 bc f4 e8 aa 3c
       0.19881287 0.009851545 -0.012064129 0.020863034
000320 5e 95 d4 3d e0 04 18 bd 91 05 b7 3d f0 fa 55 bd
       0.10380052 -0.037114024 0.089366086 -0.052241266
000330 03 ca 9a 3d 3a 81 3c bd de 96 6b bd 5c c9 ed bb
       0.07558062 -0.046021678 -0.057516925 -0.00725667
000340 8c 92 eb 3d e7 31 11 3e db 6e 6c bd 91 9e 26 be
       0.11502561 0.14179192 -0.057722908 -0.16271426
000350 12 12 e9 bd 78 c0 70 3d 1f 08 5b ba c1 5d 16 be
       -0.113804 0.058777303 -0.0008355397 -0.14684202
000360 d4 d7 63 bd 13 ab 61 3d 93 4d 01 be b2 cc e1 3d
       -0.05562575 0.05509479 -0.12627248 0.11025371
000370 79 89 a6 3d 07 bc 94 bd 6e 27 51 bd a6 c5 3b bd
       0.081316896 -0.07262426 -0.051062994 -0.04584279
000380 19 6a 19 be 3b 96 f1 bc 0f 0e 91 3d 47 c6 18 be
       -0.1498188 -0.02949058 0.070827596 -0.14919387
000390 1a 51 23 3e 37 35 2c bd 42 b8 0a 3d d9 16 38 3e
       0.15948907 -0.042042937 0.03386713 0.17977466
0003a0 6f 6c e4 bc f3 6e d1 bc 78 5f 0f bd ce 33 00 bd
       -0.027883736 -0.0255656 -0.035003155 -0.031299405
0003b0 2d e8 d2 3c 89 a8 04 3d dc a2 ed 3d 4e 51 ad 3d
       0.025745476 0.03238729 0.116033286 0.08462773
0003c0 68 9d ca bc 0d aa ec bc fe da 93 3d fa d3 40 bc
       -0.02473326 -0.02888968 0.07219504 -0.011769289
0003d0 28 22 1b bd 60 d0 ac bd 43 bf 3b bd 75 6c 42 3d
       -0.03787437 -0.08438182 -0.0458367 0.047466714
0003e0 61 f8 2c bd 3b 26 00 3e b3 ec c7 bc be 90 98 3d
       -0.04222906 0.12514584 -0.02440486 0.074494824
0003f0 8e 5e 95 bd 7b ef d1 3d e3 1e f5 3d da 37 e9 bc
       -0.072934255 0.102507554 0.11968782 -0.028469015

clf.0.bias f4 [5]
000000 7f 79 19 3d b4 64 e7 bd 72 36 c0 bd 8d f2 27 3e
       0.037469383 -0.112985045 -0.093853846 0.1640112
000010 14 97 f6 bd
       -0.120405346
