BRCA/models/C2_best_1703021817.pth (torch, 5594 bytes, 2 tensors)

clf.0.weight f4 [5, 200]
0.00047782718 -0.10162647 -0.11622672 0.271748 0.06682952 -0.08647782 -0.087292776 -0.10084598
0.09531505 -0.072051555 -0.033539318 0.16467093 -0.28575584 0.0735669 -0.036564842 -0.045497917
0.1701892 0.0030088 0.08541994 0.04384933 0.12006885 -0.21355894 0.12905051 0.027177641
-0.025729993 -0.090446495 0.05918942 -0.03210132 0.17227672 -0.04559304 -0.11029958 0.053186238
-0.004862806 -0.0053902636 -0.077877104 0.0017068007 0.07655584 0.012442771 -0.19281563 0.085180305
0.15874411 0.05416013 -0.24065547 0.023073647 -0.14529175 -0.17188898 -0.018472198 0.056856226
0.12305636 0.032950934 -0.05689434 0.10280046 -0.04935886 0.040079217 -0.04430786 -0.015273913
-0.15628137 0.08916795 -0.08407973 0.015054689 -0.03994389 0.19056724 -0.080886714 0.12746967
0.05275011 0.067873895 0.15867819 0.081530645 -0.0981885 0.12680915 -0.03303604 -0.028796807
0.049952697 0.10725255 0.12420624 0.19744997 -0.04449227 -0.00957296 0.15617076 0.12014244
-0.056258954 0.03802951 0.24246138 -0.117072925 0.01936277 -0.034824725 0.09095404 -0.13575822
0.048188943 -0.026368499 -0.01909739 0.06313297 0.095482975 0.047955066 0.08288794 -0.011186189
0.038692433 -0.06810217 -0.012593568 0.008503377 -0.22391976 -0.15465593 0.032990858 -0.03586863
0.116105534 0.0062901266 0.0021801505 -0.07630183 0.07910163 0.02540922 0.028432533 -0.31411347
-0.104792096 0.009409989 -0.070433274 -0.06978676 0.15310284 0.17576568 -0.008806508 -0.092926085
-0.09048865 0.030214062 0.109072074 0.003993015 -0.0065844343 0.08076674 0.11780274 0.03092178
-0.041156333 -0.090942636 0.1519233 0.0015577191 -0.089675546 0.004548481 -0.2131274 -0.19891419
0.056629363 -0.024942586 0.27460352 0.09630911 -0.15156014 -0.16809514 -0.22272785 0.08281104
0.017784933 0.07491654 -0.1357665 -0.14134742 0.043133155 -0.025754733 0.2289005 0.14684542
-0.113764375 0.23969908 0.109556295 0.01072795 -0.1623223 -0.18544167 -0.07277908 -0.05976861
-0.060687836 -0.03454483 0.079186745 0.09260984 -0.047542404 0.029909657 0.18520361 -0.09557273
0.041803718 -0.13428357 -0.11289881 0.07789977 0.017307874 -0.019530894 -0.055833865 0.06119055
-0.08564777 0.05665705 0.14741634 -0.039034974 0.13022043 -0.082328185 -0.06905447 -0.08614174
0.11244622 0.06975422 0.055849947 -0.022542583 0.05205393 0.10879044 -0.14564176 0.048220746
0.07727549 0.06396872 0.064573996 -0.017444743 0.06296831 0.14341848 -0.02372124 -0.09281925
0.2175279 -0.14119995 -0.02750309 0.21928866 -0.12827851 -0.19363634 0.018640304 0.0136607895
-0.028505372 0.005440945 -0.08124079 -0.09543434 -0.013742473 0.060412683 -0.060254324 -0.15344697
0.16677782 -0.14057261 0.089966126 -0.029724672 0.10289627 -0.08140641 6.94493e-05 -0.035264675
-0.092928484 0.028746909 0.17562723 0.055009037 -0.024256442 0.07066829 -0.063571125 0.043746147
-0.0031360418 0.0185097 0.20397428 0.15061578 0.09399257 -0.14022209 -0.18269004 0.162949
0.10495257 -0.1794488 -0.15092823 -0.009410782 0.14767583 -0.43605044 0.45297444 0.07409073
-0.14452884 -0.12184166 -0.1766658 -0.049268495 -0.0005193817 -0.091365844 -0.1738484 -0.08182261
00000000: e184 fa39 8a21 d0bd 4608 eebd 8e22 8b3e
00000010: eadd 883d 491b b1bd 8ec6 b2bd 5688 cebd
00000020: 8934 c33d c48f 93bd 8660 09bd 7f9f 283e
00000030: 974e 92be 3eaa 963d 04c5 15bd 065c 3abd
00000040: 1446 2e3e 4a2f 453b a6f0 ae3d 5b9b 333d
00000050: a8e6 f53d 32af 5abe d125 043e a5a3 de3c
00000060: b5c7 d2bc 033c b9bd 9b70 723d ac7c 03bd
00000070: 4f69 303e c4bf 3abd bfe4 e1bd d0d9 593d
00000080: 2c58 9fbb cfa0 b0bb 087e 9fbd bab6 df3a
00000090: 4fc9 9c3d c4dc 4b3c 7671 45be 0373 ae3d
000000a0: d18d 223e 03d7 5d3d 636e 76be f204 bd3c
000000b0: 5cc7 14be aa03 30be 0253 97bc 13e2 683d
000000c0: f904 fc3d 8ff7 063d 0a0a 69bd 0c89 d23d
000000d0: 842c 4abd 1b2a 243d 297c 35bd 6f3f 7abc
000000e0: 3908 20be b09d b63d fe31 acbd f1a7 763c
000000f0: 349c 23bd 0f24 433e efa7 a5bd 6987 023e
00000100: 8010 583d 7801 8b3d 897c 223e 8af9 a63d
00000110: 0d17 c9bd 42da 013e cc50 07bd 48e7 ebbc
00000120: 339b 4c3d 3aa7 db3d d75f fe3d 5330 4a3e
00000130: 873d 36bd e8d7 1cbc 3aeb 1f3e 3d0d f63d
00000140: ca6f 66bd d5c4 1b3d cc47 783e eec3 efbd
00000150: ac9e 9e3c 5fa4 0ebd 1d46 ba3d 3404 0bbe
00000160: c561 453d c002 d8bc 2172 9cbc dc4b 813d
00000170: 948c c33d 886c 443d 27c1 a93d 4746 37bc
00000180: f57b 1e3d 2779 8bbd 4155 4ebc c051 0b3c
00000190: 394b 65be 205e 1ebe 6c21 073d fcea 12bd
000001a0: bdc8 ed3d 681d ce3b dbe0 0e3b 2244 9cbd
000001b0: 0900 a23d ff26 d03c 58eb e83c 7bd3 a0be
000001c0: 3d9d d6bd 5b2c 1a3c 523f 90bd 5cec 8ebd
000001d0: fec6 1c3e ebfb 333e 2c49 10bc 0850 bebd
000001e0: 1d52 b9bd 7b83 f73c 2e61 df3d d6d7 823b
000001f0: 3dc2 d7bb 0869 a53d 9042 f13d ac4f fd3c
00000200: 8b93 28bd 2240 babd c891 1b3e 612c cc3a
00000210: d0a7 b7bd 6d0b 953b 123e 5abe 29b0 4bbe
00000220: 31f4 673d 6554 ccbc d598 8c3e b63d c53d
00000230: 9532 1bbe 2221 2cbe c512 64be d698 a93d
00000240: b5b1 913c d86d 993d 6006 0bbe 61bd 10be
00000250: 64ac 303d 97fb d2bc e564 6a3e a55e 163e
00000260: 4cfd e8bd ad73 753e 0d5f e03d 49c4 2f3c
00000270: d137 26be 6ce4 3dbe 330d 95bd eecf 74bd
00000280: cf93 78bd e17e 0dbd a92c a23d 3aaa bd3d
00000290: d3bb 42bd 1905 f53c 04a6 3d3e a3bb c3bd
000002a0: 603a 2b3d a281 09be 7e37 e7bd ea89 9f3d
000002b0: 3ec9 8d3c 41ff 9fbc 0db2 64bd f1a2 7a3d
000002c0: 1968 afbd 3911 683d 4ff4 163e 23e3 1fbd
000002d0: 8158 053e ae9b a8bd 6e6c 8dbd 156b b0bd
000002e0: 344a e63d 4ddb 8e3d eac2 643d 39ab b8bc
000002f0: 8036 553d 86cd de3d 1d23 15be 1e83 453d
00000300: 9d42 9e3d 0802 833d 5f3f 843d 47e8 8ebc
00000310: 88f5 803d 4bdc 123e 0c53 c2bc 0518 bebd
00000320: a2bf 5e3e b896 10be 294e e1bc 358d 603e
00000330: 715b 03be 9b48 46be 8db3 983c 81d1 5f3c
00000340: 1984 e9bc f449 b23b 9261 a6bd 1473 c3bd
00000350: 1c28 61bc 4a73 773d 3dcd 76bd 3421 1dbe
00000360: cec7 2a3e 44f2 0fbe 2940 b83d 2881 f3bc
00000370: 48bb d23d 67b8 a6bd 4fa5 9138 b171 10bd
00000380: 4a51 bebd a37e eb3c a0d7 333e 2851 613d
00000390: 72b5 c6bc 89ba 903d 9431 82bd 292f 333d
000003a0: 0d86 4dbb a8a1 973c a2de 503e 063b 1a3e
000003b0: 2d7f c03d 6196 0fbe 1913 3bbe 1adc 263e
000003c0: 5ff1 d63d 6dc1 37be ee8c 1abe ae2f 1abc
000003d0: 5538 173e 0142 dfbe 44ec e73e e1bc 973d
000003e0: 5eff 13be 1f88 f9bd e1e7 34be c3cd 49bd
000003f0: 1e27 08ba 041e bbbd 5105 32be 9d92 a7bd

clf.0.bias f4 [5]
-0.024755541 -0.052138023 -0.040521648 0.026614552 -0.012286281
00000000: 22cc cabc ae8e 55bd 07fa 25bd c306 da3c
00000010: 664c 49bc
