BRCA/models/C2_best_1702938751.pth (torch, 5594 bytes, 2 tensors)

clf.0.weight f4 [5, 200]
00000000: 0667 5bbd 2579 86bd ae51 913d 6677 55bd
00000010: 58b2 223d 8466 443d 1fd3 e1bc eb7f 83bc
00000020: 4086 eb3c f314 7e3d 60cc c2bc d032 253d
00000030: 8056 373c da8a 133d a644 e7bc 95cf b23d
00000040: 4a6f 9abd 5efa 783d 382c ee3d c11f a73d
00000050: 5828 15be f249 763a 0e6d 33bd 135a 0abd
00000060: dd5b 023e 481d da3c 1d79 2e3c 6f92 78bd
00000070: a9a0 ddbd 67fd febb 3260 1b3d 62b9 9cbd
00000080: 0d8b 463e 1da8 61bd b8d3 37be ee70 833d
00000090: b0e9 a4bd 9235 6abd 3205 8d3d 1fcc e4bb
000000a0: 0e0c 943d 371f 42bd 4692 003d 2f8d 22bd
000000b0: d0bf db3d b9b1 45bd 35a0 a3bc 6f21 5d3c
000000c0: cc6d ae3c 1241 3cbc 641e 9e3d 5b06 40bd
000000d0: 85d4 683d 8724 87bc 0aec bebd c489 2ebd
000000e0: b147 173d 0df7 313e 654b 48bb 75c2 4f3d
000000f0: f66f 073e 6788 00bd ae60 713d 5762 afbd
00000100: d693 983d b524 263d 33b7 1c3d 4587 07bd
00000110: 5323 6c3c 8a88 9dbc 3a41 01bd 7fef a8bd
00000120: 7d55 babc 9b07 133d 2443 4cbe 4f22 3c3d
00000130: 5753 c93d b9b6 04bb 949a 8f3d a6a3 3cbb
00000140: b48a 6f3d 16ae 0f3c 4c7d 263b 9c55 dc3c
00000150: 4fef 853d 04d3 c23d 3c31 5c3c cf99 e63d
00000160: db97 223d 09d0 ea3d a0fa 2dbc 2bee 01bd
00000170: 5b22 a23d 2709 7a3d 4d26 bfbd 1025 ab3d
00000180: 1dd4 8ebd f10d 893d 1aaa 27be f914 c6bd
00000190: 7c2c 893c dd3e 00bd a958 073e 2295 36be
000001a0: a9cd a63c 6f47 af3c 3fa5 803c 1557 223c
000001b0: 8f4c d1bd bb2a 043b 4d01 703c d08f 843c
000001c0: 88fc 553d bd94 0dbe 354a 823d 31ba d83d
000001d0: 727a 1bbe 5190 703d 1cb7 253e 7f5d 0c3b
000001e0: b988 5dbd f013 453c e657 3d3e 9aa5 4ebd
000001f0: 693e 3f3c 6801 863d d19b 493d 6339 2a3c
00000200: a944 86bd 4d71 54bd b882 9cbc 117a f73d
00000210: 8700 0dbe 110e f73b 4030 463d aed6 d4bd
00000220: f172 ca3c 6bf2 dbbc 86cd 923d 64e3 963d
00000230: 3c5f 55bd 5c65 493e 16bd 843c dfbb b53d
00000240: 4f1e 6fbc 8aa7 58bd 5d9f d43c 597c 00bb
00000250: 3d1a 973d 69dd d4bd bd9d e4bd c37a 5c3d
00000260: 16a8 60be e203 55bd 76dc ddbc 8425 d03d
00000270: 85ea 6c3e ab31 1d3e d1dd 123e 9fd8 f8bc
00000280: fd51 be3d 52c5 7a3d 3bc8 713d e4e3 81bd
00000290: e3ec 343d a2b7 42bd 180c ee3d fb1b 18be
000002a0: 2a39 c0bc a0c5 4e3d 252e bd3c d2fb 023e
000002b0: 2e42 1d3c bd4c 4e3d cb42 89bd 9f71 853d
000002c0: 7e6e a6bd f71e 303d 6612 db3d 7a5a a1bd
000002d0: 09d4 97bd bc88 9d3d 1921 acbd 96da e8bc
000002e0: a0fc 16be 4fc0 a23d 37c6 533d 9332 1d3e
000002f0: 29c0 283d a99c e73d 5892 8f3d 36a1 783d
00000300: aeee 0e3e 9321 703e cf8c 1ebe 22b6 523d
00000310: a18e 1f3e bb0e e03d a06b e43d 2d34 0bbd
00000320: b925 c63d a970 3cbd 2c20 c5bc 6c67 ecbd
00000330: 2696 0abd 111f c43d 7f22 2ebd e0ff e33b
00000340: 47fd 8e3d d563 54bd 2ba3 863c 3f80 c83d
00000350: 3edf bc3d 3ed0 75bc 6fbc 193c 2178 a33d
00000360: 13d3 08be a2a3 9d3d 556b 073e 6182 8abd
00000370: 6ca5 6d3d 34fa fc3d b2be 093e d9b5 85bd
00000380: c0a4 3e3d 0bfc 67bd 1eca b63d c22a cfbd
00000390: 537e a83d a1d5 3c3e 87c8 693d 5abf d03d
000003a0: 85c6 9f3d 165f e73c e894 3ebd 19a1 edbc
000003b0: 60c4 64bb 8d8f 92bc b55e 93bc d3b7 8b3d
000003c0: 6db6 72bd 1acc 0b3c 1f1d 513d da8f f3bd
000003d0: 282d 16bd 39ce 663e 611a a5bc e9d8 7b3d
000003e0: 7ddb ccbb 5c2a 63bd 9af7 70bd 3fd9 f8bd
000003f0: 8bf0 623c 5c85 a73d 6286 c7bd 4f16 2abe
-0.053565048 -0.06566075 0.07095657 -0.05211582 0.039720863 0.04794933 -0.02756649 -0.016052207
0.028750539 0.062031697 -0.023779094 0.04033166 0.011190057 0.03602109 -0.028230976 0.087309994
-0.07540758 0.060785644 0.11629528 0.081603535 -0.14566171 0.0009395174 -0.043805175 -0.033777308
0.12730356 0.02662529 0.010648993 -0.060686525 -0.10821659 -0.0077816728 0.037933536 -0.076525465
0.19388981 -0.055091966 -0.17951858 0.06418024 -0.08052385 -0.057179995 0.068857566 -0.006982341
0.07228862 -0.04739305 0.031389497 -0.039685424 0.10729945 -0.048265193 -0.019973854 0.013496741
0.02129259 -0.011490123 0.0772064 -0.04688106 0.0568433 -0.01649691 -0.09322365 -0.042611852
0.036933605 0.17379399 -0.0030562517 0.050722558 0.13226303 -0.031380083 0.05893009 -0.08563679
0.074500725 0.04056235 0.03826065 -0.033087987 0.014412719 -0.019230146 -0.031556346 -0.08248805
-0.022745842 0.035895925 -0.19947487 0.045931157 0.09830349 -0.0020250513 0.07011905 -0.0028784066
0.058481887 0.008769533 0.0025404273 0.02689629 0.06539785 0.09512904 0.013439473 0.112598054
0.039695602 0.11465461 -0.010618836 -0.031721275 0.07916709 0.061043885 -0.09333477 0.083566785
-0.06974051 0.06692112 -0.16373482 -0.09671969 0.016744845 -0.03130995 0.13217415 -0.17830327
0.020361738 0.021396367 0.015703795 0.009908457 -0.102196805 0.002016707 0.014648748 0.016181856
0.052242786 -0.1382627 0.0636181 0.10582388 -0.15183428 0.05873138 0.16183132 0.0021418033
-0.054085467 0.012028679 0.18490562 -0.0504509 0.011672595 0.06543237 0.049220864 0.010389659
-0.06556065 -0.051865865 -0.0191053 0.12083829 -0.13769732 0.0075395186 0.04838586 -0.103925094
0.024713011 -0.026848992 0.07168107 0.0736759 -0.052092776 0.19667572 0.016203444 0.08873724
-0.0145946285 -0.052894153 0.025954897 -0.0019605367 0.073780514 -0.10393793 -0.11162899 0.053828012
-0.2193912 -0.052005656 -0.027082663 0.101634055 0.23136337 0.15350978 0.14342429 -0.03037673
0.09292982 0.061223336 0.059028845 -0.06342295 0.044171225 -0.047538407 0.116234004 -0.14854424
-0.023464758 0.05048144 0.023093292 0.12791374 0.009598298 0.050366152 -0.06702193 0.06515812
-0.081265435 0.04299828 0.106968686 -0.07878585 -0.07413489 0.07692096 -0.084047504 -0.028424542
-0.14744806 0.07946836 0.051702704 0.15351324 0.041198883 0.113091774 0.07010335 0.060700618
0.13958237 0.23450308 -0.15483402 0.051443227 0.15581752 0.109403096 0.1115334 -0.033985306
0.09675164 -0.04600588 -0.024063192 -0.11543164 -0.0338346 0.09576238 -0.042513367 0.006957993
0.069819026 -0.05185302 0.016435226 0.09790086 0.092222676 -0.015003262 0.009383305 0.07981897
-0.13361768 0.07697226 0.13224538 -0.06763149 0.058019087 0.1235241 0.1345165 -0.06528825
0.046543837 -0.05663685 0.089252695 -0.10115577 0.082272194 0.18440868 0.057076003 0.101927474
0.078015365 0.028243583 -0.046528727 -0.029007481 -0.0034907088 -0.017890716 -0.017989496 0.06822171
-0.059256006 0.008532548 0.051053163 -0.11892672 -0.036664158 0.22539605 -0.02015418 0.06148616
-0.006251751 -0.05546032 -0.05882988 -0.121508114 0.013851295 0.08179733 -0.09742428 -0.16610073

clf.0.bias f4 [5]
00000000: 29bf e1bd 9069 083d 9d81 33be 35b2 2b3e
00000010: 31ef 2fbd
-0.11022789 0.033303797 -0.17529912 0.167672 -0.04295272
