BRCA/models/C3_best_1702917634.pth (torch, 5594 bytes, 2 tensors)

clf.0.weight f4 [5, 200]
0	0x3c87afef	0.016563384
1	0xbe6aaced	-0.22917528
2	0x3e242ea8	0.16033423
3	0x3e293ff0	0.16528296
4	0x3e220e71	0.15825821
5	0x3e1f9ab4	0.15586358
6	0xbd8b0c0e	-0.067894086
7	0x3d8a9dcd	0.06768379
8	0xbced4a6e	-0.028966155
9	0x3c8f988f	0.0175288
10	0x3e12a7ed	0.14321871
11	0x3ca7189a	0.020397473
12	0x3d164640	0.03668809
13	0x3d5453cb	0.051837724
14	0xbc35176e	-0.011052949
15	0xb9e2bc35	-0.00043246304
16	0x3e129f6a	0.14318624
17	0xba746f2a	-0.0009324426
18	0x3cf94858	0.030430004
19	0x3cfc5ee0	0.030806959
20	0xbc81ca12	-0.015843425
21	0x3d84803b	0.064697705
22	0xbbbb9fe5	-0.005725848
23	0x3d8a5cbe	0.067559704
24	0x3d943986	0.07237534
25	0x3cb88aa8	0.022527054
26	0x3e01f1a4	0.12689835
27	0x3cb0bc5d	0.021574194
28	0x3d2e00a0	0.042481065
29	0x3bad29b9	0.0052845147
30	0x3d8c7406	0.06858067
31	0x3c6fc108	0.014633425
32	0xbc8b070d	-0.016971136
33	0xbda52114	-0.0806295
34	0x3c1a85ae	0.009431286
35	0xbd9fbc56	-0.07799594
36	0x3d830731	0.06397856
37	0xbd9d587a	-0.07682891
38	0x3c40bc9e	0.01176372
39	0xbd838747	-0.064222865
40	0x3d61d005	0.055130024
41	0x3d9f0898	0.07765311
42	0x3df7fdee	0.1210898
43	0x3be5ce6e	0.0070131337
44	0x3e47ce15	0.19512208
45	0x3e65ab34	0.2242859
46	0xbd88e945	-0.06685118
47	0x3df86841	0.1212926
48	0x3d83b0b7	0.0643019
49	0x3d088b76	0.033336125
50	0xbbf55f7e	-0.00748819
51	0x3bdfa0cb	0.006824588
52	0xbd047b72	-0.03234429
53	0x3ce40d7f	0.027838467
54	0x3ceb5f40	0.028731942
55	0x3e1eece9	0.15520062
56	0x3d8f6e20	0.070034266
57	0x3d95cbab	0.07314237
58	0xbd4bad9a	-0.049726106
59	0xbd12ff23	-0.03588785
60	0x3dabe32c	0.08392939
61	0x3cf0c041	0.029388549
62	0xbcf02d15	-0.029318372
63	0x3d633264	0.055467978
64	0xbe355290	-0.17707276
65	0x3cdde54b	0.027086874
66	0xbd2b9a1a	-0.04189501
67	0x3e6b17c9	0.22958292
68	0x3e37d52c	0.17952412
69	0x3d734e67	0.059400942
70	0x3cb17fb4	0.021667339
71	0x3dd159b5	0.102221884
72	0x3dce28cd	0.10066376
73	0x3e1514d8	0.14558733
74	0x3dc7abbb	0.09749552
75	0xbba3f248	-0.0050032474
76	0xbdfd74f0	-0.1237582
77	0x3dbc2b2c	0.09187922
78	0x3db18140	0.086672306
79	0x3e4b104a	0.19830433
80	0x3e02712f	0.12738489
81	0x3e1e019f	0.15430306
82	0x3da6f99c	0.08153078
83	0xbd431bdf	-0.047634
84	0x3e274df9	0.16338338
85	0x3d20eb9d	0.0392872
86	0x3e0db798	0.13839567
87	0x3da386e9	0.079847164
88	0x3db3ba78	0.087758005
89	0xbd281b5d	-0.04104172
90	0x3d5f5f8a	0.054534473
91	0x3cef84c9	0.029238122
92	0xbda49537	-0.08036273
93	0xbdb7d3f8	-0.08975977
94	0x3d1f4011	0.038879458
95	0xbbcfd024	-0.006341951
96	0x3d1a00b6	0.037598334
97	0xbd452877	-0.048134293
98	0xbddb9eff	-0.107236855
99	0xbd4be098	-0.049774736
100	0x3e0af2bc	0.13569158
101	0xbca45013	-0.020057714
102	0x3dbac0e5	0.09118823
103	0xbe23a3c2	-0.15980437
104	0x3d5db60d	0.054128695
105	0xbb6a97e3	-0.0035796098
106	0x3dd5827f	0.10425281
107	0x3dec7bec	0.11547074
108	0x3d4c89b4	0.04993601
109	0x3d3320e8	0.043732554
110	0x3d840921	0.06447054
111	0xbd1959d6	-0.03743919
112	0x3da89c9e	0.08232997
113	0xbe457c03	-0.19285588
114	0xbe1ebb71	-0.1550119
115	0x3d37a5f8	0.044836015
116	0xbd6aafe4	-0.05729665
117	0xbe0cda81	-0.13755228
118	0xbd49b13f	-0.0492413
119	0xbda30e48	-0.07961708
120	0xbc86647b	-0.016405335
121	0x3cf65530	0.030069917
122	0xbd45fac7	-0.048334863
123	0xbd8d9891	-0.06913865
124	0x3d72e042	0.0592959
125	0x3dc93502	0.098245636
126	0x3d448600	0.047979355
127	0x3db2c062	0.087281
128	0x3e0c6f1c	0.1371426
129	0x3de5bb9e	0.11217426
130	0x3c55584a	0.013021538
131	0xbd44aae8	-0.04801455
132	0x3cbbf8f1	0.022945853
133	0x3c0ade48	0.008475848
134	0xbd7e48ff	-0.062081333
135	0xbbab288a	-0.0052233385
136	0xbcac2629	-0.02101429
137	0x3d4bbbce	0.04973965
138	0x3d8790f4	0.066194445
139	0xbd1df61f	-0.038564797
140	0xbd443562	-0.047902472
141	0xbe873560	-0.2640791
142	0x3d23580d	0.039878894
143	0x3de31590	0.11088097
144	0xbd7856be	-0.0606296
145	0xbe29b3e8	-0.16572535
146	0x3dcd9683	0.100384735
147	0x3d6b56ec	0.057455942
148	0xbd23fe6f	-0.04003757
149	0xbc4575ed	-0.0120520415
150	0x3c1950b9	0.009357625
151	0x3d3d992c	0.046288654
152	0x3e3d7e09	0.1850511
153	0x3d9557bf	0.07292127
154	0xbd703704	-0.058646217
155	0xbe053ff2	-0.13012674
156	0x3daa1bc7	0.08306079
157	0x3db17627	0.08665114
158	0x3d0680fc	0.032837853
159	0xbc20aa95	-0.009806295
160	0xbdcbb753	-0.09947076
161	0xbe10d8c2	-0.14145187
162	0x3e218e0d	0.15776844
163	0xbe242d36	-0.16032872
164	0x3d9c6ae3	0.076375745
165	0xbd9d9689	-0.07694728
166	0xbd482df0	-0.048871934
167	0xbd28a775	-0.041175324
168	0x3daeb82c	0.08531222
169	0x3daa13c1	0.08304549
170	0xbdf74618	-0.12073916
171	0xbda3ef96	-0.08004682
172	0x3aac95af	0.0013167168
173	0x3c7e2a64	0.015513036
174	0x3da19c3b	0.07891127
175	0x3dd31b0c	0.10307893
176	0x3d2a41d2	0.041566677
177	0xbda2c0e7	-0.079469495
178	0x3ca62ce8	0.020285085
179	0x3b106270	0.002203133
180	0x3d8e9e72	0.06963815
181	0xbd734e71	-0.05940098
182	0x3d2629a7	0.040567067
183	0xbde053c7	-0.10953479
184	0xbd4cbb07	-0.04998305
185	0x3dd8af4a	0.10580309
186	0x3d4eb035	0.050461013
187	0x3c94e0e5	0.018173644
188	0x3dcf6029	0.10125763
189	0xb89440e2	-7.069275e-05
190	0xbd991249	-0.07474191
191	0x3cac7449	0.021051543
192	0x3dac69ba	0.08418603
193	0xbc9cdc7e	-0.019148108
194	0xbd6cd171	-0.057816926
195	0x3d2eb50b	0.042653125
196	0x3da4dfac	0.080504745
197	0xbd4cb743	-0.04997946
198	0xbdc9245f	-0.0982139
199	0xbdf83f71	-0.121214755
200	0x3d2bb2ed	0.041918684
201	0x3d4fd157	0.05073675
202	0x3e0dd1e4	0.13849598
203	0xbd8dd205	-0.06924824
204	0xbd47267a	-0.04862068
205	0x3dc5e675	0.09663097
206	0xbd8cd952	-0.06877388
207	0x3c385fb0	0.011253282
208	0x3d102391	0.03519017
209	0x3dd894bc	0.10575244
210	0x3e3a275a	0.18179074
211	0x3e1b09ff	0.15140532
212	0x3d199220	0.03749287
213	0x3d838b5d	0.06423066
214	0xbda224af	-0.07917153
215	0xbd13daf6	-0.03609749
216	0xbdfed30d	-0.124425985
217	0x3bcadf0d	0.0061911405
218	0x3dc5267b	0.0962648
219	0x3c558a2c	0.013033431
220	0x3d39c86c	0.045357153
221	0x3d58d576	0.052937947
222	0x3d8e48a0	0.06947446
223	0xbd3770d1	-0.044785324
224	0x3e2b8d42	0.16753104
225	0x3d35833b	0.044314604
226	0xbde05167	-0.10953026
227	0xbcfccd8d	-0.030859733
228	0x3b8cb955	0.0042945542
229	0x3dea3e3b	0.11437651
230	0x3dab4f60	0.08364749
231	0x3d03d8de	0.032189243
232	0xbc7d7c28	-0.015471496
233	0xbc828c03	-0.015935903
234	0xbc4a32d5	-0.012341221
235	0xbe0fe084	-0.1405049
236	0xbc8438d4	-0.016140379
237	0xbcc7a0bb	-0.024368634
238	0x3c1bd78b	0.009511839
239	0xbd9b63f3	-0.07587423
240	0x3ddbf6cf	0.107404344
241	0x3d7d90df	0.061905738
242	0x3c6d42df	0.014481275
243	0x3d2a1f40	0.04153371
244	0xbd09931e	-0.033587568
245	0x3d14c604	0.036321655
246	0xbd7bb813	-0.061454844
247	0x3d113932	0.035454936
248	0x3d729672	0.059225507
249	0x3d988cf2	0.07448758
250	0x3c2beb15	0.01049306
251	0x3d796e67	0.060896304
252	0xbd8172dd	-0.063207366
253	0x3d48b73b	0.049002867
254	0x3e001ee2	0.12511781
255	0x3e6e87bb	0.23293965

clf.0.bias f4 [5]
0	0xbe229148	-0.15875733
1	0xbdd9bfce	-0.10632287
2	0xbd9f9166	-0.077914044
3	0x3e2a960a	0.16658798
4	0x3c1dca82	0.009630801
