BRCA/models/C3_best_1703025795.pth (torch, 5594 bytes, 2 tensors)

clf.0.weight f4 [5, 200]
-0.044368044 0.0016387552 0.006727508 -0.14508612 0.0398548 -0.05038918 0.25510913 0.1126685
0.1711107 -0.059888285 -0.08713614 0.11418139 -0.07937454 -0.13373825 -0.18447214 0.054493066
0.13710673 0.1757026 0.05355897 0.109699465 0.059118714 0.049878728 0.098651424 -0.0820684
0.06206038 0.06754336 0.069962315 -0.14541411 -0.013852237 -0.016847227 0.0076994053 -0.12799238
-0.2282291 0.14398189 0.06711951 -0.085107416 0.0008437771 0.051738616 -0.19150701 -0.039794058
-0.11135042 0.056970127 -0.12016653 0.04045705 0.106061615 0.07489893 -0.20439175 0.018174935
0.09814214 0.011153814 -0.0054591876 -0.0084432475 -0.005033053 -0.080658354 -0.022100477 0.12458857
0.08352069 -0.15735333 -0.031444002 0.011002938 -0.06512144 -0.08420519 -0.037785962 -0.060298104
-0.004521405 -0.043524496 -0.029567942 0.08047933 0.035270646 -0.055075422 0.000342901 0.05026667
0.06850882 0.080315955 -0.13087484 -0.056947146 0.047563255 -0.14504685 0.06376219 0.10440922
0.030688737 0.009133174 0.02079346 0.044451933 0.028513074 0.08243246 0.01175923 0.00059386215
-0.08819723 0.08500628 0.046520196 -0.054897662 -0.04805792 0.073245496 0.07376102 0.0025771712
0.045770526 0.04787515 -0.04420396 0.07191706 0.12823407 -0.17012921 -0.006755072 -0.037656102
-0.03898122 -0.054408774 0.053594984 0.026659923 0.069845766 -0.09325602 0.0013547437 -0.0155799445
-0.14776117 -0.007648382 0.1445437 -0.029360449 0.13270086 -0.0034470372 -0.087753706 0.05011849
0.13538533 0.05428297 -0.049024936 0.113134205 -0.055197332 -0.027288483 0.038347993 0.12706925
-0.004341477 -0.10649031 -0.03481256 -0.023848549 -0.12487841 -0.10207783 0.051968798 -0.043829963
-0.058033623 -0.037536874 0.054985803 -0.034488853 0.016231962 -0.07045483 -0.16148485 0.04683544
-0.015408571 0.015288963 -0.028119553 0.021007849 0.07056344 -0.0010793336 0.065876015 0.16811493
-0.039564814 -0.02798057 -0.066698104 0.061675336 -0.016858494 -0.00094713183 0.056290884 -0.048483934
-0.055637974 -0.033656746 0.12365745 -0.036571924 0.05058332 0.003279315 0.009559713 0.017938983
-0.04124069 0.03378453 0.03811704 -0.012034225 0.053116135 0.08338234 -0.0023978776 -0.07045242
0.057969544 -0.033162378 0.06913962 -0.014926102 0.052495 -0.008949808 -0.21909961 0.07165069
-0.034578774 0.10405822 0.10009243 0.059297036 0.0237828 -0.06763836 0.041809153 -0.041669656
0.07448126 0.06390264 0.0358231 -0.03180171 -0.010033419 -0.061837256 -0.14186321 -0.053641565
-0.012398287 0.1059634 -0.01096311 0.08676059 0.09828304 -0.025887618 -0.008237579 0.099527106
0.11590157 -0.019191124 -0.07466614 -0.18632303 -0.11489379 0.008618823 0.10205224 -0.13714734
-0.10516664 0.030279173 -0.50960845 0.0842661 -0.0320757 0.006865253 -0.077212065 0.0061579063
-0.08647562 0.09174726 0.024271574 -0.103049204 0.0323919 -0.043962214 -0.06549454 -0.13566752
-0.1090318 0.07971341 0.024112483 0.027126143 -0.011003732 0.07250987 -0.18933487 -0.07996127
-0.13500255 0.03832679 -0.06157612 -0.07686885 -0.09695163 0.07255922 -0.03895925 0.06842078
-0.18755606 0.07950112 -0.066066496 0.055498455 -0.03279789 -0.10228634 -0.065777846 -0.03786575
00000000: 44bb 35bd 80cb d63a 6d72 dc3b 7591 14be
00000010: c93e 233d e364 4ebd aa9d 823e bebe e63d
00000020: a537 2f3e 6b4d 75bd 6f74 b2bd efd7 e93d
00000030: 1e8f a2bd aef2 08be 44e6 3cbe 1f34 5f3d
00000040: b565 0c3e 62eb 333e a760 5b3d 1daa e03d
00000050: 7726 723d a34d 4c3d c209 ca3d 7a13 a8bd
00000060: 0633 7e3d 2c54 8a3d 6748 8f3d 70e7 14be
00000070: 7ef4 62bc 3203 8abc 4b4b fc3b 6f10 03be
00000080: e4b4 69be fd6f 133e f475 893d cc4c aebd
00000090: ec30 5d3a dfeb 533d 6a1a 44be 18ff 22bd
000000a0: b00b e4bd 8259 693d df19 f6bd 4bb6 253d
000000b0: d536 d93d 9c64 993d 124c 51be 9ae3 943c
000000c0: bffe c83d 7dbe 363c fce2 b2bb 8c55 0abc
000000d0: 4fec a4bb 3530 a5bd 0f0c b5bc 4b28 ff3d
000000e0: e50c ab3d 3b21 21be 6dcb 00bd ab45 343c
000000f0: 645e 85bd c573 acbd 74c5 1abd 25fb 76bd
00000100: 4b28 94bb be46 32bd 7838 f2bc 59d2 a43d
00000110: f477 103d c496 61bd 65c7 b339 6ce4 4d3d
00000120: 5a4e 8c3d b17c a43d 0e04 06be 6941 69bd
00000130: b0d1 423d 2987 14be c095 823d 80d4 d53d
00000140: f266 fb3c 4fa3 153c 0c57 aa3c 3b13 363d
00000150: 4094 e93c 59d2 a83d c9a9 403c 6aad 1b3a
00000160: c0a0 b4bd c617 ae3d f68b 3e3d 5fdc 60bd
00000170: 62d8 44bd bc01 963d 0510 973d c2e5 283b
00000180: e079 3b3d bc18 443d 360f 35bd 4049 933d
00000190: cb4f 033e 5a36 2ebe a759 ddbb 493d 1abd
000001a0: c6aa 1fbd bcdb 5ebd 6a86 5b3d e965 da3c
000001b0: 4c0b 8f3d 03fd bebd a891 b13a 0643 7fbc
000001c0: b44e 17be 479f fabb 4403 143e 5385 f0bc
000001d0: bce2 073e b0e7 61bb 37b8 b3bd 0c49 4d3d
000001e0: 74a2 0a3e d257 5e3d 5fce 48bd e8b2 e73d
000001f0: 9916 62bd 198c dfbc c912 1d3d 711e 023e
00000200: f342 8ebb 9717 dabd 9d97 0ebd 085e c3bc
00000210: 40c0 ffbd 2e0e d1bd 3cdd 543d 0c87 33bd
00000220: aab4 6dbd 44c0 19bd cb38 613d 2f44 0dbd
00000230: e4f8 843c 9f4a 90bd 495c 25be 85d6 3f3d
00000240: 3b74 7cbc 8f7e 7a3c fa5a e6bc a718 ac3c
00000250: 9183 903d 6d78 8dba 01ea 863d 5226 2c3e
00000260: b70e 22bd 8237 e5bc 0499 88bd 479f 7c3d
00000270: d31a 8abc f148 78ba 4591 663d 1797 46bd
00000280: a5e4 63bd a8db 09bd 1e40 fd3d 71cc 15bd
00000290: 7530 4f3d c7e9 563b 58a0 1c3c c6f4 923c
000002a0: ffeb 28bd a661 0a3d 9d20 1c3d 332b 45bc
000002b0: 4e90 593d 5cc4 aa3d b625 1dbb 5c49 90bd
000002c0: 7971 6d3d 46d5 07bd 1399 8d3d 9c8c 74bc
000002d0: ff04 573d 37a2 12bc a65b 60be 99bd 923d
000002e0: 79a2 0dbd 7a1c d53d 43fd cc3d 73e1 723d
000002f0: 26d4 c23c fb85 8abd 1340 2b3d cdad 2abd
00000300: a189 983d 63df 823d 3ebb 123d 8342 02bd
00000310: 3663 24bc 1049 7dbd 9744 11be 42b7 5bbd
00000320: 2f22 4bbc 5703 d93d 9e9e 33bc 89af b13d
00000330: 9e48 c93d 4512 d4bc e9f6 06bc ded4 cb3d
00000340: cd5d ed3d b436 9dbc 90ea 98bd 77cb 3ebe
00000350: 6f4d ebbd f735 0d3c c400 d13d 5a70 0cbe
00000360: 9b61 d7bd 070c f83c b375 02bf b493 ac3d
00000370: cf61 03bd ebf5 e03b 5c21 9ebd 43c8 c93b
00000380: 211a b1bd fde5 bb3d 2ed5 c63c 760b d3bd
00000390: 5ead 043d b911 34bd 0022 86bd 6dec 0abe
000003a0: 104c dfbd c940 a33d 8b87 c53c a537 de3c
000003b0: ff48 34bc 0e80 943d 00e1 41be bcc2 a3bd
000003c0: 1c3e 0abe 8dfc 1c3d 3e37 7cbd 6a6d 9dbd
000003d0: 948e c6bd ee99 943d bc93 1fbd 3220 8c3d
000003e0: b20e 40be 7cd1 a23d df4d 87bd 5952 633d
000003f0: 1557 06bd 807b d1bd 89b6 86bd 1e19 1bbd

clf.0.bias f4 [5]
-0.12768161 -0.0496904 -0.10151335 0.095802546 -0.008743719
00000000: f8be 02be 2988 4bbd 3be6 cfbd 2034 c43d
00000010: d141 0fbc
