BRCA/models/C3_best_1702941393.pth (torch, 5594 bytes, 2 tensors)

clf.0.weight f4 [5, 200]
0.05943518 0.06469772 -0.035269976 0.060706608 -0.06262099 0.057732258 0.044243507 0.07559704
-0.007970322 -0.021922447 0.103243455 -0.022242924 0.0913139 0.05622355 0.07570985 -0.050695688
0.11742785 0.03148017 0.16883145 -0.005724702 -0.07884576 0.009895419 -0.085264176 0.0032342575
0.17692721 -0.026155919 0.039467175 -0.01590363 0.008525239 -0.07267953 -0.119901575 0.057677794
0.047668424 -0.08367569 -0.068438284 0.10256149 -0.073474295 0.11946306 -0.0008279554 -0.10457097
0.13606682 0.014997075 -0.111072175 -0.08528281 0.093391314 -0.09691524 0.049001984 0.13133681
-0.022152787 0.051035237 -0.16089422 0.09330501 -0.05257312 0.084208846 0.0347701 0.051102053
-0.007906727 0.036121786 -0.07092201 0.012359815 -0.089979656 -0.05773253 -0.005520989 0.27475947
-0.028143173 0.0014022649 0.051237196 0.006181735 0.08763939 -0.13143967 -0.075422205 -0.052886944
0.003568705 0.1677317 0.0901551 -0.038778126 -0.05651377 0.13119227 -0.110994354 0.06272935
-0.063439175 -0.008556149 0.04934079 -0.031444404 -0.0034599507 0.06037331 0.009047523 -0.030780764
0.08756054 -0.18836659 -0.007033077 0.03408661 -0.069925554 -0.1564007 0.12758322 -0.0023246242
-0.08316446 0.083632424 0.00083824527 -0.040074788 -0.0015585464 -0.0091590155 0.13959663 -0.007263863
0.08357592 0.09385836 -0.051730767 0.121315196 0.041024156 0.07733874 0.046328615 -0.077137806
-0.12698331 -0.13900346 0.1672896 -0.029422624 0.010891062 -0.07839385 -0.053354807 0.019725662
0.021678837 -0.0069554406 0.05979558 -0.01196111 -0.00027394545 -0.016416594 0.10182533 0.02992412
0.07504272 -0.06749265 -0.04481729 0.069063686 -0.10643426 -0.09763871 -0.016062032 0.12195896
-0.032020826 -0.03981727 -0.08522031 -0.016536828 -0.17819817 -0.13228898 -0.108154416 -0.046765793
-0.0062455526 -0.13480428 -0.11098112 0.016311925 0.06812896 0.009689709 0.0798505 0.09444711
-0.11672579 0.022028988 0.036761153 0.13508987 0.12054481 -0.052981168 0.110660754 0.048990946
0.011391139 0.09021689 0.0116666565 0.013101436 0.1481994 0.11506383 -0.11822858 0.0070532253
0.01906051 -0.081647225 -0.00019609471 -0.014174365 0.068409234 -0.0833546 0.033218257 -0.07252054
0.06723357 -0.051038925 0.050098922 0.038902782 -0.03571403 0.101014726 -0.042508382 -0.0685663
-0.10680401 -0.05578468 -0.031556033 -0.061578996 0.10522723 -0.07255581 0.04583551 0.22118883
0.048229314 -0.055097077 -0.054593857 0.15285496 0.12098368 -0.015034697 0.16040844 -0.12985799
0.07811287 0.09289147 0.014508757 -0.0040704627 -0.08539868 0.027435843 0.062070824 0.078364655
0.07688871 0.052739285 0.025666045 -0.1261075 0.15914962 -0.042616043 -0.065815955 -0.059153967
0.08269547 -0.07244181 0.019386528 0.08178847 -0.0031289302 0.06003465 -0.11565066 0.0159361
-0.14605169 0.18505248 0.1011657 0.039532162 0.14688231 0.19191839 0.05875924 0.02118981
0.18496081 -0.04585287 -0.026260449 0.13580132 -0.18498805 0.10999513 -0.027449891 0.025739063
-0.1503913 -0.008846188 -0.030838437 -0.061568957 0.09515281 -0.09144419 -0.120449275 0.07213964
-0.048027955 0.009046466 -0.2086443 0.12664324 -0.051478837 0.05823002 -0.02750574 0.13707231
00000000: 4e72 733d 3d80 843d 4077 10bd 7ea7 783d
00000010: 6f3f 80bd a978 6c3d ae38 353d 9fd2 9a3d
00000020: f495 02bc b496 b3bc 4e71 d33d cb36 b6bc
00000030: c802 bb3d aa4a 663d c40d 9b3d 48a6 4fbd
00000040: 037e f03d 5af1 003d 27e2 2c3e 4896 bbbb
00000050: e379 a1bd 6520 223c fc9e aebd d6f5 533b
00000060: 682c 353e f044 d6bc 55a8 213d 5448 82bc
00000070: 72ad 0b3c 01d9 94bd f58e f5bd 8d3f 6c3d
00000080: f73f 433d 295e abbd 5f29 8cbd c20b d23d
00000090: b179 96bd 0ca9 f43d 250b 59ba 4e29 d6bd
000000a0: 1a55 0b3e 4bb6 753c cf79 e3bd c1a8 aebd
000000b0: f243 bf3d 7f7b c6bd 4eb6 483d 287d 063e
000000c0: c379 b5bc 530a 513d 74c1 24be b216 bf3d
000000d0: e956 57bd b075 ac3d 186b 0e3d 6350 513d
000000e0: 378b 01bc 70f4 133d 8f3f 91bd d280 4a3c
000000f0: 4147 b8bd f278 6cbd 6ae9 b4bb 46ad 8c3e
00000100: 838c e6bc 34cc b73a 18de 513d 2790 ca3b
00000110: 487c b33d 1f98 06be f576 9abd fb9f 58bd
00000120: efe0 693b dcc1 2b3e 3da3 b83d d0d5 1ebd
00000130: fc7a 67bd 4457 063e 0251 e3bd 3f78 803d
00000140: 66ec 81bd 172f 0cbc 9119 4a3d d9cb 00bd
00000150: 57c0 62bb 014a 773d 103c 143c f127 fcbc
00000160: f152 b33d 2ce3 40be ba75 e6bb 679e 0b3d
00000170: 2135 8fbd 8127 20be 2da5 023e b958 18bb
00000180: 2152 aabd 7a47 ab3d b0bd 5b3a 7625 24bd
00000190: 2448 ccba b20f 16bc 6bf2 0e3e b305 eebb
000001a0: da29 ab3d d038 c03d a4e3 53bd 1a74 f83d
000001b0: f208 283d c663 9e3d 13c3 3d3d 6dfa 9dbd
000001c0: ea07 02be ec56 0ebe f74d 2b3e b707 f1bc
000001d0: 6d70 323c f48c a0bd 928a 5abd b697 a13c
000001e0: d197 b13c 77ea e3bb 36ec 743d 88f8 43bc
000001f0: 56a0 8fb9 187c 86bc cc89 d03d 6e23 f53c
00000200: ffaf 993d 9639 8abd 5692 37bd 4371 8d3d
00000210: 35fa d9bd cef6 c7bd 8694 83bc 9fc5 f93d
00000220: 4528 03bd 6f17 23bd fc87 aebd 3e78 87bc
00000230: 9579 36be c376 07be 1080 ddbd 7d8d 3fbd
00000240: 7ea7 ccbb 220a 0abe 124a e3bd 96a0 853c
00000250: 3287 8b3d 96c1 1e3c a988 a33d 7d6d c13d
00000260: ee0d efbd 2376 b43c dd92 163d 0055 0a3e
00000270: 33e0 f63d c802 59bd 1ba2 e23d bbaa 483d
00000280: e6a1 3a3c a2c3 b83d 8125 3f3c 68a7 563c
00000290: 95c1 173e 96a6 eb3d d321 f2bd be1e e73b
000002a0: c924 9c3c a936 a7bd c69e 4db9 993b 68bc
000002b0: 241a 8c3d d1b5 aabd de0f 083d a685 94bd
000002c0: c1b1 893d 310e 51bd 8734 4d3d 8658 1f3d
000002d0: e048 12bd cfe0 ce3d 451d 2ebd 7d6c 8cbd
000002e0: 10bc dabd 7a7e 64bd e640 01bd 423a 7cbd
000002f0: 6081 d73d 2498 94bd 04be 3b3d 537f 623e
00000300: 1a8c 453d 79ad 61bd cf9d 5fbd 0386 1c3e
00000310: 4bc6 f73d 1754 76bc 1c42 243e 7ef9 04be
00000320: a4f9 9f3d e23d be3d 23b6 6d3c 8461 85bb
00000330: 81e5 aebd 22c1 e03c fa3d 7e3d a67d a03d
00000340: d477 9d3d 2605 583d 9941 d23c 5322 01be
00000350: 1ef8 223e 298e 2ebd 84ca 86bd 6e4b 72bd
00000360: 3e5c a93d 5f5c 94bd 7fd0 9e3c b780 a73d
00000370: bd0e 4dbb e5e6 753d 41da ecbd 6d8c 823c
00000380: 938e 15be 667e 3d3e f62f cf3d 7aec 213d
00000390: 5168 163e 4186 443e 87ad 703d 4196 ad3c
000003a0: 5e66 3d3e 38d0 3bbd 2720 d7bc 800f 0b3e
000003b0: 826d 3dbe 2045 e13d 98de e0bc bada d23c
000003c0: 2d00 1abe 9aef 10bc e4a0 fcbc bb2f 7cbd
000003d0: 7adf c23d 1747 bbbd 1cae f6bd f3bd 933d
000003e0: f6b8 44bd a137 143c daa6 55be c4ae 013e
000003f0: 79db 52bd 9a82 6e3d b853 e1bc af5c 0c3e

clf.0.bias f4 [5]
-0.13420103 -0.16503881 -0.16538152 0.166678 -0.0076059974
00000000: ff6b 09be efff 28be c659 29be a3ad 2a3e
00000010: bb3b f9bb
