BRCA/models/C3_best_1703027228.pth (torch, 5594 bytes, 2 tensors)

clf.0.weight f4 [5, 200]
0	0x3ea1eba8	0.31625104
1	0x3e9c5d3d	0.30539885
2	0x3ce45d65	0.027876565
3	0x3e0f5c1f	0.13999985
4	0x3e7bb60f	0.24581169
5	0x3e70ff69	0.23534931
6	0x3e3ea061	0.18615867
7	0xbd9e3bc1	-0.07726241
8	0x3e5ce111	0.21570231
9	0x3e96bb98	0.29439998
10	0x3e7a45a9	0.24440636
11	0xbdddfaf1	-0.10838879
12	0x3c642a0a	0.0139260385
13	0x3e186b16	0.148846
14	0xbe76a13b	-0.24084942
15	0x3de55838	0.11198467
16	0xbc3a2e01	-0.011363507
17	0x3db79bfd	0.08965299
18	0x3e8bc771	0.273006
19	0x3f1572c0	0.5837822
20	0xbea6cee4	-0.3257972
21	0x3ecdd4f7	0.40201542
22	0xbea5671e	-0.32305235
23	0x3d846441	0.064644344
24	0x3e7bac14	0.24577361
25	0x3ee8aa31	0.45442346
26	0x3e535d0b	0.20640962
27	0xbe853f25	-0.26024738
28	0x3e4218bd	0.1895475
29	0x3ec6314a	0.3870948
30	0xbe7a1c0c	-0.24424762
31	0xbe40e449	-0.18837084
32	0xbe2f759e	-0.17134711
33	0x3ea6a505	0.32547775
34	0xbd753ea7	-0.059874203
35	0x3e8468b2	0.25861126
36	0x3cbe2d99	0.023215102
37	0xbc3735c1	-0.0111822495
38	0xbe028776	-0.12746987
39	0xbc1b3998	-0.009474181
40	0xbdfd64b8	-0.12372726
41	0x3ede2ae6	0.43392104
42	0xbee5df32	-0.44896847
43	0x3e58da48	0.21177018
44	0x3e7d4905	0.24734886
45	0xbe5d4479	-0.21608151
46	0x3ebb11e8	0.365371
47	0x3ee4321b	0.44569477
48	0x3e4c7fdc	0.1997065
49	0x3e6954e9	0.22786297
50	0xbdf62701	-0.12019158
51	0xbe9b1b6d	-0.30294362
52	0x3e74d0c9	0.2390777
53	0x3ea8e111	0.32984212
54	0xbe3d7b72	-0.18504122
55	0x3cc85fc6	0.02445973
56	0x3d8d4bb0	0.06899202
57	0x3db71ac8	0.08940655
58	0x3d256b8c	0.040385768
59	0x3e6c9486	0.23103532
60	0x3cc2d198	0.023781583
61	0x3dc620f9	0.09674258
62	0x3e785d3c	0.24254316
63	0x3ec00ced	0.37509862
64	0x3d1a60d6	0.037690006
65	0x3ecb38e7	0.3969185
66	0xbe7f3668	-0.24923098
67	0x3e63f62f	0.2226188
68	0xbdbdf4c8	-0.09275204
69	0x3e0ee466	0.13954315
70	0x3ee59726	0.4484188
71	0x3e271ced	0.16319628
72	0xbdc4f013	-0.09616103
73	0x3e3d3734	0.1847809
74	0xbe8ca5bc	-0.27470195
75	0x3e771ef5	0.24132903
76	0xbd380541	-0.044926886
77	0xbe2c79ac	-0.16843289
78	0xbef9197a	-0.4865225
79	0xbe1a1c71	-0.15049912
80	0xbec16dfc	-0.37779224
81	0x3d255bff	0.040370937
82	0x3ec14c47	0.37753507
83	0x3ef91f55	0.48656717
84	0x3e203704	0.15645987
85	0xbcaa4b1a	-0.020787764
86	0x3e1188af	0.14212297
87	0x3e265984	0.16245085
88	0x3d3e39ff	0.046442028
89	0x3ddf53a6	0.109046265
90	0x3e4870a8	0.19574225
91	0x3e424225	0.18970545
92	0xbe60fddb	-0.21971838
93	0x3e80a842	0.2512837
94	0x3cb1306a	0.021629531
95	0x3e5662da	0.20936146
96	0xbea18d55	-0.3155314
97	0x3e6babed	0.23014803
98	0x3db63788	0.088973105
99	0xbe9320a6	-0.28735846
100	0xbcd01679	-0.02540134
101	0x3e0ec548	0.13942444
102	0x3ed211d8	0.4102924
103	0x3e15b4cf	0.14619754
104	0x3f0fba8a	0.5614401
105	0xbe6e3fd2	-0.23266533
106	0x3e073c1b	0.13206522
107	0x3e0b0663	0.13576655
108	0x3ded7bbd	0.11595867
109	0x3da38a2e	0.0798534
110	0x3ed94f36	0.42443246
111	0xbda6bd0a	-0.08141525
112	0x3e99ce7f	0.30040357
113	0xbdad723f	-0.08469056
114	0x3e866c7d	0.26254645
115	0xbe5b9686	-0.21444139
116	0x3c22e7f7	0.009943
117	0x3e1c4235	0.15259631
118	0xbf1731d9	-0.59060436
119	0xbe1627b3	-0.14663582
120	0x3e62016a	0.22070852
121	0x3d9b089e	0.07570003
122	0x3eaec7a1	0.3413668
123	0x3eb37094	0.35046828
124	0x3d970d3e	0.073755726
125	0x3eaf2162	0.34205157
126	0x3bdf8fe8	0.006822575
127	0x3f0d2ce2	0.5514661
128	0x3e4c7493	0.19966345
129	0x3e26ecd7	0.16301285
130	0x3e97d68f	0.29655883
131	0x3ddc44ab	0.10755285
132	0x3dd255fa	0.10270305
133	0xbd3ac6d5	-0.045599777
134	0xbd9f9cf3	-0.077936076
135	0x3e93986d	0.2882723
136	0x3e2e8f0f	0.1704676
137	0x3d05609b	0.032562833
138	0x3e525b70	0.20542693
139	0x3e352d4c	0.1769306
140	0xbeba8c87	-0.3643534
141	0xbe744bf9	-0.23857106
142	0xbdb54975	-0.088519014
143	0x3e23f8e5	0.16012914
144	0xbe8ab10f	-0.2708821
145	0xbe44c3e5	-0.19215353
146	0xbde68326	-0.11255483
147	0x3eb41555	0.35172525
148	0x3e529a25	0.20566614
149	0x3e888047	0.26660368
150	0x3e730dfd	0.23735805
151	0x3f10a214	0.5649731
152	0xbe966743	-0.29375657
153	0xbec219de	-0.3791036
154	0x3dbde717	0.092725925
155	0x3de19442	0.11014606
156	0x3e442135	0.19153292
157	0x3e268348	0.16261017
158	0x3e263922	0.16232732
159	0x3e60ec05	0.21965034
160	0x3e09bf56	0.13451895
161	0x3f041ac8	0.51603365
162	0x3e738428	0.23780882
163	0x3ec80c9e	0.39072126
164	0x3e1f62fc	0.15565103
165	0x3e0cc454	0.13746768
166	0x3e0312f6	0.12800202
167	0x3e01b43b	0.12666409
168	0x3eaad975	0.33369032
169	0x3e90421d	0.2817544
170	0x3e6e47dd	0.23269601
171	0xbd0e25ac	-0.034703895
172	0x3d164537	0.036687102
173	0xbe6663aa	-0.22498956
174	0xbdcce1b1	-0.10003985
175	0xbe54c3b9	-0.20777787
176	0xbed4ee22	-0.4158793
177	0x3e5966e3	0.21230654
178	0x3e66b0bb	0.22528355
179	0xbe0eeb8e	-0.13957044
180	0xbdb19e23	-0.0867274
181	0x3e8076c2	0.25090605
182	0x3e4cda1c	0.20005077
183	0xbee11bdb	-0.43966565
184	0x3e04b2c2	0.12958816
185	0x3e8a7b13	0.27047023
186	0xbc9b2452	-0.018938217
187	0x3eb35206	0.35023516
188	0xbe4b30c9	-0.19842829
189	0x3e8eb82d	0.2787489
190	0xbe8e0838	-0.27740645
191	0x3de164e3	0.11005571
192	0xbe9973f3	-0.29971275
193	0xbe32c9e6	-0.1745983
194	0x3e4734be	0.19453713
195	0x3d74b4cb	0.05974273
196	0x3e4902fa	0.19630042
197	0x3d279be0	0.04092014
198	0xbcde4114	-0.027130641
199	0x3e53f967	0.20700608
200	0x3da7e2e4	0.08197573
201	0x3d4d01b0	0.050050437
202	0x3bc80c45	0.0061049783
203	0x3df8be7e	0.121457085
204	0x3e16ae44	0.14714915
205	0x3dcabf22	0.09899737
206	0x3e0ccacd	0.13749237
207	0x3e5cc6e5	0.21560247
208	0xbdf0134b	-0.1172243
209	0x3e813c4c	0.25241315
210	0xbc42739a	-0.011868382
211	0xbdbd04b9	-0.092294164
212	0x3ca7a6d7	0.020465298
213	0x3dc11b0e	0.094289884
214	0xbe0020ed	-0.1251256
215	0xbda8d1de	-0.08243154
216	0xbd302910	-0.04300791
217	0x3e6abe3a	0.22924128
218	0xbd9f5ac6	-0.077809855
219	0x3cfa6608	0.03056623
220	0xbd40561e	-0.046957128
221	0x3dc1e23a	0.094669774
222	0xbd6aeec8	-0.057356626
223	0x3cc2e60d	0.023791337
224	0xb9fc71ea	-0.00048150058
225	0x3e2e72eb	0.17036025
226	0x3eb1eafa	0.34749585
227	0x3c8a2071	0.016861172
228	0x3e00d1e7	0.12580071
229	0x3e3aa6c0	0.18227673
230	0x3c7e368a	0.015515933
231	0x3e288ad7	0.16459213
232	0x3d2cc015	0.04217537
233	0xbda3d66b	-0.07999881
234	0xbec85f0b	-0.39135012
235	0x3c8ca102	0.017166618
236	0x3cdfebf4	0.02733419
237	0x3dbed3d4	0.09317747
238	0xbc8337cb	-0.016017815
239	0xbe7f1083	-0.24908642
240	0x3c180789	0.00927914
241	0x3db16353	0.08661523
242	0xbe63a743	-0.22231774
243	0x3d552466	0.052036665
244	0x3e3091a6	0.1724306
245	0xbced316f	-0.028954236
246	0x3e058b9c	0.13041538
247	0x3e08e3e7	0.13368188
248	0xbba824e7	-0.005131352
249	0x3e5feb27	0.21867047
250	0x3e521032	0.2051399
251	0x3b2f26f1	0.0026726092
252	0xbcd22855	-0.025653997
253	0xbcfccde7	-0.0308599
254	0x3d11e93e	0.035622828
255	0x3ce0d965	0.027447412

clf.0.bias f4 [5]
0	0xbe9ffac8	-0.31246018
1	0xbe7f0924	-0.2490583
2	0xbf3e95f2	-0.7444755
3	0x3f7ee22f	0.9956388
4	0xbe1988dd	-0.14993615
