BRCA/models/C3_best_1703021817.pth (torch, 5594 bytes, 2 tensors)

clf.0.weight f4 [5, 200]
00000000: 6b78 673e 2e3d 22bd df38 a63d 6e9c 733c
00000010: 309f 82bc d42e 103e 6fad 853d c3d1 0a3c
00000020: 2cdf 6ebd 9bfb 623e 98b8 cebe 0341 04be
00000030: d1bb 43be ab8f 96bd 892c 0e3e fe93 183d
00000040: 3001 28bc cd77 9a3e e463 d4bd 3ba5 3e3e
00000050: 2112 033e 77a7 813d 5ee3 283e 7a57 193e
00000060: 6ecd 493e 84a1 ffbd de6a 363e 7aea 5a3d
00000070: 9b70 36bd ce3b 1d3e 39a6 dabe dadb 16be
00000080: 59ac cd3c d1dd adbe 0f3d ff3d 7bba c53d
00000090: 7b75 8bbd bed0 1abb 4c77 a5bd b206 2f3c
000000a0: 8b61 6abd 42ae ac3d b18a b03d cd13 66be
000000b0: 5ff3 abbe 734a bf3d 6cab 08bd 6d7c b43c
000000c0: 1e35 65bd 779b d1bc fa87 bb3d d40d 8f3e
000000d0: 6374 103d cdd1 08be 76d1 80bd 6af0 44bd
000000e0: 7f25 4a3e 0dc6 563d bd33 573e b3e4 983d
000000f0: a97f 343d 03f8 2dbe df01 283e 9218 f3bc
00000100: 617b e73b 2ac3 38be 0d87 4bbe 92e4 203b
00000110: 7330 1b3d f0cc 1b3d 3ae8 2a3e 90ec 3bbd
00000120: de00 8dbd 6f03 d1bd 397a 1e3e ab3b eb3c
00000130: bb5d 083e 5c94 423e d21f 263e 9ea4 31be
00000140: 0baa b1bd 8f16 eb3d 8519 ddbe fb4a 1cbc
00000150: 69b1 4f3e f1f1 86be 159c 74bd 1a21 f23d
00000160: 43a8 793d 94a4 2abe dda8 023e be6a 0e3d
00000170: 2ab3 49be 26d9 413d 726a b13d 3632 09bd
00000180: 5b38 64bd 60f1 0e3e a71d d2ba c2fe 6ebe
00000190: 52c1 633e a9fa 80be d169 bf3d 314e 30be
000001a0: c89a 163e 961b f0bc b0c6 ab3d 8fb1 053d
000001b0: 5264 303e be2b 093e 25b8 d13c 6263 5c3e
000001c0: 9388 d0bc ce2f dc3c 337b db3c b210 b3bd
000001d0: a063 b53d e8db a0be 1a6f f5bb e630 4bbd
000001e0: 80bc 16bd 7b48 bfbe 8133 9cbe b48e 0d3d
000001f0: 4be0 35be 1fd2 353c b037 c53e fe61 8f3d
00000200: 5753 c6bd 2d57 99bc a766 e3bd 9d6a 76ba
00000210: 89e3 e83d a273 b9bd 8997 b63c 50dc 78be
00000220: c89c 923d 991b b1bd c89c 60bd cf29 91bd
00000230: 9e5e 98bb 56e0 55bd 2648 a43e d817 953d
00000240: eccf 083e 442b 3bbe 6922 58bd aee5 3ebc
00000250: 6a6f bbbe 449d 53be ea55 673e fbce dbbc
00000260: 5a78 163e 444e bf3d 262c 773e d3c5 d13c
00000270: cc0e 843d 200f 59be c0e5 57bc 1032 653e
00000280: cade 903e 4193 fdbb ced5 10bd 8688 8c3e
00000290: 9ba2 58bc d7dc 0d3e 3efc e53d d7af 14be
000002a0: cb58 37be 53fa 903d c720 2dbe 8044 13be
000002b0: 7a03 963d 1c25 843e 16f5 60bd a77e c73c
000002c0: c837 00bf b5d9 21be f035 1bbe 5661 143d
000002d0: 0954 2d3e 9d68 ebbd 898d 68be 93a4 f1bd
000002e0: 4814 973d b203 57be cad7 3bbd 0747 6a3e
000002f0: 948e 93bd f81d 13be 4b18 82bd 8032 453e
00000300: ed2f 1a3e f557 a53d 3cc6 653e 2c28 7fbc
00000310: e2a8 8ebd 799f 9cbd 8489 913c 63ef e13c
00000320: 6966 ae3d 4733 cebe f3f8 b9bd 9ec6 a63e
00000330: e8ae 4f3d 6c81 423d 94fc abbd b7ac cb3d
00000340: 0b55 f0bc 4b96 523e 64fc c3bd d8c0 833d
00000350: 3a6d a2bd a514 6e3d 0635 163e e246 7bbc
00000360: ee77 b2bc 3637 833d cd5f 6dbd 0812 453d
00000370: d26f 69be 6928 56be c0cc 47bd 7d53 193e
00000380: d13f 003e d9e4 6b3e 23b2 4b3e 3a94 63bd
00000390: bd9d 723e 0d26 143c 9798 2cbe fa7f 563e
000003a0: d2eb cdbd eeb5 653e 42cd 42be df3f 453d
000003b0: 7030 893e 0d97 d73c 14f2 1dbe b4de 03bf
000003c0: abe3 7e3d 145f 0abe 8ced af3d 7802 9bbd
000003d0: ac27 c8bc e314 adbd 8c16 893e 131f 31be
000003e0: 37ff a63e dbde 99bd 99e8 3fbe 3df2 84be
000003f0: b6b3 343e e32f c8bb 47d9 cd3d ad32 bfbd
0.2260453 -0.039609127 0.08116316 0.014868839 -0.015945047 0.14080364 0.065272205 0.008472863
-0.058318302 0.22166292 -0.4037521 -0.12915425 -0.19114615 -0.07351621 0.13884176 0.03725051
-0.010254189 0.30169526 -0.10370615 0.18617718 0.12799884 0.063307695 0.16492984 0.14974776
0.19707271 -0.124819785 0.17814204 0.05344627 -0.044540983 0.15354845 -0.42704943 -0.14732304
0.025106596 -0.33958295 0.12462818 0.09654709 -0.06809517 -0.0023622955 -0.08079395 0.010682749
-0.05722193 0.084316745 0.08620203 -0.22468491 -0.33584115 0.09340372 -0.033366606 0.022031987
-0.05595886 -0.025586827 0.09156795 0.27940238 0.035267245 -0.13361283 -0.062899515 -0.04808084
0.19740866 0.05243497 0.2101583 0.07465496 0.04406706 -0.1698914 0.16406964 -0.029674802
0.0070642685 -0.18043199 -0.19875737 0.00245503 0.037888 0.03803724 0.1669015 -0.0458799
-0.06884931 -0.10205733 0.15476312 0.028714975 0.13317005 0.19001907 0.16223076 -0.17347953
-0.08675011 0.11478912 -0.43183532 -0.009539361 0.2028252 -0.26356462 -0.059719164 0.1182272
0.060951483 -0.16664344 0.12759729 0.034769766 -0.19697252 0.04732623 0.08662881 -0.03349515
-0.055717807 0.13959265 -0.0016030566 -0.2333937 0.22241715 -0.2519124 0.09346355 -0.17217328
0.14707482 -0.029310029 0.08387506 0.032640036 0.17225769 0.13395593 0.025600502 0.21522287
-0.025455749 0.026878264 0.026792144 -0.08743419 0.088568926 -0.31417775 -0.007490051 -0.04960718
-0.03680086 -0.37359986 -0.30508044 0.03455992 -0.17761342 0.01109746 0.3851905 0.070011124
-0.096838646 -0.018718326 -0.11103564 -0.0009400042 0.11371524 -0.09055258 0.022289054 -0.24302793
0.0715881 -0.08647842 -0.05483702 -0.070880525 -0.004649951 -0.052215897 0.32086295 0.072799385
0.13360566 -0.18278223 -0.05276719 -0.01165144 -0.3660844 -0.20665461 0.22591367 -0.026832094
0.14694348 0.093411 0.24137935 0.025607025 0.06448135 -0.21197176 -0.013177335 0.22382379
0.28294975 -0.0077385013 -0.03536015 0.2744791 -0.013222362 0.13853775 0.11229752 -0.14520203
-0.17904966 0.070789956 -0.16907035 -0.143816 0.07324882 0.25809562 -0.054921232 0.024352385
-0.50085115 -0.15805705 -0.15157294 0.03622564 0.16926588 -0.11494563 -0.22710241 -0.11798968
0.07376915 -0.20997503 -0.04586009 0.22878657 -0.07204929 -0.14366901 -0.0635229 0.19257545
0.15057345 0.08073417 0.22438902 -0.015573543 -0.069658056 -0.076476045 0.017765768 0.027579969
0.08515627 -0.40273497 -0.090806864 0.32573408 0.050703913 0.047486708 -0.08397785 0.09945052
-0.029337427 0.20565145 -0.09569624 0.064332664 -0.079309896 0.058125157 0.14668664 -0.015336724
-0.021785703 0.06407015 -0.05795269 0.0481129 -0.22796562 -0.20913853 -0.04877925 0.14973255
0.12524344 0.23036517 0.19892173 -0.05556128 0.23692985 0.009042275 -0.16855083 0.20947257
-0.10054745 0.22432682 -0.19023612 0.048156615 0.26794767 0.026317144 -0.15424377 -0.51511693
0.06222884 -0.13512832 0.0859023 -0.0756883 -0.02443298 -0.084512495 0.26775014 -0.1729701
0.32616588 -0.075132094 -0.18741073 -0.25966063 0.1764668 -0.006109224 0.10051208 -0.093358375

clf.0.bias f4 [5]
00000000: 05a9 e1bc 6b91 35bd 06af 9cbb 97ca a83c
00000010: 819a ebb9
-0.027546415 -0.044328135 -0.0047816066 0.020604415 -0.00044937807
