BRCA/models/C3_best_1702938751.pth (torch, 5594 bytes, 2 tensors)

clf.0.weight f4 [5, 200]
000000 ca af 9d 3c 5a 35 92 3d 53 3e 48 3b a5 1d 24 be
       0.019248862 0.07139082 0.0030554726 -0.16026933
000010 dd 51 6a 3d 66 99 60 bd 22 7e b7 3d 5a 4c 0e bd
       0.057206977 -0.054833792 0.08959605 -0.034740783
000020 1a de c8 bc d5 8e 78 3c 34 d3 bd 3c 4d c8 0d be
       -0.024519969 0.015170773 0.023171999 -0.1384594
000030 2a 37 80 3d 93 a8 83 3b 79 4b 56 3c b8 09 8f bd
       0.06260522 0.0040178983 0.0130795175 -0.069842756
000040 67 53 b8 3d 96 49 eb bd f6 9c d6 bc 99 b7 2c 3e
       0.09000283 -0.11488645 -0.026197892 0.16866912
000050 c3 18 bc 3b 12 ce 88 bc a1 9e a7 bd 68 4f 59 3d
       0.0057402565 -0.016699824 -0.08184553 0.053054243
000060 1a ff 23 be a0 74 29 bd d4 fb 89 bd 56 cf e3 bc
       -0.16015282 -0.041370988 -0.067374855 -0.027808826
000070 b2 dc ce 3d c3 8c aa ba 63 a0 f3 3d 19 a0 56 bd
       0.10100688 -0.0013011921 0.11895826 -0.052398775
000080 3a 3c 13 bd f7 7b ec 3c 8b a9 03 3d c7 fe 20 3e
       -0.03594611 0.028867705 0.03214411 0.1572219
000090 1b f6 22 3d eb 33 66 3b 20 2c 76 3d 71 4f db 3d
       0.039785486 0.003512616 0.060100675 0.107085116
0000a0 c1 c4 ce 3c 6b 6c 1f 3d 2b 91 9d 3c 3a a5 98 bd
       0.025240304 0.038921755 0.01923426 -0.074533895
0000b0 d5 50 c6 bb 88 af 25 3d b2 1b 31 3e 2e 3b 81 bd
       -0.0060521164 0.040450603 0.17295721 -0.06310116
0000c0 6b 05 69 3d 0c f9 65 bc 44 2e 91 bd b3 11 c5 3b
       0.056889933 -0.014036428 -0.070889026 0.006014073
0000d0 a1 3e 54 bd 3c 54 06 3d d2 d1 22 bd 34 8a 58 bd
       -0.05181754 0.032795176 -0.03975088 -0.052866176
0000e0 89 94 6d 3d bd ca 20 3d bf bb 98 3c 3a 75 ef 3d
       0.058002982 0.039255846 0.018644212 0.11692281
0000f0 ec 5d 76 3b 65 35 29 bd ab 05 8b 3c c8 0c 89 bd
       0.0037592603 -0.041310687 0.016970476 -0.06691891
000100 02 18 91 3c 5a 70 ea bc 47 83 82 3c 12 b4 21 bd
       0.017711643 -0.028618027 0.015931739 -0.03947837
000110 5f b8 04 3d 6e b0 dd bd 79 f2 db 3c ff d8 c8 3c
       0.032402392 -0.10824667 0.026849018 0.024517534
000120 c8 6a 24 3c 88 63 21 3d 16 b9 42 3e c4 4e b0 3d
       0.010035224 0.03940156 0.19015917 0.08608773
000130 5f 9a dd 3c 4e 1c 94 3d 8d 9e 69 3d 8a d5 9e 3d
       0.027051149 0.07231961 0.05703597 0.07755573
000140 d3 d5 eb 3d 5d 1f 5a bc 57 e4 ad 3c 57 5c b4 3d
       0.11515393 -0.013313142 0.021227045 0.08806675
000150 dc 26 85 3d bf 6d 64 3d ec 6f 1d ba c0 34 5f 3d
       0.065015525 0.055768725 -0.00060057524 0.054493666
000160 fa 7f 73 3d dc cd 83 3d b1 1f a2 3c c5 55 76 3d
       0.05944822 0.06435749 0.019790502 0.06014039
000170 9f 8e bb bd 00 ea 53 3d 86 2b 3b bd 23 12 6f 3b
       -0.09158062 0.05173683 -0.045695804 0.0036479316
000180 e6 8a 1b 3b 06 85 01 3e ab b1 df 3c 7d f1 4c 3d
       0.0023733913 0.126484 0.027306398 0.05003499
000190 8f aa 5c 3e e4 4c f8 3c a1 f8 26 bd da 63 f7 bc
       0.21549438 0.030310102 -0.040764455 -0.03019898
0001a0 c2 ef 8c 3d 74 e7 c0 bd a6 e6 83 3d dd 99 04 3e
       0.06881668 -0.09419146 0.06440477 0.12949319
0001b0 34 86 dd 3c 1d f4 38 3e 56 9f ca 3c 05 ef 06 bc
       0.027041532 0.18061872 0.02473418 -0.008235698
0001c0 52 ec 6e 3d 63 47 f3 bd 70 f2 4c bc 3e 52 01 3c
       0.05833084 -0.1187885 -0.0125089735 0.007893143
0001d0 ec 09 75 bc 15 b0 58 3d 95 df 07 be d5 5c ec 3d
       -0.014955979 0.0529023 -0.13268884 0.11541144
0001e0 4c 6a 93 bc e6 fd 09 3c ac ee d0 ba aa 0b b2 bd
       -0.017995022 0.0084223505 -0.001594027 -0.08693631
0001f0 0b a0 84 3d 7a e1 c9 3d b1 95 f6 bd 3a 48 3f 3c
       0.06475838 0.09857459 -0.1204027 0.011674935
000200 13 3c 20 bc 8a 02 5f bd 94 cc a7 3d c1 26 b3 bc
       -0.009779948 -0.05444578 0.08193317 -0.021869065
000210 dc d2 95 bd af 88 81 bd e8 c8 30 3c ec 5e 10 3e
       -0.07315609 -0.063248985 0.010790087 0.1409871
000220 cc 5e 37 3d 63 9a b8 3d 6e d9 c5 3d b1 09 a1 3d
       0.04476814 0.09013822 0.09660612 0.078631766
000230 4f 55 a6 bc 6f 8f b0 3d e6 4c 15 3d 32 05 ee bd
       -0.02030435 0.08621108 0.03645029 -0.11622085
000240 fb 4f f7 3d 34 14 8d bc a6 6c 67 bd 87 9b 88 bc
       0.12075802 -0.017221548 -0.0565001 -0.016675724
000250 31 2d 52 3d db 47 99 bc e2 16 b2 3d 99 f8 58 3a
       0.05131263 -0.018711021 0.08695771 0.000827679
000260 bd 3e 9c 3b 0b 2e 9c 3d fc 0f f1 bd c1 6e 81 3c
       0.004768221 0.076259695 -0.11770627 0.015799882
000270 fb 1d 7e 3d 64 9d 3b bc 17 d1 06 3e 80 4c a2 3d
       0.06204031 -0.011451099 0.13165699 0.079247475
000280 3e b7 48 bc 68 0c 5d 3d fe 05 3a 3d 28 14 55 3d
       -0.01225072 0.05396691 0.04541587 0.052021176
000290 19 d0 46 bc 0b 95 89 bc 8e 56 8f bd 36 97 61 bd
       -0.012134575 -0.016794702 -0.06998931 -0.055075847
0002a0 8f a7 3c be 06 9a 4a 3c d7 26 50 bc c4 ee 71 bd
       -0.18423294 0.012365824 -0.012704573 -0.059065595
0002b0 1d 28 2a 3d f3 58 90 bb b6 d1 dc 3d 18 16 84 3d
       0.04154216 -0.004405135 0.10782187 0.064495265
0002c0 92 4a 3d 3d 2b 3b 02 bb 5f 06 81 3d c5 c4 85 bc
       0.046213694 -0.0019871693 0.06300043 -0.016329179
0002d0 46 dc 20 3d 00 4f 8b bc 0f 8e 8d 3d eb dc 41 bd
       0.03927257 -0.017005444 0.06911861 -0.047329824
0002e0 68 b3 ba 3c 41 24 0f be 2f 77 b8 3c af 9e 7e bd
       0.022790626 -0.13978674 0.022517769 -0.06216305
0002f0 d1 54 26 3d 84 0f fd 3c f6 fe 1a 3d c9 b5 4f 3d
       0.04060823 0.030891187 0.037840806 0.050710473
000300 da 38 d7 bd d5 e8 7f bd 51 41 4d bd b4 18 c7 3d
       -0.105088905 -0.062477905 -0.05011112 0.097215086
000310 e8 ac 25 bd d1 83 ae bc 65 a1 8c 3d c1 08 f0 3c
       -0.0404481 -0.02130309 0.06866721 0.02930105
000320 ba e0 13 3e da 8e f0 3d 95 52 4f 3b e9 a4 05 3d
       0.14441195 0.11745997 0.0031634916 0.032627974
000330 0a b4 76 3d d8 56 27 3d d7 cd 6a bc 44 79 0e be
       0.060230292 0.040854305 -0.014331303 -0.13913447
000340 2c cf 81 3b d4 16 9c 3c dd e6 8e 3d a6 de 03 3d
       0.0039614644 0.019053854 0.069776274 0.032194756
000350 8c d5 aa 3c d5 fc 60 3d 8b d0 24 3c f2 60 08 3b
       0.02085378 0.05492862 0.010059486 0.0020809737
000360 48 03 fe 3d 1f c4 58 bd 3d 53 46 bd 6f 45 5d 3e
       0.124029696 -0.05292141 -0.048419226 0.21608518
000370 51 f2 2f 3d d9 88 fd 3d 04 c9 6b 3b 01 35 45 3c
       0.0429557 0.12379617 0.003597797 0.012036563
000380 6c ab 80 bd 50 cc fd 39 3a 40 10 bd 5b 11 45 3d
       -0.06282696 0.00048408145 -0.0352175 0.048112255
000390 0f 73 9a 3d 00 a2 24 3d 68 24 24 be 97 78 25 bd
       0.07541477 0.040193558 -0.16029513 -0.040398207
0003a0 da 72 98 3d ee 8e 90 3d 9b 4a 03 3e 4f 90 8f bd
       0.07443781 0.07058512 0.12821428 -0.070099466
0003b0 99 90 e9 3b 2e 88 a7 bb 9e 0d 34 3c fc e3 f9 bd
       0.007127833 -0.0051126694 0.010989575 -0.12201688
0003c0 14 f7 97 3d a9 d0 49 3d ea f0 f9 3d 64 6e a8 bd
       0.07420173 0.04927126 0.12204154 -0.0822418
0003d0 be 85 3e bd 71 b2 24 3d ba 84 1c 3e de 6d ca 3b
       -0.046514265 0.040209237 0.15285006 0.006177648
0003e0 df 1b 6f 3d fc d2 8d 3d 6b 06 4a bd 31 be a9 3d
       0.05837619 0.06925008 -0.049322527 0.08288229
0003f0 c1 5c 58 3d df b1 c5 3d 92 68 96 3d 63 56 c2 bd
       0.052822832 0.09653067 0.07344164 -0.09489133

clf.0.bias f4 [5]
000000 09 7e f7 bd a4 84 07 be 4b e9 26 be 10 01 5a 3e
       -0.12084586 -0.13234192 -0.16299932 0.21289468
000010 7b 6b 6b bd
       -0.05747555
