BRCA/models/C3_best_1703022083.pth (torch, 5594 bytes, 2 tensors)

clf.0.weight f4 [5, 200]
0.10195497 0.23425376 0.17320375 0.14941064 0.16290799 0.14616099 -0.09241465 0.05777695
-0.07067667 0.031577688 0.0015284062 0.06932183 0.1261499 -0.042446885 -0.1382698 0.0051148986
0.16913316 -0.006750188 0.106182136 0.101516284 -0.04722952 0.032801487 0.0054046316 -0.0131429825
-0.12613408 0.16588907 -0.03276369 0.09540592 0.14260978 0.082440674 -0.082767345 -0.013833902
-0.058817267 0.030877689 0.11202922 0.11250105 -0.023090435 0.0031740752 0.100549996 0.13531312
0.14785379 -0.13867505 0.20656878 0.15047826 -0.09406707 0.034623876 -0.003211195 -0.036419988
-0.028513756 0.06047033 0.23741989 -0.15539207 0.17195587 0.118901655 -0.08209532 0.02029402
0.2670815 0.115630925 -0.030173553 0.066108756 0.014673755 -0.07209295 0.056052905 0.27728668
0.023869466 0.28201762 0.13509814 0.029547531 0.08614008 -0.067327455 -0.12262169 0.17973596
0.10948695 0.07769694 0.24385771 0.027763702 0.022059783 0.07384189 -0.035180446 -0.03795683
0.016169176 0.0014004882 0.09629518 0.3754663 0.08852678 -0.09544203 -0.050727956 0.1317554
0.12265733 0.09230952 0.13817334 0.119740985 -0.03363871 0.023725688 0.10355999 -0.027532991
-0.0076211155 -0.19988582 0.0493806 0.037734266 -0.012336199 0.010171526 -0.08827222 -0.062038258
0.12749666 0.023185156 0.07050253 0.07724616 0.16108742 0.1322858 0.09333923 -0.032323994
-0.009907448 0.031281926 -0.058849968 0.1122704 -0.062626496 -0.031350672 -0.01263708 0.009902069
0.025944049 -0.0429455 -0.01127713 0.050337866 -0.11531183 0.09562767 0.08232296 0.10151697
-0.04008617 -0.11140796 0.09276658 -0.08736051 0.06431937 0.090447165 0.12336642 -0.14382108
0.00995256 0.10019197 0.07949196 -0.017488249 -0.047949366 0.11829723 -0.018558074 0.27572086
0.12748739 0.19220304 -0.06073615 0.17915334 0.047417432 -0.11626428 0.043087445 0.043263137
0.080976255 0.14422065 0.06288223 0.11798558 -0.0042813895 0.02638313 0.017480906 0.09677098
0.03535018 0.03711024 0.046976253 0.03122817 -0.038079306 0.2732993 0.067563824 -0.00027246025
0.010040178 0.0025643266 0.045226242 0.036047418 0.13797374 0.20541242 0.094108716 0.02759477
-0.207387 0.026381908 0.054075815 0.14269687 0.08995216 0.12990217 0.06252773 0.048734896
0.2380859 0.13842681 -0.01880397 -0.028023815 0.108215876 0.262261 -0.19345699 0.15639623
0.21796432 -0.050968725 -0.05897446 0.012646277 0.12090136 -0.09761869 0.22170714 0.18955255
-0.044069488 0.08709148 -0.1006348 0.014985989 0.0038422234 -0.037586454 -0.14051798 -0.07057086
0.07358549 -0.047733787 -0.08995721 0.11694005 -0.08198397 0.23580678 0.10773021 0.1891995
0.14697053 -0.045738067 -0.017370269 0.06777323 -0.13024472 0.16759783 0.18748227 0.10857611
-0.03821545 0.07401286 -0.018974721 -0.14984804 -0.06828651 -0.0018604549 0.16351742 -0.014876807
0.3125953 -0.012452375 -0.10437484 -0.16792087 -0.007190934 0.22361077 -0.068188444 -0.08066552
-0.010841906 -0.30626056 -0.0336295 -0.08650782 0.00084054115 -0.03993698 -0.030514227 -0.17581582
0.14374284 -0.060872443 0.014330003 -0.07377403 -0.07340843 -0.08937898 0.3269541 -0.050998036
00000000: c4cd d03d 38e0 6f3e 535c 313e 1aff 183e
00000010: 5ad1 263e 3aab 153e e443 bdbd 86a7 6c3d
00000020: eebe 90bd 9b57 013d cd54 c83a 9bf8 8d3d
00000030: 702d 013e c9dc 2dbd 9996 0dbe e19a a73b
00000040: 3e31 2d3e ae30 ddbb 0576 d93d c5e7 cf3d
00000050: be73 41bd da5a 063d 5619 b13b aa55 57bc
00000060: 4b29 01be d3de 293e 3833 06bd 2e64 c33d
00000070: 4c08 123e a8d6 a83d ed81 a9bd 97a7 62bc
00000080: 60ea 70bd 35f3 fc3c 936f e53d f366 e63d
00000090: 2728 bdbc 2504 503b 28ed cd3d 868f 0a3e
000000a0: fc66 173e d500 0ebe c486 533e f916 1a3e
000000b0: 3ca6 c0bd c4d1 0d3d ea72 52bb 202d 15bd
000000c0: ae95 e9bc bdaf 773d 331e 733e 191f 1fbe
000000d0: 3315 303e b682 f33d 9721 a8bd a53f a63c
000000e0: e8be 883e e8cf ec3d 872e f7bc 0764 873d
000000f0: 306a 703c 78a5 93bd bb97 653d 85f8 8d3e
00000100: e689 c33c 9d64 903e 2b57 0a3e aa0d f23c
00000110: 366a b03d fae2 89bd 1521 fbbd b40c 383e
00000120: b23a e03d 931f 9f3d d6b5 793e b470 e33c
00000130: b8b6 b43c 6b3a 973d 5f19 10bd 9f78 1bbd
00000140: 3875 843c 9690 b73a 6836 c53d 1e3d c03e
00000150: 874d b53d 1c77 c3bd 1ec8 4fbd e3ea 063e
00000160: c433 fb3d c60c bd3d 507d 0d3e c33a f53d
00000170: bec8 09bd 605c c23c 4317 d43d de8c e1bc
00000180: 8dba f9bb deae 4cbe 5043 4a3d 3f8f 1a3d
00000190: c51d 4abc 79a6 263c 11c8 b4bd d41b 7ebd
000001a0: 7c8e 023e ccee bd3c a163 903d 3c33 9e3d
000001b0: 1af4 243e ee75 073e a328 bf3d 2a66 04bd
000001c0: d952 22bc 7a21 003d aa0c 71bd 06ee e53d
000001d0: 5242 80bd 9069 00bd c10b 4fbc 4a3c 223c
000001e0: 9d88 d43c 9fe7 2fbd b6c3 38bc 142f 4e3d
000001f0: 9c28 ecbd 71d8 c33d f198 a83d 21e8 cf3d
00000200: 6531 24bd db29 e4bd 68fc bd3d 11ea b2bd
00000210: e0b9 833d 5d3c b93d 89a7 fc3d d545 13be
00000220: 1010 233c 7331 cd3d aecc a23d 8443 8fbc
00000230: 8e66 44bd d145 f23d 1a07 98bc 492b 8d3e
00000240: 0e8c 023e e0d0 443e 78c6 78bd f973 373e
00000250: c838 423d f81b eebd 767c 303d b034 313d
00000260: e1d6 a53d 94ae 133e 66c8 803d 6ca2 f13d
00000270: e64a 8cbb 6f21 d83c 1e34 8f3c dd2f c63d
00000280: 5acb 103d e800 183d 2c6a 403d 38d2 ff3c
00000290: 0cf9 1bbd e3ed 8b3e e75e 8a3d ffd8 8eb9
000002a0: 8f7f 243c 430e 283b 273f 393d 75a6 133d
000002b0: fd48 0d3e a257 523e 12bc c03d 6d0e e23c
000002c0: 425d 54be df1e d83c 9a7e 5d3d 211f 123e
000002d0: d738 b83d 1305 053e 8a0e 803d 3e9e 473d
000002e0: cacc 733e c2bf 0d3e c90a 9abc 3392 e5bc
000002f0: 49a0 dd3d 1347 863e 9719 46be 5526 203e
00000300: 0a32 5f3e 95c4 50bd 348f 71bd 5532 4f3c
00000310: 229b f73d 4fec c7bd 3207 633e 101a 423e
00000320: 3582 34bd 055d b23d 9e19 cebd cb87 753c
00000330: d0cd 7b3b 41f4 19bd f2e3 0fbe 7487 90bd
00000340: fdb3 963d 8184 43bd 7c3b b8bd 447e ef3d
00000350: 36e7 a7bd 5577 713e a8a1 dc3d 84bd 413e
00000360: 717f 163e d757 3bbd 184c 8ebc b1cc 8a3d
00000370: df5e 05be c49e 2b3e 5afb 3f3e 275d de3d
00000380: ce87 1cbd 0e94 973d e070 9bbc c471 19be
00000390: ccd9 8bbd 82da f3ba 1c71 273e dabd 73bc
000003a0: 7e0c a03e 0c05 4cbc 7ac2 d5bd 73f3 2bbe
000003b0: eda1 ebbb 39fa 643e 62a6 8bbd f733 a5bd
000003c0: 40a2 31bc 2fce 9cbe 16bf 09bd 032b b1bd
000003d0: c357 5c3a f594 23bd f9f8 f9bc 1009 34be
000003e0: 5331 133e 6255 79bd 64c8 6a3c d716 97bd
000003f0: 2957 96bd 540c b7bd 8766 a73e 51e3 50bd

clf.0.bias f4 [5]
0.11446991 -0.045229893 -0.46815988 0.7201428 -0.4199952
00000000: 336f ea3d fb42 39bd a7b2 efbe 475b 383f
00000010: 9c09 d7be
