BRCA/models/C_best_1703022083.pth (torch, 67616 bytes, 4 tensors)

model.0.weight f4 [125, 125]
00000000: 62fd 673d df31 5abe 298d f9bd c729 00bd
00000010: 3555 41bd b108 09be 4a11 14bf 1c95 2cbd
00000020: a088 02bd 6a04 6fbe de55 e33b 7a32 2cbe
00000030: c011 09be 3713 97bd 0bd8 25be 2c22 163e
00000040: d4a1 2ebd abf3 89be 8ff9 863e 8491 bfbd
00000050: 1b41 113e 62f7 28be 879e ccbd 5ce3 32be
00000060: da85 9dbd 4f41 15be dbcf 3ebe cd64 1dbe
00000070: f2d1 2cbe 6d91 e5bc 25f0 10be d3ca 1bbf
00000080: 0e89 09be c294 39be d90c 76be 269d 31bc
00000090: d393 8abd 9076 81bd 8766 0e3b 4c87 11bd
000000a0: c4b1 af3b 6631 b9be d15e 82bd 6245 823d
000000b0: 409e e83c 4869 a0bd 6b74 b8bd 541e 843c
000000c0: a24a 66be 3312 483d 8834 583d 2c35 30be
000000d0: 2364 0cbd 1510 973c e27d 92bd a9bf 3abe
000000e0: d520 06bf 0967 05be fd21 95bc 3a6b 7dbd
000000f0: e9af 83bd f946 583d 06d8 dcbd 2fb7 a23c
00000100: 6554 1dbe f293 443c 5d23 d5bd dafd 55bc
00000110: 54da aa3d 4105 113d 08c0 68bd a56d 65bd
00000120: a549 10be 3cf2 51bb a1ab 1ebe a1ad 313e
00000130: 1eb7 0f3e 1dad 37bd 0f4f 93bb de83 063d
00000140: 042d 373d b6c1 77bf 2db6 213e 4e19 513e
00000150: 94b6 29bf 11e4 413d cd99 ab3d 1eea e73b
00000160: 5bee f43a 4532 9c3d d5cf 9a3d 2318 283e
00000170: 2f4d 08be e8bc c73d dc14 bc3d 46e0 86bc
00000180: 8f6d b73c 418c aebc 281c fd3c e08c 643d
00000190: 2aa1 033c 29ae 10be 4a10 1fbc 8bf7 9abd
000001a0: 7a00 40bc 0344 94bd ad56 d4be 7c0e 8fbd
000001b0: 4398 78be 0be1 12bc e24b 2dbe 304b 943d
000001c0: 2977 01be e26b 0dbe d3bb a2bd e483 36bd
000001d0: e8e3 0e3d 2e4a b6bc d5ad 49bd f8cf 59bc
000001e0: ab1e 5cbd f3ef 2cbe c7a0 9abd 2a4a 143e
000001f0: f51e 56be ec73 33bd 235d 193c a28f 0a3e
00000200: 428d 0c3d 961b 483d ba1e 77bc 8785 10bf
00000210: a987 913d 9e61 5cbc 9f06 c1bc 632c 2f3e
00000220: 8c7b 863d 961c bd3d 5299 ab3d aa8d 09bd
00000230: 914b 423e 0c70 1d3e a927 8ebd bdd9 44bd
00000240: 575c 3d3e b6a8 25bc 81e7 bebd e110 3d3e
00000250: 7e94 943d cab3 073e 6e52 d23d 68d7 b2be
00000260: b959 323d 0fa5 bc3e f812 0f3e 8050 05be
00000270: feff acbe 28fb a03d 6c99 86bc 28f9 b53d
00000280: 305f 943d a76b 2ebb 880c d13d f61f 81bc
00000290: b7b8 b33e 8979 043e 31c0 a4bd 8a2c e73d
000002a0: 58d2 49bd 4b9f 8dbd 9cd1 3d3e a5d0 4dbc
000002b0: e6b3 dd3b bdc0 9b3d 010d 1f3e 3fd2 7dbd
000002c0: 4711 2ebe d5d4 ae3d d0bb 083e 3b35 c33d
000002d0: 4d67 893d 8999 03bf 9754 9b3c e63f 3c3d
000002e0: 7954 f0bd ae5f bb3d 695b 03be 00c4 3a3e
000002f0: 1b83 73bd e6cd 03be 16d8 423e 4cb7 a13d
00000300: cb67 b63c 240e 803d bcee 0f3d 1151 c93d
00000310: e69b a7bd c434 95bc 4e1d 803d f4e0 d23d
00000320: ffac 943d e32a 273e b469 b93d 387f 063d
00000330: 49bf 3d3e 0e1a 0f3e fa2e 9bbe f391 8f3d
00000340: dec1 543e 4949 e73c 212d 5b3d ba96 2ebc
00000350: e77a ff3c 731a 033e 0c23 093c c4d4 1e3e
00000360: 778b 61bd 7338 803d 7fb4 573e 3b4a 0c3e
00000370: c14a 8c3d a991 6c3e f3e6 803d 69ef 093e
00000380: 4cae 98bd 47f1 a23e 550d babe 7b8c 61bc
00000390: 21bf b13d 8794 143d 4cea b83d abf3 a1bf
000003a0: 6f5a 613e b022 073d 1761 523e 1e39 e43d
000003b0: 2e27 cd3d b49b 87bc c5c4 c43d d70c 093e
000003c0: d19c b93d 21f3 68be 8b23 15bd cf60 1bbd
000003d0: 04ef 0f3e dde5 b43d c9dc 31be c6bc dc3d
000003e0: da79 cabc c2e5 1d3e 67f6 ecbc a47d f2bd
000003f0: 858d aabd 3558 dbbd d22d bebd 62cc 7fbc
0.05663813 -0.21308087 -0.12185127 -0.031289842 -0.0472004 -0.13382222 -0.5783888 -0.04213439
-0.031868577 -0.23341528 0.0069377264 -0.1681613 -0.13385677 -0.07376712 -0.16195695 0.14661473
-0.0426348 -0.26943716 0.26362273 -0.09353927 0.14184992 -0.16500619 -0.09991174 -0.17469543
-0.07691546 -0.14575695 -0.18633978 -0.15370484 -0.16876963 -0.028023446 -0.14154108 -0.6085636
-0.13431188 -0.18123153 -0.24028338 -0.01084069 -0.067664765 -0.06321442 0.0021728592 -0.03552942
0.0053617675 -0.361705 -0.06365741 0.0636089 0.028395772 -0.07832581 -0.0900658 0.016127743
-0.22489408 0.04884548 0.052784473 -0.17207783 -0.034275185 0.018440286 -0.071529165 -0.18237175
-0.5239385 -0.13027586 -0.018204683 -0.061869837 -0.064300366 0.05280206 -0.10783391 0.01986274
-0.15364225 0.011998164 -0.10407136 -0.013061011 0.08342424 0.0354054 -0.05682376 -0.05601277
-0.14090593 -0.0032035252 -0.15495159 0.1735139 0.14034697 -0.044842828 -0.0044955085 0.032840602
0.044720665 -0.96779954 0.15792151 0.20419809 -0.6629422 0.04733664 0.083789445 0.0070774695
0.0018686758 0.07626776 0.07559172 0.16415457 -0.13310693 0.09752828 0.09183666 -0.016464364
0.022391109 -0.021307113 0.030897215 0.05579841 0.00803403 -0.14128937 -0.009708473 -0.07566746
-0.011718864 -0.07239535 -0.41472378 -0.069851846 -0.24276833 -0.008964787 -0.16923478 0.072409034
-0.12643112 -0.13810685 -0.07945981 -0.044559374 0.034885317 -0.022252169 -0.049238045 -0.0132942125
-0.053740185 -0.16888408 -0.07550197 0.14481416 -0.20910247 -0.043811724 0.009360584 0.13531354
0.0343144 0.048854433 -0.015083009 -0.56453747 0.07105953 -0.013451008 -0.023562727 0.17106776
0.065665334 0.09233968 0.08378853 -0.033582367 0.18974139 0.15374774 -0.06941158 -0.048059214
0.18492256 -0.010111025 -0.093214996 0.1846347 0.07254885 0.13252178 0.102696285 -0.34929967
0.043542597 0.3684468 0.1397208 -0.1301899 -0.33789057 0.07860404 -0.01643058 0.088854134
0.07244718 -0.0026614459 0.10207468 -0.01576231 0.35101864 0.12936987 -0.0804447 0.11287792
-0.049272865 -0.06915148 0.18536991 -0.012561952 0.0067658303 0.07605121 0.15532304 -0.061968084
-0.16998778 0.08536688 0.13352895 0.09531637 0.06709156 -0.5140615 0.018961234 0.045959376
-0.11734862 0.09149109 -0.12827839 0.1823883 -0.059451204 -0.12871513 0.19027743 0.07896289
0.02226629 0.06252697 0.035139784 0.09829915 -0.08184032 -0.018213637 0.062555894 0.10296813
0.07259559 0.16324954 0.090533644 0.03283617 0.18530001 0.13974783 -0.30309278 0.070102595
0.2077708 0.028233187 0.053509835 -0.010656053 0.031186534 0.12803058 0.008370172 0.15510851
-0.055064645 0.06260767 0.21064948 0.13700192 0.06850196 0.2310244 0.0629405 0.13470234
-0.074551195 0.31824705 -0.36338297 -0.013766403 0.08679033 0.03627446 0.090290636 -1.2652487
0.22007154 0.032992065 0.2054485 0.11143707 0.100172386 -0.016553737 0.09607843 0.13383804
0.090631135 -0.22748996 -0.03641085 -0.03793412 0.14056021 0.088329054 -0.17369379 0.10778193
-0.024716306 0.15419677 -0.028926088 -0.1184037 -0.08327774 -0.107101835 -0.09286083 -0.0156126935

model.0.bias f4 [125]
00000000: 897c 0e3e d89a 463e 4fda 373e 774e 2bbe
00000010: 73dd d33d d2ec 02be 5b85 04be 4afa 2ebe
00000020: ebdc b93d b611 2b3e d2af edbc 6b8a 1c3e
00000030: e772 153e 64b0 1bbe e49c 47be 1faa 01be
00000040: 0c9e 233e 09f0 233e 3d20 353e 0956 58bd
00000050: d86a e43d 9e26 3d3e eb50 b9bd b508 f13d
00000060: 864e 24be d884 e3bd b980 f0bd 580b 613d
00000070: 2535 d8bd d243 203e 285c 06be bf10 bebd
00000080: 9236 213e 71e1 00be 74c3 00be 1b05 d93d
00000090: 8be2 2f3e 776d 6ebd c164 173d 014c 4e3e
000000a0: 1985 0a3e 9035 1a3e 8515 44be 1a32 de3d
000000b0: 6fd0 923c 258d 293e 1d3b 963d 3a29 0a3e
000000c0: 5a9f 7fbd 3c9f c0bd df66 363e cdea 823b
000000d0: 1b3e 373e 93a0 293d b23e 24be 4fff 07be
000000e0: 12c9 a7bd 15ac 353d be9d 263e 3685 28be
000000f0: 34c9 e53d f005 353d f073 a73c 36df d0bd
00000100: 0eaa b5bd 0918 133e 244f e5bd 835a 213e
00000110: 73df 253e 17e4 853d 6f76 0cbe 7a2f ffbc
00000120: ba55 63bd 14b1 253e 9d8d 323e 4e27 5c3e
00000130: ff77 033e 750b 2bbe 8bf7 cf3d dc0a bfbd
00000140: 08e0 1f3e b21f b0bd a1ef 443e 4177 c73d
00000150: 068c cd3d b884 38be 868e ebbd e4af 263e
00000160: 59a9 e3bd 79e9 1b3e bda4 c03c 3d24 0bbe
00000170: f70c 313e cde3 c8bd 4c1f d6bd c5a9 acbd
00000180: e48f 1a3e 3924 403e 951f 06be 58d4 213e
00000190: 714e 133e fdfd fcbd 0aa6 113e 473c 273e
000001a0: 78ce 3bbe 0841 c53d e344 39be 5e0f 3abe
000001b0: 0add ccbd 16a4 583d ebfb 703d 8aad a7bd
000001c0: 8392 2b3e f241 333e 9dd5 17be 36b6 403e
000001d0: 8cfb 2d3e 787b 373e 752c ab3d 61a7 18be
000001e0: bdbe fe3c cbe6 d43d d373 c2bc 1de0 39be
000001f0: 2df4 0d3e
0.13914694 0.19395006 0.17954372 -0.1672915 0.103449725 -0.12785652 -0.12941496 -0.17087665
0.0907534 0.16705975 -0.029014502 0.15287177 0.14594613 -0.15204006 -0.19493443 -0.12662552
0.15978259 0.16009535 0.17688079 -0.052816425 0.11153191 0.18471763 -0.09048637 0.11769239
-0.1604558 -0.11109322 -0.11743302 0.05494246 -0.105570115 0.15650871 -0.13121092 -0.09280538
0.15743473 -0.12585999 -0.1257456 0.10596677 0.17176263 -0.058209863 0.03696132 0.2014618
0.13527335 0.15059495 -0.19148834 0.108494 0.017921655 0.16557749 0.07335494 0.13492289
-0.06240783 -0.094053715 0.1781268 0.0039952756 0.17894785 0.0414129 -0.16039541 -0.13280986
-0.08192648 0.044353563 0.16271111 -0.16457066 0.11220017 0.044195116 0.020441025 -0.10198824
-0.08870326 0.14364637 -0.111967355 0.15757184 0.1619852 0.06537645 -0.13717054 -0.031150568
-0.055501677 0.16180831 0.17436834 0.21499369 0.12838744 -0.1670359 0.10154637 -0.09328243
0.15612805 -0.085997954 0.19232036 0.09739543 0.10036473 -0.18019378 -0.115017936 0.16278034
-0.11116285 0.15225782 0.023516053 -0.13588043 0.17290102 -0.098090746 -0.10455188 -0.084308185
0.15093952 0.18763818 -0.13097985 0.15803659 0.14385392 -0.12353132 0.14223495 0.16331588
-0.1834048 0.09631544 -0.18092684 -0.18169925 -0.10003097 0.05289086 0.058833998 -0.08187397
0.16755109 0.17505625 -0.14827581 0.18819508 0.16990489 0.17918193 0.08358089 -0.149076
0.03109681 0.10395583 -0.02373687 -0.18151899 0.13862677

model.2.weight f4 [5, 125]
00000000: 8ec0 a5bd 7d9c 313d ff7b 6fbd b787 473e
00000010: 73aa afbc 8fbe 303e b520 dabc 0a12 1d3e
00000020: df22 7ebe 3968 02be 449a fc3d 9adc 6ebe
00000030: 72db 2abe 8c8d 2d3e 241e fb3e 9031 a1bc
00000040: 1638 64be ad8e 35be cf47 c2bd baf4 cabd
00000050: d3ec 6ebe 91f5 46be 7d7b c4bd 4993 84be
00000060: 1c58 5dbe 3116 133e 17b6 903c b7aa 93bd
00000070: 7cdc f2bd e47f e7bd 1c0a b3bd 3619 83bc
00000080: 3959 b53e f755 4f3e 2ed8 9f3d e326 91be
00000090: fc37 06be 51e0 103e 9784 b83d de23 afbd
000000a0: e395 d13c ca54 d4bd d448 053e 6a2c 50be
000000b0: 3e7f e6bc debd c03d c8c6 fbbd 40c8 8d3d
000000c0: 01ce f5bd a77f 26be c764 acbe 8d0c 143e
000000d0: 22b9 8e3d 3ee0 74be 01d9 143d 9dd9 a33d
000000e0: 65de 7d3d 3f2f 74be d7e8 70ba 4c82 ce3d
000000f0: 1ce0 893d d46c 253e 9019 7a3e b44f 883c
00000100: 61c0 f8bd 44fe 8d3d e02c 313e 1580 fb3d
00000110: 3d40 dcbd 12bc 9f3d 3806 b53e d31a 25be
00000120: b04d 82bd 35c9 d6bd f61e 40bc ef7c 883d
00000130: d6bc b73d 9583 483e afb1 cabd 033e 5bbd
00000140: d84f 3ebe ec4f 943b 1b05 9ebd 8fd9 0ebc
00000150: dcc4 3dbd bfa1 5a3d bb16 bd3d ac99 cfbd
00000160: a037 f1bc 9fb9 f3bd 3b93 50bd ad50 92bd
00000170: a6c8 fcbd e0ed 323e eb4f 283e f50d 5fbe
00000180: 31ef bb3d 9bd6 5fbe 2b12 c53d 7949 f8bc
00000190: ebf2 96bc 06b0 0f3e 688f 2fbe 6bac 5e3e
000001a0: 16dc c73c 7fa2 91bd f2e1 e4bc 2b10 463e
000001b0: 3fee dbbb a500 a5bc 1ca9 e53d 0dc1 5dbe
000001c0: 9276 adbd 196d 89bd 8bba 82bc ee8c 0dbe
000001d0: c4ce 063e d3b5 74bd f20f 703d 5e41 cc3d
000001e0: 99be 5bbd 4389 193d 53ba 4abe 1a9b 003e
000001f0: 7f17 6dbe f77a f4be 43af 3c3c 3109 3abe
00000200: 9fe4 213e e3e7 e0bd d6c4 d1be a1f1 b73d
00000210: 6a76 2b3e 88fb 2cbe d4cd c6bd d962 2bbe
00000220: 4425 bcbe 5f90 83be 70f2 2d3d ddc2 0bbe
00000230: 17b4 eabd a470 493e 0ba1 823e a850 693d
00000240: 556a 95bd 2b21 42bc 2801 353d 7196 3cbe
00000250: 6584 0a3e aefe a5bd 4c07 40bd 8441 71be
00000260: f89b be3e e244 c13d b731 5fbe 8728 0bbd
00000270: 484f b53b 60c8 0abb f190 803e 8a80 1d3c
00000280: b6ac 1cbe 70af 70be cb8e a63e ed2e 6a3e
00000290: 2541 863d 878a 66be ee45 4dbe 75e3 0ebe
000002a0: 2b2f 353e 62f8 3f3e 667b 25bc 1f78 bf3e
000002b0: 63b9 17be 88cf 183d eae6 09be 7689 5b3e
000002c0: 8372 a33e b36a 32be 1275 fa3e 237d 05bd
000002d0: 9ca3 d9be 26dd 5fbe 9b39 7b3e be6a 16be
000002e0: a064 edba 12cc 993e 5bb0 8b3e 3b1b d83d
000002f0: 5d4f d73d 0ac7 b53c 725e 7cbc e257 ac3e
00000300: 7498 5abe 89ae 573e dff2 89bd c379 963e
00000310: d945 333d c01b 0f3e e018 b8be c808 a7be
00000320: e53c 9e3d 9d9d edbc 9e93 de3d d2ff 93be
00000330: 8f73 03bc 21c7 d83d 4714 163e b19c 273e
00000340: 1a38 dcbc 4d3d 97be 9083 113e 3505 6dbe
00000350: a1c7 41be ff7f 193e 92c9 14be 2c31 e33d
00000360: 1308 eb3d 36d0 7f3b 041e c43e d696 0f3e
00000370: b293 e5bd 938b 01bc 9f33 0a3e d8ed a23d
00000380: 1c28 e5bd fb35 24be 6fb3 243e 38fc 6ebe
00000390: c839 c0bb e2e2 f83c 8e12 a93d f00b 953c
000003a0: 54f3 bcbd de61 08be 5cb6 593e 4211 533e
000003b0: f780 c93a 0c02 28be 91ca 12be e1c0 283e
000003c0: 3251 a4bd 6144 13be e61e 5f3d 3fd6 613b
000003d0: b586 6b3e 05a4 b93e f44c bebe 11a8 a8bc
000003e0: aae7 57bc 2cd1 94be 8555 2ebe d644 7dbe
000003f0: de7e d1be 876a bd3e 2075 83bd 0b20 643e
-0.080933675 0.04336213 -0.05846786 0.19485365 -0.021443581 0.17260192 -0.026626924 0.15338913
-0.2481799 -0.1273507 0.12334111 -0.2332634 -0.16685274 0.16948527 0.49046433 -0.019676954
-0.2228702 -0.17730208 -0.09486353 -0.09909959 -0.23332529 -0.19429614 -0.09593866 -0.2589362
-0.21615642 0.14363934 0.017664952 -0.07210296 -0.1185846 -0.1130369 -0.087421626 -0.016003232
0.35419634 0.20247637 0.07804905 -0.2834998 -0.13107294 0.1414807 0.090096645 -0.08551763
0.025584167 -0.10367735 0.13016063 -0.20329443 -0.028136846 0.09411214 -0.12293774 0.0692296
-0.12002183 -0.16259633 -0.33670637 0.14457913 0.06968905 -0.23913667 0.036339764 0.08000491
0.06197967 -0.23846148 -0.0009189969 0.10083446 0.067321986 0.16154796 0.24423814 0.016639568
-0.12146068 0.06933263 0.17302275 0.12280289 -0.1075444 0.077995434 0.35356307 -0.16123514
-0.06362474 -0.10487596 -0.011726132 0.06664454 0.089715645 0.19581445 -0.09897172 -0.053525936
-0.18585145 0.004526129 -0.077158175 -0.008718862 -0.046330318 0.05337691 0.09232851 -0.101367325
-0.02944547 -0.11900639 -0.05092166 -0.07144294 -0.12342958 0.17473555 0.16436736 -0.21782668
0.091764815 -0.21859209 0.09622606 -0.030308472 -0.01842638 0.14031991 -0.17144549 0.2174546
0.024396937 -0.07111072 -0.02793977 0.19342105 -0.0067117508 -0.020141909 0.11213896 -0.21655674
-0.08469881 -0.06710262 -0.015958091 -0.13823292 0.13164812 -0.059743714 0.058608957 0.09973405
-0.053648565 0.03748442 -0.1979764 0.12559167 -0.23153494 -0.47750065 0.011516395 -0.18167569
0.15809868 -0.10981729 -0.40970486 0.08981634 0.1674439 -0.16892827 -0.09707227 -0.16736926
-0.3674718 -0.25696084 0.042467535 -0.13648553 -0.11460131 0.19671875 0.2551349 0.056961685
-0.07295672 -0.011848728 0.044190556 -0.18416764 0.13527067 -0.08105217 -0.04688196 -0.23560148
0.3722837 0.094369665 -0.21796308 -0.033974197 0.0055331327 -0.0021176562 0.25110582 0.009613166
-0.15300259 -0.23504424 0.32530817 0.22869463 0.06555394 -0.22513781 -0.20046207 -0.13953955
0.17693774 0.18747094 -0.010100221 0.37396333 -0.14816813 0.037307292 -0.13466993 0.21439156
0.31923303 -0.17423515 0.48917443 -0.032590043 -0.42507637 -0.21861705 0.24533693 -0.14689156
-0.0018111654 0.30038506 0.27282986 0.10552069 0.10513184 0.022189636 -0.015403377 0.336608
-0.21347219 0.21062674 -0.06735777 0.29389772 0.043767784 0.1397543 -0.35956478 -0.32623887
0.077264585 -0.02900582 0.108679995 -0.28906113 -0.008023157 0.10584856 0.14656173 0.16368367
-0.02688222 -0.29538956 0.14210343 -0.23146518 -0.18923809 0.14990233 -0.14530018 0.11093363
0.114761494 0.0039034015 0.3830415 0.14022383 -0.11209811 -0.007906812 0.13496254 0.07955521
-0.11189291 -0.16036217 0.16084073 -0.23338401 -0.005866263 0.030381624 0.08255492 0.018194169
-0.09226099 -0.13318583 0.21260971 0.20612052 0.0015373518 -0.16407031 -0.14335085 0.16479827
-0.08023299 -0.14381553 0.054472826 0.0034459976 0.23000605 0.3625795 -0.37168086 -0.020587953
-0.013177792 -0.29065835 -0.1702481 -0.2473329 -0.40917104 0.36995336 -0.06418824 0.22277848

model.2.bias f4 [5]
00000000: f0ff 2dbe 5162 d9bd 55e1 74be 7d5f 323e
00000010: 93d5 09be
-0.16992164 -0.106144555 -0.23914082 0.17419238 -0.13460378
