BRCA/models/C_best_1703021817.pth (torch, 67616 bytes, 4 tensors)

model.0.weight f4 [125, 125]
00000000: ef59 94bc ef04 813d e213 1b3d df92 01bd
00000010: 65d4 17be 3d9e c63c 1e49 2b3b aa17 83b7
00000020: ea49 8dbd ba80 10bd 4900 b7bc c8df ec3d
00000030: d30b 15bb 7092 053e c5b8 203e e8bb f8bd
00000040: e804 4a3c 4a1b fabd 12d2 263e 8696 f43c
00000050: 0ecd a1bd c76b 533d d0b1 993e a78a 783e
00000060: 3278 b0bd 2420 033e 9d6b 283e f5f6 523e
00000070: f1c9 063e 3cec 533d 18db 5c3c 7ffa 0a3e
00000080: 50fd 203e c020 083e 5c9c bf3c 7a61 5fbd
00000090: 90b7 533d 41b1 e1bd 2da4 3f3d 6643 25bd
000000a0: b1e9 ed3c b560 b03e 44a4 483c c0e4 ab3b
000000b0: 6092 843c 0e5d 123e 1812 8f3d 0f0b 35bd
000000c0: 76fc 293e 13a0 2abc 2de6 e93d a2a3 6b3d
000000d0: 406c 7abe 44dd 75bd 8cd3 4e3c 394c 053e
000000e0: 8187 a43e 8629 39b7 7709 a83d 4652 fc3d
000000f0: 6ccc 4f3d c70a bbbc 55be a73c 62e5 0e3d
00000100: edb4 43be e585 8b3d 5e15 5a3e 3ae4 3dbd
00000110: 33dd 2abe 1dda 5bbd 44a8 18bb 00d3 793d
00000120: a8b6 2cba 114a d9bc db39 5dbd 4fc5 da3d
00000130: 3513 723e 16f0 c43c 90de 3f3e 9fd6 21be
00000140: cfe5 32bd b09e 833d 1e57 afbd cdcb 04be
00000150: 6367 84be cd57 a23e 062c 0d3e 5f62 47bd
00000160: c8ad 533e de53 16be 482f f03d 0106 f23d
00000170: 170f 00bc 1d98 883e 9a30 10bc 4cb2 413d
00000180: 0803 353e b12a 8dbd 1f4a 823d 1e30 8bbe
00000190: 5939 3d3d 8a61 5d3e 4d0f c73d 0437 d53c
000001a0: 9240 62be 291d a3bd 0ff9 223e f552 5a3d
000001b0: dae7 0b3c a589 c7bd 65e6 b83d 303c 523e
000001c0: 4876 e1bd 5b8c c1bc 2dca 48be d2f9 72bc
000001d0: ee32 423e aacf 23bd 9ce5 47bc 13f8 bfbd
000001e0: fe81 44bd edf4 f03d 24a1 56be d64a 08be
000001f0: 506f 63be 0be8 0ebe 3b6b b03c 70f9 1cbd
00000200: e5ba 02be 0d41 32bd 451f ebbd f6ac 213e
00000210: a56e 433d 9490 5bbe 6096 d63d f9f5 a4bd
00000220: 6be6 df3c 8518 6e3d c2ff b83c 94d5 19bc
00000230: 76be 4fbe c844 12be 285d d53c 30fd 623e
00000240: 678d 093d a7a0 a3be 9fba 4fbe ab49 2abe
00000250: 9ae2 c03c eb0f 063d c76a 013e 4387 063e
00000260: 07d9 193e b2f2 7bbd 8b92 d2bd f243 903c
00000270: 0b33 633d 2688 a03d e446 d3bd ac37 4c3b
00000280: 7b50 be3d 4536 523e 941f 5d3d 89b5 e8bd
00000290: 7a28 e23d d78c 533d 2fb2 c8bd 95d1 353e
000002a0: e5b5 883d eb25 4dbd 8045 03be 048f 66bc
000002b0: 4323 56be 69a7 3fbe 30f5 6dbb 230f 833d
000002c0: 2899 a43e 7a10 b83d a615 c1bd 5bb9 403e
000002d0: 4086 1d3d 4f34 593e dd8d 013b 99b7 2abd
000002e0: d5b4 a23d a103 c2bd f319 aa3d 52e0 34be
000002f0: 9520 97bc f680 50be 68b9 b1bc 7846 5f3e
00000300: 18c5 c63c 0f2f 1b3c 84df ccbd 5858 ca3d
00000310: f72b 013e bda2 1ebe 3950 9dbe da7f 6bbd
00000320: 6db7 97be 5be6 10be 7d0e 763d 66ad 2d3e
00000330: eab2 acbd d013 73be 0133 d03d 8b56 bbbe
00000340: 7f54 38bd 70bc 82bd a3b5 163d e97c 27be
00000350: 6156 86be 0694 d93d 7582 473e 395b 933d
00000360: dcf1 e93c 7fc2 543e b04b 973e cdb9 5abd
00000370: 6a43 14be db96 82bd 9b68 10bd b859 42bc
00000380: be65 f63b 09c0 38be c13d 3e3e 7d44 9d3b
00000390: af6e 883d 8138 35be 6cbf ad3d eb70 e5bd
000003a0: 55b1 f5bd 82ca b23d fded 95bc df06 65be
000003b0: 517a 09bd fa77 8bbe ae7f 5d3d d7e5 5fbd
000003c0: 46c4 4cbe abfe 293e 788d 153e acf4 c1bd
000003d0: 0ac7 0dbc a41c 17bd e422 1cbd 0ede 69be
000003e0: 1e9c e7ba 89d2 afbd 1a5a ffbd 48c8 02bd
000003f0: 89d9 b73d 77d7 43be c542 38be 7b86 0e3c
-0.01810929 0.06299769 0.03786076 -0.031634208 -0.14827116 0.024245376 0.002613611 -1.5627436e-05
-0.068988636 -0.035279013 -0.022339003 0.115661204 -0.0022742643 0.13044143 0.15695484 -0.12145215
0.012330271 -0.12212236 0.16291073 0.029856931 -0.07900439 0.051616456 0.30018473 0.24271642
-0.086166754 0.1280523 0.16447301 0.20602019 0.13162972 0.051738963 0.01347997 0.13572119
0.15721631 0.13293743 0.023389988 -0.05453632 0.05168873 -0.110201366 0.04678743 -0.04034748
0.029042097 0.34448782 0.012246195 0.005245775 0.016183078 0.1429331 0.06985873 -0.0442
0.16600212 -0.010414141 0.11420856 0.0575291 -0.24455357 -0.06002547 0.012623679 0.13017358
0.3213463 -1.1036527e-05 0.0820493 0.1232038 0.05073206 -0.022832287 0.0204765 0.034886725
-0.19111986 0.06812648 0.21297213 -0.046360232 -0.16685943 -0.053674806 -0.0023293654 0.06099224
-0.0006588497 -0.026524575 -0.054010253 0.10682165 0.2364014 0.024040263 0.18737245 -0.15804528
-0.043676194 0.064267516 -0.08561538 -0.12968369 -0.25860128 0.31707612 0.13786325 -0.0486778
0.20671761 -0.1468043 0.11727768 0.118175514 -0.007816098 0.26678553 -0.00880065 0.047289178
0.17676938 -0.06892908 0.06361794 -0.27185148 0.04619727 0.2161924 0.09719715 0.02602721
-0.22094944 -0.07964546 0.15915321 0.05330177 0.008539164 -0.097430505 0.09028319 0.20530772
-0.110088885 -0.023626497 -0.19608374 -0.01483007 0.1896474 -0.039992966 -0.012200739 -0.09373488
-0.047975533 0.11765466 -0.20959908 -0.13309798 -0.22210431 -0.13955705 0.021535506 -0.03832382
-0.12766607 -0.04351907 -0.114805736 0.15788636 0.04771294 -0.21441871 0.104779005 -0.08054728
0.027331552 0.058128852 0.022582892 -0.0093893 -0.20287499 -0.1428405 0.026045397 0.22166896
0.033582117 -0.31958506 -0.20286034 -0.16629665 0.023545552 0.032730024 0.12638389 0.13137536
0.15024196 -0.06151075 -0.10281857 0.017610524 0.0554686 0.07838468 -0.10316256 0.0031161113
0.09292694 0.20528515 0.053985193 -0.1136275 0.110428765 0.051647987 -0.09799611 0.1775573
0.06675319 -0.05008499 -0.12819481 -0.0140721835 -0.20911889 -0.18716206 -0.0036309473 0.063993715
0.321481 0.08987518 -0.09427957 0.18820707 0.03845811 0.2121136 0.0019768395 -0.041679
0.07944647 -0.094733484 0.08305731 -0.17663696 -0.018448154 -0.20361695 -0.021694854 0.21804225
0.024263903 0.009471669 -0.1000357 0.098801315 0.12614428 -0.15491767 -0.30725268 -0.057494976
-0.2963213 -0.14150374 0.06007241 0.16960678 -0.08432563 -0.23738027 0.10165978 -0.36589465
-0.045002457 -0.06383598 0.036794316 -0.16356243 -0.26237777 0.10623936 0.19483359 0.07195134
0.02855771 0.2077732 0.29549932 -0.05339985 -0.14478841 -0.0637643 -0.03525601 -0.011862211
0.007519453 -0.18042006 0.18578245 0.004799424 0.06661736 -0.17697336 0.084837765 -0.11203178
-0.11996714 0.087300315 -0.018301958 -0.22365902 -0.033563916 -0.27239972 0.054076843 -0.05466255
-0.19996747 0.16601054 0.14604747 -0.094704956 -0.008653412 -0.03689255 -0.03811921 -0.22838613
-0.0017670428 -0.08585078 -0.124683574 -0.031929284 0.089770384 -0.19125162 -0.1799422 0.008699055

model.0.bias f4 [125]
00000000: 8ab5 bb3d c587 4cbc 6472 e43d 278f 173e
00000010: b0d8 fbbc 84a9 dcbc 0f73 6d3d cd7b 833d
00000020: b94a ef3c 72be 24bd e6c3 f63d 4af4 a03d
00000030: 8014 d53c 74a4 fcbb 108c 233e 53ae fb3a
00000040: 4283 623d 67e0 113d b421 10bc 6281 3bbd
00000050: 065a 303e 7bb1 0ebd dc51 b83d c56c 4ebd
00000060: 6544 1abd eed8 e63d cc92 6b3c fcb3 6a3d
00000070: 1e1c f53d c0cc a93c 2ed5 7d3d 4c2c 663e
00000080: 62f9 c3bc fa02 d53c e1c7 b33d 7d71 6cbd
00000090: 1665 d738 0057 0bbd d4f2 85bd dbea 773d
000000a0: 7b49 233e 17f5 80bd 81e0 ec3b e4f5 d03d
000000b0: 837c 5c3e 6415 813e 4302 5ebc 58c6 123d
000000c0: 40e0 78bd 9e53 4d3d 98cf 36bd 6d21 393d
000000d0: 0dec 853d e7e6 b13c b31a 6d3d fc69 3cbc
000000e0: cf68 563d f350 3c3d 9687 a03d 9582 c63d
000000f0: fbe0 abbc d4e1 b83c 4700 bcbc 39d7 ce3c
00000100: c088 b03d 5534 403d 3e3c e83d 5027 d13d
00000110: 0563 433e b615 103c 9737 8ebc c8d1 2ebd
00000120: 74ae 303e 23b3 57bd da41 963b 7522 07bc
00000130: c098 9abc 677d d4bc 1559 4bbd 9d2b 183d
00000140: 4e36 5f3d 5c68 f6bc ce63 aa3d 3189 ecbd
00000150: e703 823d d0b3 59bd 5602 c13d 82f0 043e
00000160: 973b 6e3d 83d7 943d d8b8 763d 1037 16bd
00000170: 6525 823d d29f 7f3d 3527 7f3d ce3c ecbc
00000180: 3dd3 12bd 145d 433e 574b 943d 06c2 653d
00000190: a399 213c 5567 19be 2eb7 2abe 26aa 183c
000001a0: b274 363d f1cd 8cbd 1881 4f3d 631b 8f3d
000001b0: e8f8 40bd 58a9 5bbd db00 febc 4658 ad3d
000001c0: 9c6d 8cbc bdd5 0a3e 1445 0bbd afbd cc3d
000001d0: 101e 3b3e 8c8a 173e 83ab 133d 0a01 9a3d
000001e0: 075d 283e a59b 1ebd 3b7e 183e 7bd0 d9bc
000001f0: 3cc9 cabd
0.09165485 -0.012483542 0.11154631 0.14800702 -0.030742973 -0.0269363 0.057971057 0.064200975
0.029210435 -0.040220685 0.120490834 0.078590944 0.026010752 -0.007710034 0.15971398 0.0019201733
0.05530096 0.035614397 -0.008797098 -0.045777686 0.17221841 -0.034837227 0.089999884 -0.0503967
-0.037662882 0.11271845 0.014378261 0.057300553 0.119682536 0.020727515 0.061970882 0.22477835
-0.023922626 0.026002396 0.08778358 -0.05772542 0.000102708276 -0.034018517 -0.065404564 0.06052671
0.15946 -0.06296747 0.0072289114 0.1020315 0.21531872 0.25211632 -0.013550344 0.035833687
-0.060760736 0.05012857 -0.04463157 0.045197893 0.06539164 0.021716548 0.05788679 -0.011499878
0.052346047 0.045975637 0.07838361 0.09692875 -0.020981302 0.02256862 -0.022949351 0.02524911
0.08619833 0.046924908 0.11339615 0.102125764 0.19080742 0.008794239 -0.017360492 -0.04268053
0.17254049 -0.052661072 0.004585487 -0.008247961 -0.018871665 -0.025938703 -0.049645502 0.037150968
0.05449515 -0.03007906 0.083198175 -0.11549605 0.063484006 -0.05315 0.09424274 0.12982371
0.058162298 0.07267668 0.060234874 -0.036673605 0.06354789 0.062408276 0.06229325 -0.028837588
-0.035845984 0.19078475 0.072409324 0.05609324 0.00986329 -0.14980824 -0.1667144 0.00931791
0.044544883 -0.06875218 0.050660223 0.069876455 -0.047112375 -0.053628296 -0.031006267 0.084641024
-0.01714211 0.13558097 -0.034001425 0.09997117 0.18273187 0.14798945 0.03605224 0.075197294
0.16441737 -0.038722653 0.14891903 -0.026588669 -0.09901664

model.2.weight f4 [5, 125]
00000000: bf7e 7e3d 4b1d bbbd 0e99 a3be 7020 823d
00000010: 14b9 083e bf90 cb3d 7ea1 043e e5f7 2abd
00000020: 10af 9a3e adac 203d 8308 41be 5b53 18be
00000030: 90e3 3bbe a096 0abe fda5 03bf 783c 173f
00000040: 4ee2 79bd 5dd7 253e dfd4 1dbe 5cd2 3e3d
00000050: 88d5 d6be 0871 1c3e cba1 123e 2e30 4bbd
00000060: dd19 0b3c 908b 043f adf6 3e3e c270 55be
00000070: b635 1f3e 6172 183e 9d36 0c3e bb64 683e
00000080: f4af a83e b86b 86be b419 e23d ae86 b6bd
00000090: 51dd 83be faf8 6fbd 53c4 d1be 8da8 153d
000000a0: 4c4d 883d 8e74 49be 584b 93be 3534 9a3e
000000b0: cb4e 82be 5a5c 19bf 89c0 4dbe 85b8 153e
000000c0: dfdb b4bc d634 91be c989 b5be afe5 903d
000000d0: f6d4 163e 904d 7d3e 9abc 1dbe 817e b5bd
000000e0: 9300 1bbe 4df4 1bbe 0a1c ca3d be86 82be
000000f0: 4de2 84bb c5d5 163e dff4 79bc 73b9 95be
00000100: 70b3 ee3e 2dad d0bd 8662 d6bd 53a2 9b3d
00000110: dd51 a7bd a8a4 703e 8ea1 56bd 03d8 b7be
00000120: ccbb 84be fd5a 50be 0a4c c83e d320 1abe
00000130: 4380 0f3f 7b40 59be 7914 573e 92fc 84be
00000140: 8d53 bdbd 126b 87bd 7ac4 5abd a7c2 443c
00000150: f228 41bd 1952 e7bc 12ab 6b3c dfe0 81be
00000160: 9929 b53c 2823 5e3e f742 4cbe 60d2 473c
00000170: e047 603d 7007 36bd 20e4 d63c ce91 ea3d
00000180: 1058 9139 110f 87be 0323 3e3e d2b0 e1be
00000190: 4be2 2a3f 9352 ad3d b0c1 8ebe 28a7 a93e
000001a0: faec b43e 2265 82be 1651 32be 9d4e 12bd
000001b0: 3b42 b33e 12fd c8be b0a8 923e c240 873e
000001c0: 4e98 90be 8cae 96be 8c73 b2be be52 dfbd
000001d0: fd94 01bf e7b9 adbe e824 8ebe 4984 4fbe
000001e0: d04a 9fbb 2dc9 97be acd1 54be abd8 7fbc
000001f0: c96f 77be a655 803e 1508 983e f319 a9bd
00000200: eec0 89be d04e d63d e589 523e 1e39 b3be
00000210: 3d61 43bd fcf1 86bd 1c39 ff3e 2d6b 8fbe
00000220: 54a8 9ebc 7c2e b8be 83c8 e0bd a93f 8bbe
00000230: bb65 763e efe7 243e 90d0 dbbe 8d90 b6bd
00000240: 0832 ad3e 72f8 15be 7879 8c3e 3028 d5be
00000250: 3282 b63d bf87 5fbd c5fc 18bf 5f03 a5be
00000260: c49c 37be fcde 4bbe 1ac8 623e c65e 8ebe
00000270: fc93 8ebe ed74 313e 1d03 f1bd 7968 ca3b
00000280: 99c1 8f3e 7258 4a3e dc70 bdbd 5dd9 9f3e
00000290: aadf dfbd 0fd7 fabe ee7b 593e f57e f8be
000002a0: d937 63be 8b31 93be aa15 22be 878a 39be
000002b0: 5bcf 9fbe 0469 9b3e 164c 833d 8d96 7a3e
000002c0: 2139 f4bd 613b 9b3d b6c4 d6bc 6a9c 0bbe
000002d0: c0a9 16be d568 053d cbb3 f03d 9f8e 8dbe
000002e0: 66e4 08be d123 15bd 3098 ab3d 3b05 23be
000002f0: 1d45 723e 042f 6a3d 437c 263d 27b0 abbe
00000300: f5f5 99be 4cde 87be 23fe 0fbe af26 993e
00000310: 1a71 85bd 01da 4fbe f3e4 b63e 1ab1 423e
00000320: 8da3 3abe ec75 ac3a 4c07 7dbe 5533 cb3d
00000330: 0ac5 df3d 821c fcbd f9b9 3abe bc93 29be
00000340: 2130 6d3e 4f0a afbd a00d 523e a0d5 6d3d
00000350: 8337 78be 3fb3 363d 9b1b 62be d13a 88be
00000360: c93d 033e b3e3 4fbe 22a5 923e d1ad 41bd
00000370: d6ad 81be 438b 80be c789 8fbe 8d7f 203c
00000380: 5b7c dcbd 55f0 1cbe d0f2 8e3e e983 b23e
00000390: 7e91 62be b7aa ce3d a0c2 833e b9c8 00bd
000003a0: d52d 82be 25e7 ad3e d6b2 0dbd 1137 013e
000003b0: 75ad 3fbe 9352 0dbe de3b 393e 984a 0cbc
000003c0: 387f 96bd fb75 f63d 7289 9b39 b1d8 9f3d
000003d0: b9ed 23be ec05 31bd ed02 2f3e ba04 c5be
000003e0: aa74 b0bd d82f 8a3e 06ec 28be 5fb0 7fbd
000003f0: 0884 7fbe cd7b 2ebc 2b96 273e 58b6 a93d
0.062132593 -0.091364466 -0.3195271 0.06353843 0.13351852 0.099397175 0.1295223 -0.041740317
0.30211687 0.039227176 -0.18850903 -0.14875548 -0.18348527 -0.13534021 -0.51425153 0.59076643
-0.061006837 0.16195436 -0.15413235 0.046587333 -0.41959786 0.15277493 0.14319532 -0.049606495
0.008490053 0.51775455 0.18648787 -0.20843795 0.15547833 0.14887382 0.13692708 0.22694676
0.32946742 -0.26254058 0.11040059 -0.08912407 -0.2575479 -0.058587052 -0.40970096 0.036537696
0.06655368 -0.19673368 -0.2876842 0.30117956 -0.2545074 -0.5990654 -0.20092978 0.1462117
-0.022077499 -0.28360623 -0.35456684 0.07075059 0.14729676 0.24736619 -0.15403977 -0.08862019
-0.15136938 -0.15229912 0.09868629 -0.25493425 -0.0040552975 0.14729984 -0.015256136 -0.2924305
0.46621275 -0.10189281 -0.104680106 0.0759932 -0.08169911 0.23500311 -0.052400164 -0.3590699
-0.25924528 -0.2034721 0.39120513 -0.15051584 0.56055087 -0.21216004 0.21003903 -0.25973946
-0.09244452 -0.06612219 -0.05341003 0.012009299 -0.04715819 -0.02823739 0.014384048 -0.25366876
0.022114562 0.21693099 -0.1994742 0.012196153 0.054756045 -0.044440687 0.026231825 0.11453591
0.00027722167 -0.26378682 0.18568043 -0.44080216 0.66751546 0.084630154 -0.27882147 0.33135343
0.3533705 -0.25467783 -0.17413744 -0.035719503 0.35011467 -0.39255577 0.28644323 0.26416594
-0.282412 -0.29430044 -0.3485378 -0.10904454 -0.50617963 -0.33930895 -0.27762532 -0.20265307
-0.0048612133 -0.29645672 -0.20783108 -0.0156156225 -0.24163736 0.25065345 0.29693666 -0.082569025
-0.26905006 0.10464251 0.20560415 -0.35004514 -0.047700156 -0.065891236 0.49848258 -0.28011456
-0.019367374 -0.35972965 -0.109757446 -0.27197006 0.24062245 0.161041 -0.42932558 -0.089142896
0.33827233 -0.14645556 0.27436423 -0.41632223 0.089115515 -0.054572817 -0.59760696 -0.32229134
-0.17930895 -0.1990928 0.22146645 -0.2780668 -0.27847278 0.1732976 -0.11768172 0.006177005
0.2807739 0.19760302 -0.09250042 0.31220523 -0.109313324 -0.48992202 0.21238682 -0.4853436
-0.22189273 -0.28748736 -0.15828577 -0.1811925 -0.31212887 0.30353558 0.064109966 0.24471493
-0.11924959 0.07579685 -0.026216846 -0.13633886 -0.14713192 0.03257068 0.11753043 -0.27647874
-0.13368377 -0.03641111 0.08378637 -0.15919964 0.23659177 0.057173744 0.04064585 -0.3353283
-0.30070463 -0.26536787 -0.14061789 0.29912326 -0.06515713 -0.20298006 0.3572155 0.19012871
-0.18226452 0.0013157702 -0.24709815 0.099219 0.10926254 -0.12310125 -0.18235005 -0.16560262
0.23162891 -0.08546888 0.2051301 0.058065057 -0.24239926 0.044604536 -0.22080843 -0.26607373
0.12816538 -0.20301704 0.2864161 -0.047284905 -0.2532794 -0.25106248 -0.28034803 0.0097960355
-0.107659064 -0.15326054 0.27919626 0.34866264 -0.22125813 0.10091155 0.25734425 -0.031441424
-0.25425592 0.33965412 -0.03459438 0.12618662 -0.18718512 -0.13801031 0.18089244 -0.008562706
-0.07348484 0.12034222 0.0002966631 0.078050025 -0.16008653 -0.04321854 0.1709096 -0.3848017
-0.08616002 0.26989627 -0.16496286 -0.06242406 -0.2495271 -0.010649634 0.16365878 0.082867324

model.2.bias f4 [5]
00000000: 27ff acbb 414a f7bd 6f1b 28bd e1d1 3b3d
00000010: e4c3 5abd
-0.00527944 -0.1207471 -0.041041788 0.045854453 -0.053409472
