BRCA/models/C_best_1703025795.pth (torch, 67616 bytes, 4 tensors)

model.0.weight f4 [125, 125]
-0.05292614 0.052396394 0.22721265 -0.14312099 -0.046589952 -0.31706566 -0.12623931 0.10806193
-0.1767974 -0.16628413 0.22583371 0.7185424 -0.39252043 -0.023097677 0.03766806 -0.16112962
-0.09627585 -0.39225236 -0.2770905 0.22184187 1.3640406 0.5216907 0.061657656 0.36402902
0.1401222 -0.078685075 -0.010172561 0.20946287 -0.2989672 0.40747675 -0.25688365 -0.21949722
-0.034544338 -0.08386524 0.42162848 0.25772673 -0.3673632 -1.4754716 0.024464516 0.9041698
-0.041135643 0.29243162 -0.20705165 -0.17937183 0.2578403 0.55700445 0.4795321 0.119149566
0.13947254 0.37332544 1.5932517 0.19606954 0.35042578 1.028295 0.39429057 1.1996943
-0.18797077 -0.490496 0.651966 0.11142785 0.069349706 -0.05859882 -0.9862371 -0.9075758
-0.3643101 0.6807343 0.25348023 -0.18833134 0.20712782 -0.0005138104 0.34616897 0.3049161
-0.23620065 0.15292737 0.09934843 -0.057004947 -0.058766726 -0.24471672 -0.08648309 -0.013584658
-0.123774484 -1.344558 -0.49547523 -0.33651778 -0.27346924 -0.01813371 1.7757335 -0.7416618
-0.2746144 -0.17520672 -0.18880093 0.06205005 -0.40648526 -0.37597305 -0.11272631 0.2546754
0.6666023 -0.6647016 -0.010608965 -0.22473879 -0.23842165 0.33594933 -0.034183115 -0.24619469
-0.28719777 -0.21306667 -0.4410119 0.02735189 -0.3373137 -0.39464447 -0.38104153 0.95319337
-0.833103 -0.52798027 -0.3726645 -0.29124555 0.093162924 -0.55207264 -0.42517647 -0.18637936
-0.09313123 0.19827154 -0.6577194 -0.5304174 -0.25590858 -0.15051408 0.1809857 -0.05613251
-0.05141017 0.46983486 -0.13153273 -0.47964147 -0.25245154 -0.077168606 0.18823557 -0.04407573
-0.1540005 0.1913372 0.119422175 0.23905174 0.08632562 0.7577955 0.07611335 0.24151492
0.16424292 0.09777833 0.32772663 0.25151676 0.50358075 0.31906995 -0.32900283 -0.036847327
0.6892364 -0.16720803 0.008085144 -0.4254973 -0.6972009 -0.2793407 0.32511905 0.101108246
-0.1318925 -1.2300595 -0.26090953 0.18466245 -0.16242598 -0.3282739 0.4986109 0.77434915
-0.16665302 -0.10419514 -0.25563595 -0.145421 0.11506909 -0.20414723 -0.25493118 -0.43233082
0.06709272 0.86637455 -0.023062177 -0.36465427 -0.40136036 -0.64171463 0.2731706 0.2221688
0.06703718 0.22029428 -0.23122028 0.9741663 -0.37005883 -0.45348552 -0.09088895 -0.39985403
0.80433375 -0.25914332 -0.17601776 -0.18103042 -0.36601603 0.34183887 -0.35109594 -0.5439033
0.1041417 -0.2720627 -0.33816472 0.058194704 -0.28433335 0.029478803 -0.47389734 -0.13007672
0.16160111 0.19836527 0.06662636 -0.29629174 0.1954931 0.18552579 0.013140415 0.04405316
-0.097006254 -0.11446562 -0.033310566 -0.14201272 0.11855423 0.06277894 -0.07456143 -0.099358864
-0.20964032 0.0018069961 0.85417175 -0.1917891 0.04934012 -0.1012662 0.31688485 -0.18978873
0.036210544 0.09935038 -0.08838558 0.09423855 -0.25595114 0.1985226 -0.467571 -0.42768735
-5.2091716e-05 -0.31409654 -0.091055654 0.0038140854 -0.36670008 -0.009242756 -0.59661126 -0.26864657
-0.20201813 -0.34439832 -0.032938186 -0.1828829 -0.060205728 0.547441 0.6744717 -0.21861106
00000000: 15c9 58bd 9a9d 563d 6faa 683e 4f8e 12be
00000010: 1bd5 3ebd 6e56 a2be e144 01be 934f dd3d
00000020: 610a 35be 6346 2abe f440 673e 65f2 373f
00000030: 70f8 c8be 5737 bdbc d349 1a3d 2aff 24be
00000040: 462c c5bd 4dd5 c8be cede 8dbe 842a 633e
00000050: e298 ae3f 868d 053f bd8c 7c3d 0362 ba3e
00000060: 327c 0f3e a425 a1bd d0aa 26bc 6f7d 563e
00000070: 3b12 99be cba0 d03e 4186 83be e1c3 60be
00000080: 5d7e 0dbd 8ac1 abbd b0df d73e c2f4 833e
00000090: 0817 bcbe 41dc bcbf cf69 c83c ac77 673f
000000a0: d97d 28bd 99b9 953e 5905 54be 40ad 37be
000000b0: a503 843e d897 0e3f 3b85 f53e b004 f43d
000000c0: e4d1 0e3e 8324 bf3e acef cb3f 74c6 483e
000000d0: 026b b33e 2c9f 833f 74e0 c93e 958f 993f
000000e0: 697b 40be 4b22 fbbe 3ee7 263f 4934 e43d
000000f0: 3807 8e3d 5105 70bd 097a 7cbf e356 68bf
00000100: da86 babe 9a44 2e3f 29c8 813e eed9 40be
00000110: 5119 543e 3bb1 06ba 0f3d b13e f71d 9c3e
00000120: 95de 71be fe98 1c3e 3177 cb3d 057e 69bd
00000130: 61b5 70bd 0597 7abe 0c1e b1bd 2f92 5ebc
00000140: 7a7d fdbd 7a1a acbf eeae fdbe 0f4c acbe
00000150: 2904 8cbe 258d 94bc 3c4b e33f 8cdd 3dbf
00000160: 429a 8cbe 6469 33be 0855 41be 3128 7e3d
00000170: d61e d0be 8a7f c0be 0ddd e6bd d064 823e
00000180: 73a6 2a3f e229 2abf 39d1 2dbc ed21 66be
00000190: ce24 74be 8d01 ac3e 9803 0cbd 761a 7cbe
000001a0: 960b 93be 262e 5abe 50cc e1be 1211 e03c
000001b0: 62b4 acbe d70e cabe e017 c3be 7b04 743f
000001c0: 3d46 55bf b729 07bf e2cd bebe 231e 95be
000001d0: 34cc be3d a254 0dbf bbb0 d9be 3bda 3ebe
000001e0: 96bb bebd b207 4b3e 4c60 28bf 6fc9 07bf
000001f0: 7306 83be 5d20 1abe 5154 393e 34eb 65bd
00000200: 7893 52bd 328e f03e 84b0 06be 9193 f5be
00000210: 5441 81be 930a 9ebd d3c0 403e c188 34bd
00000220: 4fb2 1dbe e6ed 433e 9d93 f43d fbc9 743e
00000230: 7dcb b03d e3fe 413f 51e1 9b3d b04f 773e
00000240: 4c2f 283e 0140 c83d c9cb a73e cec6 803e
00000250: abea 003f 235d a33e 0f73 a8be 39ed 16bd
00000260: cc71 303f 9538 2bbe 8d77 043c c8da d9be
00000270: c27b 32bf bf05 8fbe 0176 a63e d711 cf3d
00000280: d40e 07be 9772 9dbf ef95 85be 2718 3d3e
00000290: ff52 26be 8413 a8be ee49 ff3e bf3b 463f
000002a0: 17a7 2abe 4364 d5bd b7e2 82be 3ee9 14be
000002b0: 58a9 eb3d f90b 51be 5786 82be 775a ddbe
000002c0: e867 893d b9ca 5d3f e4ec bcbc f7b3 babe
000002d0: 1b7f cdbe 6947 24bf 04dd 8b3e 3880 633e
000002e0: ca4a 893d d394 613e 02c5 6cbe f662 793f
000002f0: 5a78 bdbe 412f e8be fc23 babd abb9 ccbe
00000300: d1e8 4d3f 6fae 84be 003e 34be 0a60 39be
00000310: 7466 bbbe 8105 af3e d9c2 b3be 3f3d 0bbf
00000320: 3e48 d53d cd4b 8bbe ed23 adbe 925d 6e3d
00000330: 2494 91be 887d f13c aca2 f2be d532 05be
00000340: c37a 253e 4420 4b3e 6773 883d 8db3 97be
00000350: 582f 483e 79fa 3d3e e54a 573c 1671 343d
00000360: 37ab c6bd f36c eabd a970 08bd c86b 11be
00000370: 8fcc f23d 3f92 803d aab3 98bd a97c cbbd
00000380: f4ab 56be bad8 ec3a 00ab 5a3f 5d64 44be
00000390: de18 4a3d a764 cfbd bb3e a23e fa57 42be
000003a0: 8251 143d 3678 cb3d 8003 b5bd 2400 c13d
000003b0: 070c 83be 8249 4b3e 7765 efbe d6f9 dabe
000003c0: 0e7d 5ab8 43d1 a0be 637b babd bcf5 793b
000003d0: 1dc0 bbbe ee6e 17bc 84bb 18bf 0b8c 89be
000003e0: d7dd 4ebe fa54 b0be 31ea 06bd a845 3bbe
000003f0: 489a 76bd 1825 0c3f 2daa 2c3f 94db 5fbe

model.0.bias f4 [125]
-0.14479032 -0.06695581 -0.2491557 -0.60558784 0.37006024 -0.045702405 0.049495667 -0.061857298
0.5228996 0.19250055 0.038409986 0.079587124 -0.5518958 -0.24423587 0.2394801 0.43521813
0.06872348 -0.17267348 -0.27015677 -0.16447015 -0.21572302 -0.06156645 -0.17982787 -0.34063017
-0.19927411 -0.3988779 0.17795517 0.09044684 -0.5715709 0.35918933 -0.17928138 -0.12242831
-0.22507484 -0.0829392 0.24848495 -0.24876368 0.20837924 0.26782095 -0.095319934 -0.09864648
0.10553905 -0.078335285 -0.0985452 -0.2725108 0.0018482154 -0.52810895 -0.34752217 0.20126179
0.25724593 0.090609856 0.73197335 -0.09512828 -0.10641631 0.17164344 -0.16391319 -0.16344258
-0.21795827 0.20743842 -0.19485293 -0.21305111 0.36743137 0.124789976 0.6283621 -0.2393078
-0.1364059 0.32049096 -0.113288715 -0.61882645 -0.11854142 -0.0522753 -0.24914286 0.08510075
0.1913381 0.08942966 -0.13335358 -0.12275788 -0.030341709 -0.043621983 -0.44500268 -0.13833481
-0.09127396 0.047012374 0.12117884 -0.027955992 -0.15131494 -0.22458558 -0.16538313 -0.11377179
-0.03244207 -0.289864 0.11643679 -0.177396 0.03135778 -0.41599905 -0.50189626 -0.14841342
0.09571689 -0.013353083 0.012657448 0.006884638 0.113769144 -0.38296595 -0.0387401 -0.23210275
-0.21288298 0.10958976 -0.02891716 -0.12762427 -0.08008983 -0.23280667 0.10889806 -0.7697276
-0.020825833 -0.087660454 0.10981704 -0.4046545 -0.07356942 0.4653548 -0.17614418 -0.08715192
-0.32381523 0.051389616 -0.11263896 -0.047978666 -0.47988588
00000000: ea43 14be 2120 89bd ac22 7fbe ce07 1bbf
00000010: 8978 bd3e 7232 3bbd f8bb 4a3d 145e 7dbd
00000020: c0dc 053f dd1e 453e ca53 1d3d 93fe a23d
00000030: 0b49 0dbf f818 7abe 453a 753e e9d4 de3e
00000040: e5be 8c3d 51d1 30be fd51 8abe dd6a 28be
00000050: 7fe6 5cbe 1a2d 7cbd cc24 38be 1467 aebe
00000060: 830e 4cbe b939 ccbe e139 363e 313c b93d
00000070: 7852 12bf aae7 b73e 8a95 37be b2bb fabd
00000080: 057a 66be 07dc a9bd d772 7e3e e8bb 7ebe
00000090: 5e61 553e d41f 893e 1937 c3bd 2a07 cabd
000000a0: dc24 d83d 406e a0bd 11d2 c9bd 8986 8bbe
000000b0: d13f f23a 2632 07bf 6dee b1be 9217 4e3e
000000c0: bdb5 833e a991 b93d 9b62 3b3f 9ed2 c2bd
000000d0: cbf0 d9bd 4cc3 2f3e dcd8 27be 7e5d 27be
000000e0: 7430 5fbe bd6a 543e 8787 47be 122a 5abe
000000f0: f71f bc3e e391 ff3d 57dc 203f 1b0d 75be
00000100: fdad 0bbe 6417 a43e ea03 e8bd 696b 1ebf
00000110: d8c5 f2bd a01e 56bd 4e1f 7fbe 4d49 ae3d
00000120: 23ee 433e e626 b73d d78d 08be 7c68 fbbd
00000130: 2d8f f8bc f7ac 32bd 64d7 e3be a4a7 0dbe
00000140: d8ed babd 0c90 403d 9d2c f83d f703 e5bc
00000150: 4ef2 1abe c3f9 65be 325a 29be 2f01 e9bd
00000160: fae1 04bd 0e69 94be 6976 ee3d 4ca7 35be
00000170: 0471 003d d4fd d4be 467c 00bf b0f9 17be
00000180: 3807 c43d e4c6 5abc 2f61 4f3c 8898 e13b
00000190: ccff e83d 1d14 c4be f0ad 1ebd 58ac 6dbe
000001a0: fffd 59be 9970 e03d aee3 ecbc f0af 02be
000001b0: 2306 a4bd df64 6ebe f205 df3d de0c 45bf
000001c0: f09a aabc 5387 b3bd c2e7 e03d e02e cfbe
000001d0: 90ab 96bd fc42 ee3e 245f 34be b57c b2bd
000001e0: 1ccb a5be eb7d 523d 41af e6bd 4785 44bd
000001f0: 9ab3 f5be

model.2.weight f4 [5, 125]
0.024611121 0.017020702 0.07223729 -0.39073882 0.029253535 -0.15935822 -0.08179643 -0.10415312
-0.18418035 0.30828372 0.10392779 0.12871262 -0.12835865 -0.20886482 0.028704032 0.11415876
0.3371388 0.107067406 0.13692223 0.1018243 0.02776808 0.16369307 0.1633227 -0.17476434
-0.18527944 -0.25823256 -0.024526522 -0.10559673 -0.0015327135 0.0119942725 0.054529626 -0.102291584
-0.14094245 0.47972238 0.004066941 -0.17139128 -0.10806375 -0.0990694 0.070817925 0.14661592
-0.0310341 0.15884623 0.14201447 -0.07153819 0.10816368 -0.19735363 0.30388156 -0.045562893
0.19308376 0.031710036 0.0028365578 0.11888545 0.10942025 0.011485765 0.10974751 0.07005797
-0.0010081587 -0.18604317 0.38355386 -0.060988676 -0.12797453 0.100808024 -0.08562888 0.0036503356
0.10502697 0.3480685 -0.088219255 -0.1564137 -0.057961933 0.1169865 -0.11738643 0.25545856
0.22711414 -0.08064493 0.08606635 -0.016883185 0.18154444 0.18719463 -0.100005396 -0.20414677
-0.1867633 0.13976695 0.25024247 0.053419072 -0.03055636 0.20879875 0.16186742 -0.12754251
-0.20182116 0.17487028 0.041441567 -0.014040566 0.30676806 -0.08211617 0.050391715 -0.047550146
0.1713049 0.078214794 0.0006888597 0.3296261 0.22222893 -0.10298309 0.26766074 -0.24617298
-0.023873722 0.11024967 -0.04487341 0.14951986 -0.078714296 -0.113398135 -0.065597385 -0.73610586
0.12984505 -0.05421318 0.08085989 -0.17220327 -0.05781976 -0.1081977 -0.15849696 0.1576017
-0.19626176 -0.14709981 -0.023517998 0.09609492 -0.21369065 0.053065434 0.12549928 0.2687923
-0.17821126 0.17462966 -0.079410225 -0.10399567 0.12419909 -0.043547906 0.02860848 0.170489
0.19766472 -0.15937363 -0.14660124 0.13669994 0.14833261 0.0008992802 0.038686484 -0.17596859
-0.23067476 -0.15183194 0.26249638 -0.20653483 0.014544414 -0.0917153 0.1225716 -0.115321696
-0.029824918 0.10061302 0.099844605 0.4227122 0.45368618 -0.05009549 0.1107665 -0.04014966
0.17235579 0.07559942 0.050677776 -0.027215544 -0.28044552 0.024586333 -0.09823814 0.20149198
-0.11591322 -0.34326807 -0.2598558 -0.13131836 0.103000514 0.2024105 -0.13348196 -0.20559965
0.17426443 0.38707027 -0.021282135 -0.18185157 -0.2616296 0.10147684 -0.017067017 0.09362644
0.04905674 -0.050874084 0.18143797 0.04496783 0.030376934 0.2455014 0.1484868 0.19617335
0.12535128 -0.22373068 0.113305986 0.004419569 0.025147995 0.10112281 -0.081061155 -0.29071292
-0.3047175 -0.04836706 -0.058602594 -0.07113014 -0.045009866 -0.13536607 0.21611291 -0.22506715
-0.094150305 0.009287116 -0.14548062 0.3787316 -0.15938143 -0.17806667 0.18764086 0.10354713
0.057904053 0.056219194 0.47636017 0.15159689 -0.15163359 0.084211804 0.005236742 -0.07624016
0.013489865 0.2390091 0.046367146 0.21701667 0.0067439806 0.024758844 0.115272194 -0.108778246
-0.1054893 -0.08646947 0.04433553 -0.08146591 -0.5346944 -0.48043594 0.057471182 0.16980593
0.08597431 -0.033732142 -0.22219965 -0.08019472 0.07844589 -0.11672476 0.019444562 0.26875186
-0.23642614 -0.06998059 -0.05867262 0.29081628 0.3549654 -0.013117467 0.1567441 -0.05628991
00000000: 439d c93c 006f 8b3c 25f1 933d eb0e c8be
00000010: 1ca5 ef3c cd2e 23be e384 a7bd 3b4e d5bd
00000020: c699 3cbe 5dd7 9d3e 18d8 d43d 3ecd 033e
00000030: 7370 03be a9e0 55be b824 eb3c 11cc e93d
00000040: 759d ac3e 2846 db3d 5735 0c3e 4289 d03d
00000050: e279 e33c 289f 273e 113e 273e 6cf5 32be
00000060: e5b9 3dbe 0f37 84be d8eb c8bc 1943 d8bd
00000070: 55e5 c8ba a083 443c 755a 5f3d 407e d1bd
00000080: 3853 10be 2c9e f53e f943 853b 3281 2fbe
00000090: 8750 ddbd e6e4 cabd fd08 913d 7c22 163e
000000a0: 3a3b febc 96a8 223e 3e6c 113e 9d82 92bd
000000b0: eb84 dd3d 1217 4abe 5d96 9b3e 28a0 3abd
000000c0: c0b7 453e 62e2 013d 8be5 393b 377a f33d
000000d0: b917 e03d ca2e 3c3c 4dc3 e03d 8e7a 8f3d
000000e0: 3124 84ba 1a82 3ebe 2c61 c43e 43cf 79bd
000000f0: c10b 03be 7074 ce3d 325e afbd 783a 6f3b
00000100: 6118 d73d 0936 b23e 4cac b4bd ea2a 20be
00000110: 7e69 6dbd 9e96 ef3d 4c68 f0bd 77cb 823e
00000120: 9c90 683e 2b29 a5bd 8e43 b03d 9b4e 8abc
00000130: c9e6 393e f3af 3f3e a1cf ccbd da0b 51be
00000140: e13e 3fbe 111f 0f3e c81f 803e f5cd 5a3d
00000150: 5551 fabc 57cf 553e 93c0 253e 819a 02be
00000160: 35aa 4ebe 3211 333e a2be 293d 670a 66bc
00000170: b410 9d3e 862c a8bd 8b67 4e3d f1c3 42bd
00000180: 8d6a 2f3e 142f a03d 9894 343a c1c4 a83e
00000190: fb8f 633e cce8 d2bd d40a 893e c514 7cbe
000001a0: d392 c3bc 94ca e13d 2ecd 37bd bc1b 193e
000001b0: f634 a1bd 483d e8bd ec57 86bd 6f71 3cbf
000001c0: 1af6 043e a40e 5ebd df99 a53d 0e56 30be
000001d0: 6ad4 6cbd c196 ddbd 074d 22be 5762 213e
000001e0: d8f8 48be 55a1 16be d1a8 c0bc 6acd c43d
000001f0: b9d1 5abe 245b 593d e282 003e 259f 893e
00000200: 037d 36be 1ed2 323e d4a1 a2bd affb d4bd
00000210: 185c fe3d 4a5f 32bd 555c ea3c ab94 2e3e
00000220: 9f68 4a3e d732 23be a31e 16be 12fb 0b3e
00000230: 81e4 173e acbd 6b3a b875 1e3d 1c31 34be
00000240: 0136 6cbe d579 1bbe ed65 863e de7d 53be
00000250: b24b 6e3c 3bd5 bbbd d206 fb3d c82d ecbd
00000260: 6353 f4bc 330e ce3d 547b cc3d bc6d d83e
00000270: 8e49 e83e ee30 4dbd 8cd9 e23d f873 24bd
00000280: 097e 303e ded3 9a3d 8093 4f3d 22f3 debc
00000290: 8e96 8fbe 4769 c93c 1431 c9bd ea53 4e3e
000002a0: e963 edbd d5c0 afbe d20b 85be 5278 06be
000002b0: eff1 d23d b344 4f3e 7faf 08be b788 52be
000002c0: 6072 323e 132e c63e df57 aebc 4c37 3abe
000002d0: 51f4 85be 17d3 cf3d 21d0 8bbc 38bf bf3d
000002e0: b8ef 483d 5861 50bd e0ca 393e 3030 383d
000002f0: 0cd9 f83c b864 7b3e ec0c 183e abe1 483e
00000300: 165c 003e a819 65be f80c e83d 08d2 903b
00000310: 2b03 ce3c 7a19 cf3d 6403 a6bd 53d8 94be
00000320: ef03 9cbe 8a1c 46bd 4609 70bd aeac 91bd
00000330: 445c 38bd 679d 0abe b44c 5d3e 0178 66be
00000340: e0d1 c0bd fd28 183c dff8 14be 1ce9 c13e
00000350: e334 23be 1c57 36be ed24 403e 8510 d43d
00000360: cd2c 6d3d 1946 663d 7be5 f33e 373c 1b3e
00000370: d645 1bbe 3d77 ac3d fa98 ab3b cd23 9cbd
00000380: 9804 5d3c cdbe 743e 7aeb 3d3d 9e39 5e3e
00000390: 9cfc dc3b 0fd3 ca3c d413 ec3d 21c7 debd
000003a0: c60a d8bd e816 b1bd 2c99 353d 99d7 a6bd
000003b0: bbe1 08bf b3fb f5be e766 6b3d 9be1 2d3e
000003c0: 4d13 b03d b72a 0abd 4e88 63be 213d a4bd
000003d0: 3da8 a03d 640d efbd 344a 9f3c d899 893e
000003e0: b219 72be fc51 8fbd b452 70bd dfe5 943e
000003f0: 06be b53e a5ea 56bc 8681 203e 4090 66bd

model.2.bias f4 [5]
0.32589003 -0.8827844 -0.30519566 0.29039866 -0.2694236
00000000: 0fdb a63e 29fe 61bf 9b42 9cbe 22af 943e
00000010: e4f1 89be
