BRCA/models/C_best_1703028637.pth (torch, 67616 bytes, 4 tensors)

model.0.weight f4 [125, 125]
0	0x3d649ab5	0.055811603
1	0x3dcf6a31	0.10127676
2	0x3e27f690	0.1640265
3	0x3c898083	0.016784912
4	0x3c341d6d	0.010993344
5	0x3e12a4d7	0.14320694
6	0x3e836f40	0.25670815
7	0xbc91f726	-0.017818045
8	0x3d871fec	0.065978855
9	0xbb5e8b75	-0.0033957635
10	0x3e763f6e	0.24047634
11	0x3e9f149a	0.31070405
12	0x3db45f5f	0.08807253
13	0x3e15235a	0.14564267
14	0x3d7c9459	0.061664913
15	0x3dbe6ffa	0.092987016
16	0xbc9496da	-0.018138338
17	0x3e2a7ba5	0.16648729
18	0xbd987e6f	-0.0744599
19	0xbe117596	-0.14205012
20	0xbdbc71fb	-0.092014275
21	0x3da929c7	0.082599215
22	0x3dc86a2a	0.09785874
23	0xbd11d2a8	-0.035601288
24	0x3df7b59b	0.12095185
25	0x3e9b31ca	0.30311424
26	0x3debd062	0.11514355
27	0x3dcf31e5	0.101169385
28	0x3d0683d8	0.03284058
29	0x3d3b68fe	0.045754425
30	0xbb1231b9	-0.002230747
31	0xbd389b1e	-0.045069806
32	0x3dfc12c4	0.12308267
33	0x3e2afbe1	0.16697647
34	0xbe28e8ec	-0.16495103
35	0x3e40bd35	0.18822177
36	0x3e04eb74	0.12980443
37	0x3e1c3d9e	0.1525788
38	0x3e95b34b	0.29238352
39	0x3c543de5	0.01295421
40	0x3e82d144	0.25550282
41	0x3cb53d9e	0.022124108
42	0x3e18c275	0.1491793
43	0x3db4be41	0.088253506
44	0x3cfd5461	0.030924024
45	0x3e41175c	0.18856567
46	0x3c97e690	0.018542558
47	0xbb7b4821	-0.0038342553
48	0xbdfe4712	-0.12415899
49	0xbd8798ba	-0.06620927
50	0x3e8b5fe9	0.2722161
51	0xbd9cadd8	-0.076503456
52	0xbcdf8e94	-0.027289666
53	0x3dd55daa	0.104182556
54	0x3e026b69	0.12736286
55	0x3ce52fa2	0.027976815
56	0xbe0b274e	-0.13589212
57	0xbcffcf63	-0.03122682
58	0xbdac9f79	-0.084288545
59	0xbc8c2369	-0.017106729
60	0x3e442790	0.19155717
61	0x3d34cbca	0.04413966
62	0x3e09f3d7	0.13471924
63	0x3d844f43	0.064604305
64	0x3e135567	0.14388047
65	0x3ea39da9	0.31956223
66	0x3ec3cf20	0.3824396
67	0x3dcbe8bf	0.09956502
68	0x3cfbca0f	0.030735997
69	0x3d7881f4	0.060670808
70	0xbdde65a1	-0.10859228
71	0x3dc90676	0.098156855
72	0x3e28c953	0.16483049
73	0xbd63544e	-0.05550032
74	0x3d837688	0.064190924
75	0x3d92d137	0.07168811
76	0xbcc5e648	-0.024157658
77	0x3e39d8e4	0.18149143
78	0xbe152589	-0.145651
79	0x3c7501dd	0.0149540575
80	0x3c1902de	0.0093390625
81	0x3db11634	0.08646813
82	0x3d55f126	0.05223193
83	0xbe7115fe	-0.23543546
84	0xbdc57fb0	-0.09643495
85	0x3ded8cf4	0.1159915
86	0x3df1f4da	0.1181428
87	0x3cb8430f	0.022492914
88	0xbdc652c3	-0.09683754
89	0xbd4d6341	-0.050143484
90	0x3d70d423	0.05879606
91	0x3d188f64	0.037246123
92	0x3d610c23	0.054943215
93	0xbea4e425	-0.3220531
94	0xbd87e212	-0.06634916
95	0x3d132136	0.035920344
96	0x3d069cf3	0.032864522
97	0xbd8ca9db	-0.06868335
98	0xbdfd28c5	-0.12361292
99	0xbccce562	-0.025011722
100	0x3e72c87b	0.2370929
101	0x3b42bb1c	0.0029713577
102	0x3d5734f0	0.05254072
103	0xbcf2acf9	-0.029623495
104	0x3d474cde	0.04865729
105	0xbdf1f48e	-0.11814223
106	0xbd216cd1	-0.039410416
107	0x3dc8f2d2	0.09811939
108	0x3d012172	0.031526037
109	0xbd807787	-0.06272798
110	0xbdf64e9a	-0.12026711
111	0x3e13e491	0.1444266
112	0x3e3b9943	0.18320183
113	0xbeac1ead	-0.33617154
114	0xbe01f782	-0.12692073
115	0xbd392068	-0.04519692
116	0x3dc5ffe3	0.09667947
117	0xbd42fada	-0.047602512
118	0xbe2e4e78	-0.17022121
119	0x3be7083f	0.0070505436
120	0xbca04737	-0.019565208
121	0xbd4ade01	-0.049528126
122	0xbcfb9a6c	-0.030713283
123	0x3c130d15	0.008975287
124	0x3d8016cd	0.06254349
125	0xbe001dfb	-0.12511437
126	0x3dca255d	0.09870408
127	0x3df774e3	0.12082841
128	0xbe77f001	-0.24212648
129	0x3cd70d3b	0.026251426
130	0xbc6a581c	-0.0143032335
131	0x3db41b50	0.08794272
132	0x3d65a16e	0.056062154
133	0xbd37ea17	-0.04490098
134	0x3cb0a9dd	0.021565372
135	0xbe252afc	-0.16129678
136	0x3d61bd17	0.05511197
137	0xbd8ce7da	-0.0688016
138	0xbd20c5f2	-0.039251275
139	0xbd8ae466	-0.06781845
140	0xbdebd741	-0.11515666
141	0x3c6d5897	0.0144864535
142	0x3d29b6f2	0.041434236
143	0xbdcf8f73	-0.10134783
144	0xbdab8799	-0.083754726
145	0x3d3eb241	0.046556715
146	0xbe0da769	-0.13833393
147	0x3d32d5a9	0.043660793
148	0x3baa4ec0	0.005197376
149	0xbd4ede4b	-0.050504964
150	0x3bf1cbfd	0.0073790536
151	0x3d12ba7f	0.035822388
152	0x3e775559	0.24153651
153	0x3e376f58	0.17913568
154	0xbe826d13	-0.25473842
155	0x3d6d0225	0.057863373
156	0xbd430051	-0.047607724
157	0xbddb8bc0	-0.107200146
158	0x3e32cd9b	0.17461245
159	0xbe056161	-0.13025428
160	0x3d901715	0.070356525
161	0x3d73fd86	0.05956795
162	0xbd8afe0b	-0.06786736
163	0x3d1273d9	0.035755012
164	0x3e10709f	0.14105462
165	0xbe85e9f2	-0.2615505
166	0x3dd2b07b	0.10287567
167	0x3d1c6cec	0.038189813
168	0xbd02dad7	-0.031946983
169	0xbda9442a	-0.082649544
170	0xbd58caf3	-0.052927922
171	0xbd20576f	-0.039145883
172	0x3da280b9	0.07934708
173	0x3d93067e	0.07178973
174	0x3cea8451	0.028627547
175	0xbe43aaf9	-0.1910819
176	0xbdc255d0	-0.09489024
177	0x3e22ef78	0.15911663
178	0x3e26cf54	0.16290027
179	0x3c7f3c1c	0.015578296
180	0xbde5a31a	-0.1121275
181	0x3d7e84eb	0.06213848
182	0xbdc50851	-0.09620727
183	0x3de6f7a5	0.11277703
184	0x3d9d06d3	0.07667317
185	0x3df484b4	0.119393736
186	0x3aa297b5	0.0012404831
187	0x3e5853f0	0.2112577
188	0xbbe73c07	-0.0070567164
189	0x3eaf9da0	0.34299946
190	0x3dac4272	0.08411111
191	0xbdbd385a	-0.09239264
192	0x3e1c1088	0.15240681
193	0x3e3ae148	0.1825
194	0x3e07a133	0.13245086
195	0x3e2ba008	0.16760266
196	0xbcc70c85	-0.024297962
197	0x3e2633b2	0.16230658
198	0xbc8d60f2	-0.017258141
199	0x3e090130	0.13379359
200	0x3d1b9624	0.037984982
201	0xbb0887f7	-0.0020832994
202	0x3e0bbd0b	0.13646333
203	0x3e4bdd2c	0.19908589
204	0x3dcdb287	0.10043817
205	0x3e56c6d6	0.20974287
206	0xbd820120	-0.06347871
207	0xbc0764ce	-0.00826378
208	0xbc8c7ca4	-0.017149277
209	0xbd85845d	-0.06519387
210	0xbe138da6	-0.14409503
211	0xbe60a56e	-0.21938106
212	0x3e5c735c	0.21528381
213	0x3deb8eed	0.1150187
214	0x3d78e4aa	0.060764946
215	0x3dec7785	0.11546234
216	0x3d38880f	0.04505163
217	0x3e04ecd4	0.12980968
218	0x3ea3f24e	0.320208
219	0x3dcbb841	0.09947253
220	0xbd8176d8	-0.06321496
221	0x3df3ae85	0.11898521
222	0xbc5dd9ac	-0.013540667
223	0x3d4078bf	0.046990152
224	0x3de10e05	0.10989002
225	0x3d10263c	0.035192713
226	0xbc81fe6e	-0.015868392
227	0x3d9933d9	0.07480592
228	0x3c8ef64b	0.017451426
229	0xbd50220f	-0.05081373
230	0xbd017cc2	-0.03161312
231	0xbdfd9d8d	-0.12383566
232	0x3e11fe04	0.14257056
233	0x3cd774b9	0.026300775
234	0xba52956c	-0.000803313
235	0x3c8d9325	0.017282078
236	0xbd76b040	-0.06022668
237	0x3e031eea	0.12804762
238	0x3e08d4a7	0.1336237
239	0x3e52528c	0.20539302
240	0x3e18ef81	0.14935113
241	0xbdcc9e91	-0.09991182
242	0x3cfa8e25	0.030585358
243	0x3e2d76d2	0.16939858
244	0x3cd959a7	0.026532007
245	0x3da5e14a	0.08099611
246	0x3e083a53	0.13303499
247	0x3e0de649	0.13857378
248	0xbc68103a	-0.014164025
249	0x3d01e051	0.031708065
250	0xbc9ef636	-0.019404512
251	0x3cd5d6ee	0.026103463
252	0x3e282a7f	0.16422461
253	0xbc8834e6	-0.016626786
254	0xbd8748a9	-0.06605656
255	0x3e16e33c	0.1473512

model.0.bias f4 [125]
0	0xbc801922	-0.015636984
1	0x3d49d41e	0.049274556
2	0x3d5524ec	0.052037165
3	0xbc37a405	-0.011208539
4	0xbcd312eb	-0.025765857
5	0x3d5a5172	0.05330033
6	0x3d39c4f5	0.04535385
7	0xbcf8c7fe	-0.030368801
8	0x3d423ceb	0.047421377
9	0xbb8388d7	-0.0040141153
10	0xbcba1b96	-0.022718232
11	0xbcddb0d2	-0.027061854
12	0xbcd87bfa	-0.026426304
13	0x3e01f3d8	0.12690675
14	0x3d7ad682	0.061239727
15	0x3d5985dc	0.053106174
16	0x3d5af0d7	0.05345234
17	0x3b5aa53c	0.0033362648
18	0x3bcbdd46	0.006221446
19	0x3d72d647	0.059286382
20	0x3d54b26d	0.051927973
21	0x3d66e81f	0.05637371
22	0x3d4d88c1	0.050179247
23	0xbd0d1d2a	-0.03445164
24	0x3baa053e	0.005188613
25	0x3bd17950	0.0063926354
26	0x3d50529c	0.050860032
27	0xbc2f0c7b	-0.010684128
28	0xbd0b91b4	-0.0340745
29	0xbcfda6f9	-0.030963408
30	0x3d9a6919	0.07539577
31	0xbd3ec903	-0.04657842
32	0xbd32bbc2	-0.04363609
33	0xbbd11a3c	-0.006381301
34	0xbc8a973f	-0.016917823
35	0x3d8930b2	0.06698741
36	0xbcc9b7d5	-0.02462379
37	0x3bc0ae27	0.0058801356
38	0x3d450e03	0.048109066
39	0xbc3b08e6	-0.011415696
40	0x3d8159ca	0.06315954
41	0x3e02ffb7	0.1279286
42	0x3d53b4a3	0.05168594
43	0xbcbc0f48	-0.022956505
44	0x3d675cfe	0.05648517
45	0xbcc394a9	-0.023874598
46	0xbccf0806	-0.02527238
47	0xbcd4f928	-0.025997713
48	0x3dbb8ea3	0.09158065
49	0xba8da700	-0.0010807216
50	0x3d94170a	0.07230957
51	0xbd0479dd	-0.03234278
52	0x3d74c155	0.05975469
53	0x3d467187	0.04844811
54	0xbc4a232e	-0.012337489
55	0xbd58ee7b	-0.052961808
56	0xbce1ef0c	-0.027579807
57	0x3d705470	0.058674276
58	0x3d82870b	0.06373414
59	0x3d9bf53e	0.076151356
60	0x3d0e4f63	0.034743678
61	0x3d2bea17	0.041971292
62	0xbc1e1b28	-0.009650029
63	0x3d825255	0.0636336
64	0x3d68f1be	0.05687117
65	0x3d670abd	0.056406725
66	0xbcfa82c6	-0.030579936
67	0xbc1056cc	-0.0088097565
68	0x3d64dec2	0.0558765
69	0xbaeb4a96	-0.0017951305
70	0x3c82366b	0.01589509
71	0x3d6cbeb9	0.057799075
72	0x3d754825	0.059883256
73	0xbcc6ac12	-0.024251971
74	0x3d4251e5	0.047441382
75	0x3c8f35b5	0.017481664
76	0x3db0d115	0.08633629
77	0x3db707f1	0.089370616
78	0x3bea574d	0.0071515203
79	0x3d986ab3	0.07442226
80	0x3dd29bee	0.102836475
81	0x3e2032e9	0.1564442
82	0x3db38715	0.08765999
83	0xbcedd58d	-0.029032493
84	0x3d3cbb64	0.046077147
85	0x3d7cf8f4	0.061760858
86	0x3ac1ec25	0.0014795108
87	0xbc2b6eae	-0.0104634
88	0xbcf16efe	-0.02947187
89	0xbcf3d58d	-0.029764915
90	0x3dd82314	0.105535656
91	0xbcfa9ec0	-0.030593276
92	0x3d4c9deb	0.04995529
93	0x3da34e36	0.07973902
94	0x3d969745	0.07353071
95	0x3da6e0cd	0.08148346
96	0x3da5ab92	0.08089365
97	0xbc042e79	-0.008067721
98	0x3db07ebc	0.08617923
99	0xbce22cc5	-0.027609238
100	0x3d5a7e79	0.05334327
101	0x3d8b5821	0.06803919
102	0x3ddf2263	0.108952306
103	0x3db81c9a	0.0898983
104	0xbd0373c0	-0.03209281
105	0xbca34626	-0.01993091
106	0xbc4fd594	-0.012685198
107	0xbbcfe87f	-0.0063448544
108	0xbcc392a5	-0.023873636
109	0x3d4ebba9	0.050471935
110	0x3d9975f7	0.07493203
111	0x3d57b045	0.052658338
112	0x3d8a29c9	0.06746251
113	0x3d77eb83	0.060527336
114	0xbc178f45	-0.009250467
115	0x3d3cff9b	0.046142202
116	0xbbdd742b	-0.006758233
117	0x3d286f1d	0.04112159
118	0x3d6bed95	0.057599623
119	0x3d4c6690	0.0499025
120	0x3d76909b	0.0601965
121	0x3d9ed575	0.077555574
122	0x3d1cfaa1	0.038324956
123	0xbd2aa377	-0.0416598
124	0x3d849d9d	0.06475375

model.2.weight f4 [5, 125]
0	0x3ea8ec8f	0.3299298
1	0xbda3f9d9	-0.08006639
2	0xbdc7984c	-0.09745845
3	0x3d23339d	0.039844144
4	0xbde28a54	-0.1106154
5	0xbe05e270	-0.1307466
6	0x3d432b55	0.047648747
7	0xbdcec852	-0.10096802
8	0x3d305157	0.04304632
9	0xbe4fcdfc	-0.2029342
10	0xbe0a9c1d	-0.13536115
11	0xbdc291e8	-0.09500486
12	0x3dafac96	0.0857784
13	0xbea807af	-0.32818362
14	0x3dcf4caf	0.10122048
15	0x3d8c3f13	0.06847968
16	0xbda7ad3a	-0.08187337
17	0x3df7de78	0.121029794
18	0x3e4131fb	0.18866722
19	0xbc5053ac	-0.012715261
20	0xbe905ac3	-0.28194246
21	0xbdd70a37	-0.10499995
22	0xbe23f0f1	-0.1600988
23	0x3df2c619	0.118541904
24	0x3e843a63	0.25825796
25	0xbeb0fc1e	-0.3456735
26	0xbd94eab4	-0.072713286
27	0x3d3d375e	0.04619538
28	0x3d8b083a	0.067886785
29	0xbd99840c	-0.07495889
30	0x3c85eef8	0.0163493
31	0x3e27af2c	0.16375417
32	0x3ced84cf	0.028993992
33	0x3e0577e8	0.13034022
34	0x3dcd41d8	0.10022324
35	0x3ddb70a4	0.10714844
36	0xbe0485dd	-0.1294169
37	0x3e47bd0f	0.19505714
38	0x3e9e95b3	0.30973586
39	0xbe304511	-0.17213847
40	0x3defe520	0.11713624
41	0x3ca232b6	0.019799571
42	0xbd4496aa	-0.047995247
43	0xbe7d3eed	-0.24731036
44	0xbe0412f1	-0.1289785
45	0x3ca761cb	0.020432374
46	0xbe3cd3ed	-0.18440218
47	0xbdeefc70	-0.116692424
48	0xbe3cf89e	-0.18454215
49	0xbe5f8591	-0.21828295
50	0xbef6b8f5	-0.48187986
51	0xbd769948	-0.060204774
52	0x3ac46589	0.0014983873
53	0xbe866459	-0.26248434
54	0x3b7974b1	0.0038063938
55	0xbdb98eb0	-0.090604186
56	0xbdfb76ed	-0.12278543
57	0x3d4b8d6c	0.049695417
58	0x3e92becb	0.28661188
59	0xbe4bfb39	-0.19920053
60	0x3e2e9b4b	0.17051427
61	0xbe4cbec1	-0.19994642
62	0x3d1d7978	0.03844592
63	0x3e26f412	0.16304043
64	0x3e063e98	0.13109815
65	0x3c3ef2f0	0.0116546005
66	0x3ebad444	0.3649007
67	0x3d1f2fef	0.038864072
68	0xbe29eda5	-0.1659456
69	0x3d8a23c9	0.06745107
70	0x3c4564d4	0.012047965
71	0x3c47746c	0.012173753
72	0xbdeda563	-0.11603811
73	0x3d271e52	0.0408004
74	0xbe7de8d2	-0.24795845
75	0xbee57af8	-0.4482038
76	0xbe9cb705	-0.30608383
77	0xbe640ddd	-0.22270913
78	0x3ee1af36	0.44078988
79	0xbeb15d96	-0.34641713
80	0x3e373403	0.17890935
81	0x3d2ca969	0.04215375
82	0x3e22cfdf	0.15899609
83	0xbe3df6ae	-0.18551132
84	0x3c198006	0.009368902
85	0xbe6061bf	-0.21912287
86	0x3e175a11	0.14780451
87	0x3dc78b47	0.09743362
88	0x3ed10c15	0.4082953
89	0xbe31069c	-0.17287678
90	0x3e0511b0	0.12995028
91	0xbd9277a2	-0.071517244
92	0x3e0684bb	0.1313657
93	0xbdad9bd1	-0.08476985
94	0x3e3bc1a4	0.18335587
95	0x3e28f88a	0.1650106
96	0xbe74618d	-0.23865338
97	0x3e258dc5	0.16167362
98	0xbe0e5d65	-0.13902815
99	0xbd033b9b	-0.032039266
100	0xbcc29560	-0.023752868
101	0xbd629ecf	-0.055327233
102	0x3da2f108	0.07956129
103	0x3e5c8207	0.21533976
104	0xbdc8bcd2	-0.098016396
105	0x3e998050	0.29980707
106	0xbd149ed6	-0.03628429
107	0x3e82ab92	0.25521523
108	0x3e78c6ce	0.24294588
109	0xbd564172	-0.052308507
110	0x3c5d0661	0.01349029
111	0xba115e9e	-0.000554541
112	0xbdb3c20d	-0.087772466
113	0xbe57824a	-0.21045795
114	0x3e91b46c	0.28457963
115	0xbe2d115c	-0.16901153
116	0xbcc44dd1	-0.023962887
117	0xbe415216	-0.1887897
118	0xbd1b88dc	-0.037972316
119	0xbc6fa50d	-0.0146267535
120	0xbbbf47af	-0.005837403
121	0xbdbc3e3a	-0.09191556
122	0x3e6d15f4	0.23152906
123	0xbd152b4a	-0.036418237
124	0xbe448eca	-0.19195095
125	0x3a372801	0.0006986857
126	0xbd965adf	-0.07341551
127	0x3deba8a4	0.11506775
128	0xbdd112ac	-0.102086395
129	0x3e21fd64	0.15819317
130	0xbe4702a4	-0.19434601
131	0xbdc3a238	-0.09552425
132	0x3e1763c7	0.14784156
133	0xbe79a687	-0.24379931
134	0xbeb508e2	-0.3535834
135	0xbea6d855	-0.32586923
136	0xbe58ea69	-0.2118317
137	0x3d0f53d2	0.034992047
138	0xbeb89a37	-0.36055157
139	0xbcd62243	-0.026139384
140	0x3d90637a	0.07050224
141	0x3d83bde1	0.06432701
142	0x3dec610a	0.11541946
143	0xbcc282c1	-0.023743989
144	0xbddfcae5	-0.10927371
145	0x3dd03ab9	0.101674505
146	0xbbeb7e3d	-0.0071866796
147	0xbe1b64e4	-0.15175205
148	0x3db5cd9f	0.0887711
149	0xbd36bdd4	-0.044614628
150	0x3dec7369	0.1154545
151	0xbe0f584d	-0.13998528
152	0xbe525429	-0.20539917
153	0x3de2230d	0.11041842
154	0x3d4aa1ed	0.04947083
155	0xbe89a81e	-0.26886076
156	0x3d534788	0.05158189
157	0xbd5de5a5	-0.054174084
158	0x3d1c1e67	0.03811493
159	0x3e22669b	0.15859453
160	0x3e3b4a47	0.18290053
161	0x3e6e359a	0.23262635
162	0x3e8515b1	0.25993112
163	0xbde98829	-0.114029236
164	0x3e73cf14	0.23809463
165	0xbdee8bfb	-0.11647793
166	0xbe37a886	-0.1793538
167	0x3ccf5bfb	0.025312414
168	0x3dc836ea	0.09776099
169	0xbe43e5b3	-0.19130592
170	0x3e08e24d	0.13367577
171	0xbecc74c6	-0.3993284
172	0x3e177d1f	0.14793824
173	0xbe89dd1a	-0.269265
174	0x3d833e73	0.064083956
175	0x3e1e282e	0.15445015
176	0x3dea85bd	0.1145129
177	0xbe3ad913	-0.1824687
178	0x3cbf0ef6	0.023322564
179	0x3e77e3c3	0.24207978
180	0x3d7828d9	0.06058583
181	0xbd005f9f	-0.03134119
182	0xbe63fa3b	-0.22263424
183	0xbe2ce0e8	-0.1688267
184	0xbe308613	-0.17238645
185	0x3eb646f4	0.35601008
186	0x3e05a784	0.13052183
187	0x3c6a945b	0.014317597
188	0xbe1b0f01	-0.15142442
189	0xbe1904d8	-0.14943254
190	0x3e5c2739	0.21499337
191	0xbe00b29d	-0.12568136
192	0x3dae32db	0.08505794
193	0xbe1f7190	-0.15570664
194	0x3da8710a	0.082246855
195	0x3e05f120	0.13080263
196	0xbe77c4aa	-0.24196115
197	0x3cb81b41	0.022473933
198	0x3c247bc8	0.010039277
199	0x3e4f5c80	0.2025013
200	0x3e0c24d2	0.13685921
201	0xbe963be7	-0.29342577
202	0x3e269210	0.16266656
203	0xbe93f577	-0.28898212
204	0x3caf6879	0.021412121
205	0xbe2e81c3	-0.17041688
206	0x3e349ecc	0.17638701
207	0xbe3db45b	-0.18525831
208	0x3da95e50	0.08269942
209	0xbe2a000f	-0.16601585
210	0xbe1625d5	-0.1466287
211	0x3da51ab3	0.08061733
212	0x3e715a00	0.23569489
213	0xbcac3fdc	-0.021026544
214	0x3e34c011	0.17651393
215	0x3c6ad7ad	0.014333648
216	0xbbbc8da9	-0.005754192
217	0xbcc8360a	-0.02443983
218	0xbe23e254	-0.16004306
219	0xbdddcbfc	-0.108299226
220	0xbd407aee	-0.046992235
221	0xbeeedcb2	-0.46652752
222	0xbdac71c2	-0.08420135
223	0xbe2c9e35	-0.16857226
224	0xbd57b606	-0.052663825
225	0xbcf7bd9f	-0.030241786
226	0xbe63d02d	-0.22247382
227	0x3d82dc4e	0.06389676
228	0xbec652a7	-0.38734934
229	0x3e5a0fbe	0.21295068
230	0x3d647914	0.05577953
231	0x3da880ea	0.082277134
232	0xbbe5b8dd	-0.007010563
233	0x3e3a703b	0.18206875
234	0xbe6220b5	-0.22082789
235	0xbe256730	-0.16152644
236	0xbe10462e	-0.14089271
237	0xbde84f79	-0.11343283
238	0xbe369a20	-0.17832232
239	0xbe1aefd7	-0.15130554
240	0x3e324287	0.1740819
241	0xbeac6c42	-0.33676344
242	0xbe2ff735	-0.17184146
243	0x3e8dfac2	0.27730376
244	0xbe157d9e	-0.145987
245	0xbe1570e5	-0.14593847
246	0xbd6f2739	-0.058387015
247	0xbe13322c	-0.14374608
248	0xbc6a51ff	-0.014301776
249	0xbe01abe3	-0.12663226
250	0x3dbf2f0f	0.093351476
251	0x3daa01af	0.08301102
252	0xbe380d72	-0.17973879
253	0xbca99b82	-0.020704035
254	0x3e69dabb	0.22837345
255	0x3ce508e5	0.027958343

model.2.bias f4 [5]
0	0xbce91b25	-0.028455326
1	0xbd4488a4	-0.047981873
2	0xbd2b283d	-0.04178642
3	0x3d2c4fac	0.04206817
4	0xbd35f365	-0.044421572
