BRCA/models/C_best_1702941393.pth (torch, 67616 bytes, 4 tensors)

model.0.weight f4 [125, 125]
-0.2215633 -0.54806566 -0.42876023 1.4782001 0.30132315 -0.51028705 -0.12760791 -0.11239779
1.5930525 0.5193818 -1.7548974 -1.1846424 -1.5436478 -0.8313821 -0.045861762 0.72233796
1.3354405 -0.7004656 -0.8333306 0.2733263 -0.60264355 -0.24469136 0.3087377 -3.4373841
-1.7594051 -0.16218135 0.3619291 1.2196966 -0.5579682 -0.020456338 0.13696384 0.49816713
1.3213111 -0.12125265 0.7956422 -1.2278539 -0.6778477 -0.47397456 -0.5186103 0.50578254
-0.45654014 1.1776861 1.6022036 1.5557576 -1.259095 0.049581043 0.04413034 -0.030841962
2.0767474 0.02152897 -0.9810206 -0.49637505 -0.20227486 -1.8509829 -0.29688844 -0.17932509
-0.068366915 0.16735034 -2.629703 -0.36264893 -1.120263 -1.263926 -2.028759 -2.226391
-1.013174 0.24748863 -0.68690056 -0.6056287 1.0953026 1.4806803 0.7084343 -0.072634034
-0.37459216 0.23024708 -0.24057508 0.049360167 -1.4020017 -1.5839434 -0.8991648 -0.70625734
0.92494076 1.1085881 -0.4553238 -1.1520373 1.0064071 0.14400545 2.2228894 -0.6813743
-1.7614611 -0.6802461 0.20112754 -3.3346722 -1.3991177 -0.23976609 -0.8968204 0.1745723
-0.24294095 -0.039496843 -0.51147884 -0.9008726 0.42019686 0.261279 0.03826124 -0.39580107
-0.9093002 1.6982846 0.5840982 0.39469028 0.38250265 0.03237325 2.3439894 0.7905489
-0.9267152 -0.5916317 0.15312138 0.36564958 -2.1940336 -0.19761138 0.21119358 -0.36848325
0.5459581 -0.38162336 0.6247517 0.17308527 -0.10850218 -0.45160902 0.5348601 0.31716254
0.61114126 -0.3450374 0.1305749 0.71099025 0.5651967 0.8877845 0.65561914 -0.25644898
0.4868422 0.30507606 0.4238706 0.5531262 0.21745005 0.8139269 -0.46632186 0.80525523
0.36047056 -1.3942575 0.047354743 -0.57232296 -0.1612243 -0.66728973 -1.0295625 -0.19556354
-0.5125111 -0.81233406 -0.05917499 -0.2526232 -0.06555279 -0.3456851 0.19376624 0.580626
-0.7299075 -0.4922241 -0.94053006 -0.88765234 0.36998233 -1.0766287 -1.007577 -1.4692229
-0.5967346 -0.73911566 -1.1307099 -0.93060255 -1.2974603 0.03717473 -0.56603473 -0.56895
-0.2067945 -0.7722816 0.47846544 0.03434841 -0.3645374 -0.14162377 -0.65282315 0.75046575
-0.10891016 -0.593126 -0.54552096 -0.861534 -0.22001956 0.062226027 -1.2434264 -2.0970845
-2.1179411 0.13621719 -2.163961 -1.4245565 -1.4228622 -1.2813277 -0.7266291 -0.89778817
-1.171611 0.52908665 0.9324234 0.20210792 -0.86561334 -0.20037612 -0.35131443 0.8257181
1.9884624 0.18751651 0.2129985 -0.8255818 -0.05343582 0.4882563 -0.3044114 -0.11989991
1.6604996 1.172363 0.0992749 -0.1917278 -0.29200462 0.7404137 -0.16286 -0.2414411
-0.281921 -0.9089275 -0.2718384 -0.6160265 -0.12251977 0.67503875 0.73311317 -0.48052824
-0.60976285 -1.969431 0.17769435 -0.010675073 -0.98761964 -0.9576862 -1.5429579 -0.7194429
-0.5223532 0.15378027 -0.22785214 -0.18092386 0.28911334 0.5102702 0.25420228 -0.67912596
-0.6001202 -0.45299453 -0.33797294 -0.23968124 -0.03566297 -0.38515174 -1.3024898 0.44303536
00000000: 7de1 62be 084e 0cbf 7686 dbbe a935 bd3f
00000010: 0747 9a3e 2ca2 02bf a6ab 02be d030 e6bd
00000020: 25e9 cb3f 35f6 043f 7aa0 e0bf 5da2 97bf
00000030: 4096 c5bf 75d5 54bf 8bd9 3bbd 24eb 383f
00000040: b7ef aa3f b751 33bf 2755 55bf 6df1 8b3e
00000050: d946 1abf 5f90 7abe de12 9e3e 1afe 5bc0
00000060: 3034 e1bf de12 26be c54e b93e 051f 9c3f
00000070: 01d7 0ebf 0d94 a7bc 4040 0c3e c30f ff3e
00000080: b920 a93f 4f53 f8bd 35af 4b3f 512a 9dbf
00000090: 6d87 2dbf cbac f2be a5c3 04bf f77a 013f
000000a0: a1bf e9be 6bbe 963f 0215 cd3f 1123 c73f
000000b0: 062a a1bf 7e15 4b3d 04c2 343d 48a8 fcbc
000000c0: 6ee9 0440 865d b03c 2b24 7bbf df24 febe
000000d0: 2421 4fbe 02ed ecbf c301 98be ffa0 37be
000000e0: f403 8cbd e35d 2b3e 0e4d 28c0 1fad b9be
000000f0: c764 8fbf 54c8 a1bf 30d7 01c0 317d 0ec0
00000100: b0af 81bf a96d 7d3e b7d8 2fbf 7c0a 1bbf
00000110: e032 8c3f ef86 bd3f f35b 353f 27c1 94bd
00000120: 8bca bfbe e4c5 6b3e 5059 76be e32d 4a3d
00000130: cb74 b3bf a8be cabf aa2f 66bf 48cd 34bf
00000140: ebc8 6c3f 37e6 8d3f 3320 e9be f575 93bf
00000150: f3d1 803f 2a76 133e d243 0e40 8c6e 2ebf
00000160: 8f77 e1bf 9c24 2ebf 61f4 4d3e 456b 55c0
00000170: 4a16 b3bf 3e85 75be 0696 65bf 15c3 323e
00000180: 83c5 78be 71c7 21bd 47f0 02bf 969f 66bf
00000190: 0b24 d73e 5cc6 853e d1b7 1c3d 70a6 cabe
000001a0: e6c7 68bf 6461 d93f 7687 153f d814 ca3e
000001b0: 63d7 c33e d099 043d ec03 1640 6a61 4a3f
000001c0: 353d 6dbf 2d75 17bf dacb 1c3e 6c36 bb3e
000001d0: 0c6b 0cc0 a35a 4abe 2143 583e d6a9 bcbe
000001e0: e9c3 0b3f 2364 c3be baef 1f3f 443d 313e
000001f0: 6436 debd 4c39 e7be 97ec 083f 2163 a23e
00000200: c173 1c3f bea8 b0be 6db5 053e 7503 363f
00000210: bbb0 103f d845 633f a8d6 273f 484d 83be
00000220: 6143 f93e ee32 9c3e 9105 d93e ae99 0d3f
00000230: 3aab 5e3e 835d 503f bdc1 eebe 3525 4e3f
00000240: 998f b83e 0877 b2bf 0cf7 413d c283 12bf
00000250: fc17 25be 80d3 2abf b4c8 83bf cf41 48be
00000260: ed33 03bf 20f5 4fbf 7961 72bd d457 81be
00000270: 8b40 86bd a3fd b0be a86a 463e e8a3 143f
00000280: 38db 3abf cc04 fcbe 94c6 70bf 2f3d 63bf
00000290: 536e bd3e f8ce 89bf 48f8 80bf 7f0f bcbf
000002a0: 99c3 18bf af36 3dbf 1abb 90bf f83b 6ebf
000002b0: 2e13 a6bf 8844 183d a7e7 10bf b5a6 11bf
000002c0: f0c1 53be 3fb4 45bf 6cf9 f43e ebb0 0c3d
000002d0: a5a4 babe d205 11be 6b1f 27bf 861e 403f
000002e0: 4a0c dfbd 1bd7 17bf 43a7 0bbf 7e8d 5cbf
000002f0: cf4c 61be b8e0 7e3d 9928 9fbf a236 06c0
00000300: 598c 07c0 857c 0b3e 567e 0ac0 de57 b6bf
00000310: 5920 b6bf 8c02 a4bf 5d04 3abf 72d5 65bf
00000320: 59f7 95bf 3972 073f 4db3 6e3f 61f5 4e3e
00000330: d698 5dbf 662f 4dbe 7cdf b3be 4362 533f
00000340: f085 fe3f 5404 403e 471c 5a3e 5459 53bf
00000350: 85df 5abd bbfc f93e d0db 9bbe 168e f5bd
00000360: 408b d43f fe0f 963f a450 cb3d 4b54 44be
00000370: a181 95be c18b 3d3f c6c4 26be 563c 77be
00000380: f357 90be 79af 68bf 672e 8bbe eab3 1dbf
00000390: a5eb fabd 57cf 2c3f 4ead 3b3f cc07 f6be
000003a0: 6b19 1cbf 5116 fcbf 82f5 353e 80e6 2ebc
000003b0: a4d4 7cbf ec2a 75bf a57f c5bf 692d 38bf
000003c0: f0b8 05bf 9378 1d3e 1252 69be 1b44 39be
000003d0: aa06 943e 11a1 023f cd26 823e 33db 2dbf
000003e0: 7aa1 19bf e6ee e7be ca0a adbe 006f 75be
000003f0: 5613 12bd 9c32 c5be fcb7 a6bf 88d5 e23e

model.0.bias f4 [125]
0.14309599 -0.09042339 0.017170893 0.42485404 0.23382007 0.02772221 0.25123015 -0.62049216
-0.13494611 0.11219902 -0.44650477 0.07445047 0.24216676 1.9494456 -0.34566647 -0.5912987
-0.5389972 -0.965889 -0.2389819 0.05621913 0.56774205 -0.21857996 -0.13838111 1.2074733
-0.14200802 -0.088902175 -0.39431673 1.3407565 -0.97586495 -0.19029197 0.24057391 -0.42288572
0.23125677 1.2932607 1.0580595 -1.9252226 -1.1431634 -0.0023094965 -0.20296977 0.24013104
-0.17316087 -0.40377825 -0.23560143 -1.0749546 -0.26137498 -0.86862487 0.24441892 0.029864892
1.6029662 0.097430885 -0.16382639 1.1418779 2.4744112 0.30804917 0.3807799 -0.6417472
-0.18582687 0.9643072 -1.8076924 -0.4002089 0.12452525 0.21460715 0.06895069 0.24702977
-0.90381014 0.3311614 -0.33129293 0.019157594 -0.10951697 -0.69620997 0.425867 -0.120771244
0.17581291 0.07974424 -0.0834388 0.061555263 0.03570659 0.028515546 0.35126996 -0.26106903
0.12233768 0.2019361 -0.24903512 0.063224554 1.7698426 -0.8491004 -0.10113233 0.5195694
0.07455709 -0.6992919 -0.19916439 -0.023101121 0.6490202 -0.89611703 1.1894503 -0.90136325
0.3426866 0.40457088 0.10153044 -0.26614946 0.009860035 -2.307685 0.25713244 -0.25707895
0.2355211 -0.029797552 -0.049435344 -0.25688234 -0.04357959 -0.3582927 -0.16900897 0.04778258
0.02388061 0.49308246 0.4461376 -0.68247825 0.25262582 0.0052096797 -1.0271859 0.5476856
-0.8266887 -0.44966736 -0.19542137 -0.60216707 -0.14469124
00000000: c187 123e e62f b9bd f9a9 8c3c 7886 d93e
00000010: 876e 6f3e b019 e33c 3da1 803e 93d8 1ebf
00000020: 502f 0abe 9ac8 e53d 469c e4be 7d79 983d
00000030: 90fa 773e 6f87 f93f 32fb b0be 5a5f 17bf
00000040: b8fb 09bf 8044 77bf acb7 74be 0846 663d
00000050: 8b57 113f 6dd3 5fbe c7b3 0dbe 7c8e 9a3f
00000060: 8d6a 11be 5812 b6bd e2e3 c9be e99d ab3f
00000070: 49d2 79bf e6db 42be 0259 763e 7a84 d8be
00000080: 93ce 6c3e 9189 a53f 7e6e 873f b26d f6bf
00000090: 2e53 92bf ec5a 17bb 4fd7 4fbe e9e4 753e
000000a0: 1551 31be 06bc cebe 8041 71be 1d98 89bf
000000b0: f1d2 85be 335e 5ebf f448 7a3e 38a7 f43c
000000c0: ff2d cd3f d889 c73d 1bc2 27be 0e29 923f
000000d0: c15c 1e40 9fb8 9d3e 95f5 c23e 8b49 24bf
000000e0: 6649 3ebe d6dc 763f 7762 e7bf 2ee8 ccbe
000000f0: 1807 ff3d fac1 5b3e 0536 8d3d 5ff5 7c3e
00000100: 1a60 67bf fd8d a93e 3a9f a9be 63f0 9c3c
00000110: 6f4a e0bd d13a 32bf 3d0b da3e ea56 f7bd
00000120: 4d08 343e f350 a33d f6e1 aabd 5f21 7c3d
00000130: 1341 123d 6f99 e93c a8d9 b33e d7aa 85be
00000140: 2d8c fa3d 56c8 4e3e 1003 7fbe e07b 813d
00000150: 348a e23f a55e 59bf 781e cfbd 8002 053f
00000160: 63b1 983d cb04 33bf c0f1 4bbe 903e bdbc
00000170: 3026 263f ed67 65bf e83f 983f bebf 66bf
00000180: 9e74 af3e ea23 cf3e 31ef cf3d be44 88be
00000190: fc8b 213c 1cb1 13c0 dda6 833e da9f 83be
000001a0: 712c 713e ff19 f4bc b77c 4abd 1586 83be
000001b0: 8380 32bd 2472 b7be b010 2dbe abb7 433d
000001c0: 45a1 c33c 4e75 fc3e 266c e43e e5b6 2ebf
000001d0: 2c58 813e f6b5 aa3b d47a 83bf 2035 0c3f
000001e0: dfa1 53bf cd3a e6be 8a1c 48be 9f27 1abf
000001f0: f129 14be

model.2.weight f4 [5, 125]
-0.22482267 -0.023607938 0.07833776 0.5724275 -0.16718155 -0.18226768 0.18533395 -0.043148153
-0.14962539 0.015369837 -0.28552186 0.6098165 -0.04756701 -0.5153702 0.18841091 -0.16680238
0.0688366 -0.19082801 0.24660252 -0.12762542 0.15030326 -0.04314421 0.32681078 -0.046901718
-0.40111956 -0.04404103 -0.26249346 -0.120158195 -0.24795349 -0.4463652 -0.29007375 -0.02266597
0.09510965 -0.4427161 -0.42941436 0.4051333 -0.04383429 -0.14537174 0.21063016 0.48264036
-0.046908624 -0.34709692 -0.42813912 -0.30840522 0.055633172 -0.09099784 0.15671512 -0.16153319
-0.11831598 0.07949922 -0.05307514 -0.29767075 0.09428216 0.19157319 -0.20606643 -0.2903442
-0.10330909 0.10638841 -0.8867047 0.06321132 -0.17717002 -0.0018584827 -0.122041464 -0.2366046
-0.062375486 -0.12381636 -0.29205242 -0.0960984 -0.25177208 -0.05287494 0.05746334 -0.217745
0.21978328 0.0817866 -0.12811877 -0.15142837 0.13179761 -0.2191109 0.097552456 -0.31689766
0.089937985 -0.3187719 -0.20309147 -0.10433313 0.031844098 -0.19024815 -0.07414016 -0.45142126
-0.2611374 -0.48373145 -0.04123226 0.35105884 0.24380037 -0.11434639 -0.00562762 -0.019599052
-0.014020998 0.76582587 -0.11886507 -0.18973345 -0.326795 -0.48123795 0.023200033 -0.010796669
0.09022324 0.11060031 -0.45856878 0.30229354 0.016221818 -0.11729058 -0.15814261 0.10176294
0.014480245 0.11382486 -0.09341201 0.9456452 0.32394463 -0.17180435 -0.05145728 -0.07757083
0.33924517 -1.0579298 -0.34846172 0.25773495 -0.09743375 0.07097775 0.14166056 0.106630854
0.56427526 -0.15243016 -0.17214148 0.20654315 0.53833026 0.012595666 0.05582573 0.05264481
0.5597616 0.1377801 -0.12770031 0.26163524 0.02328557 0.77950174 0.24340655 0.3817065
-0.21294425 -1.690967 0.0076775635 0.6452807 -0.15197995 -0.048767436 0.05906379 -0.07062841
0.025770226 0.24816193 -0.5301318 -0.027220948 -0.0024579528 0.07498228 0.48097512 -0.51053154
0.40549076 0.060350154 -0.19049078 0.49294928 0.28184536 -0.06012628 0.046066154 0.12442633
-0.19796051 0.19680707 0.07703665 0.27096507 -0.3840673 0.11179919 0.17876907 -0.1338167
-0.20822042 -0.76163244 0.07859044 0.06320141 0.06223113 0.080932416 -0.037578423 -1.4469464
0.096536025 -0.20592064 -0.05827504 0.01405905 0.1300886 0.05844386 -0.010411313 0.07185424
-0.048379283 -0.10219578 0.32423383 0.14174837 -0.31089434 0.22823067 -0.029589804 -0.12329545
0.014675414 0.17357112 -0.17926751 0.24590418 0.0002091045 0.16016778 -0.115525484 -0.034679353
-0.0101916855 0.011940663 0.34398532 0.017949672 0.11702598 -0.047432993 1.5006552 -0.10455572
-0.0299758 -0.41517338 -0.13185558 -0.2219913 -0.09426197 -0.011377912 -0.3701765 -0.20328633
-0.060547926 -0.11094082 -0.735628 0.3579983 -0.0054732473 0.35934836 0.16122532 -0.026752653
0.24165148 -0.03845388 0.0772804 0.21448661 0.16546983 -0.010631196 0.38373676 -0.12016088
0.7148179 -1.6676674 -0.022170253 0.41467446 0.024052734 0.06883707 -1.2829897 0.13983274
0.619904 -0.041222353 -0.0604868 -0.37938127 -0.009407373 -0.671665 -0.10455037 0.09712047
00000000: ea37 66be 6f65 c1bc 8c6f a03d 9c8a 123f
00000010: a431 2bbe 61a4 3abe 2fc8 3d3e 1ebc 30bd
00000020: 6637 19be c5d1 7b3c ec2f 92be ef1c 1c3f
00000030: a0d5 42bd 4def 03bf caee 403e 3ece 2abe
00000040: 34fa 8c3d 6b68 43be 5f85 7c3e 3db0 02be
00000050: 19e9 193e fcb7 30bd be53 a73e 041c 40bd
00000060: 8b5f cdbe 5e64 34bd 8b65 86be 8015 f6bd
00000070: 85e7 7dbe fb89 e4be 8c84 94be fcad b9bc
00000080: d9c8 c23d afab e2be 33dc dbbe a26d cf3e
00000090: 968b 33bd 54dc 14be 6faf 573e a31c f73e
000000a0: 4223 40bd b0b6 b1be 0d35 dbbe 4ae7 9dbe
000000b0: 9cdf 633d 135d babd ee79 203e f568 25be
000000c0: a64f f2bd 7dd0 a23d 5165 59bd 4d68 98be
000000d0: 0117 c13d c32b 443e 1403 53be ffa7 94be
000000e0: b793 d3bd 2be2 d93d 14ff 62bf f074 813d
000000f0: 0f6c 35be 5598 f3ba e0f0 f9bd 7a48 72be
00000100: 707d 7fbd 6f93 fdbd e587 95be 3dcf c4bd
00000110: 45e8 80be 6593 58bd ae5e 6b3d 8cf8 5ebe
00000120: de0e 613e bc7f a73d 9131 03be 0a10 1bbe
00000130: f4f5 063e 9c5e 60be 95c9 c73d 6940 a2be
00000140: 6831 b83d 1236 a3be 36f7 4fbe 9cac d5bd
00000150: f56e 023d 69d0 42be ccd6 97bd b020 e7be
00000160: cdb3 85be a6ab f7be 29e3 28bd fcbd b33e
00000170: cea6 793e 712e eabd e667 b8bb 318e a0bc
00000180: 54b8 65bc 2a0d 443f 886f f3bd 7c49 42be
00000190: ad51 a7be d264 f6be ff0d be3c 83e4 30bc
000001a0: f6c6 b83d 6a82 e23d 87c9 eabe 38c6 9a3e
000001b0: 9ee3 843c 0b36 f0bd 23f0 21be 1769 d03d
000001c0: 8d3e 6d3c 021d e93d cc4e bfbd ce15 723f
000001d0: 12dc a53e 7bed 2fbe dec4 52bd 75dd 9ebd
000001e0: 8bb1 ad3e 3e6a 87bf 9369 b2be d6f5 833e
000001f0: 598b c7bd c85c 913d 770f 113e 4761 da3d
00000200: 5874 103f a716 1cbe db45 30be 0c80 533e
00000210: 03d0 093f 0d5e 4e3c 85a9 643d 16a2 573d
00000220: 894c 0f3f 3a16 0d3e dfc3 02be 0ef5 853e
00000230: 61c1 be3c 6d8d 473f 913f 793e 096f c33e
00000240: 0f0e 5abe 9b71 d8bf 1294 fb3b 1e31 253f
00000250: a2a0 1bbe 5dc0 47bd dfec 713d a1a5 90bd
00000260: 151c d33c 291e 7e3e b8b6 07bf 77fe debc
00000270: 9b15 21bb 4f90 993d 5f42 f63e 32b2 02bf
00000280: 7c9c cf3e b931 773d 0410 43be d963 fc3e
00000290: 094e 903e f946 76bd ddaf 3c3d 3bd3 fe3d
000002a0: 29b6 4abe cb87 493e 64c5 9d3d efbb 8a3e
000002b0: 78a4 c4be f9f6 e43d 3d0f 373e 3f07 09be
000002c0: bc37 55be 58fa 42bf 06f4 a03d be6f 813d
000002d0: 12e6 7e3d e5bf a53d d5eb 19bd 8a35 b9bf
000002e0: aeb4 c53d dcdc 52be cfb1 6ebd ee57 663c
000002f0: f235 053e d462 6f3d 3694 2abc 5128 933d
00000300: 5b29 46bd 054c d1bd fa01 a63e 7c26 113e
00000310: 8b2d 9fbe 4db5 693e 5166 f2bc 5382 fcbd
00000320: 2671 703c a1bc 313e e791 37be 4ece 7b3e
00000330: 1043 5b39 0603 243e a098 ecbd f00b 0ebd
00000340: 07fb 26bc c5a2 433c d81e b03e 310b 933c
00000350: 51ab ef3d 1949 42bd 7815 c03f 4f21 d6bd
00000360: cf8f f5bc 9b91 d4be 2605 07be b051 63be
00000370: 6b0c c1bd 6c6a 3abc c687 bdbe 4b2a 50be
00000380: 1a01 78bd f134 e3bd 1e52 3cbf 8e4b b73e
00000390: ed58 b3bb 82fc b73e 4018 253e 6128 dbbc
000003a0: 7c73 773e d181 1dbd 3045 9e3d 61a2 5b3e
000003b0: ec70 293e 782e 2ebc 2579 c43e e816 f6bd
000003c0: 4efe 363f 2076 d5bf 649e b5bc 3650 d43e
000003d0: 3d0a c53c 73fa 8c3d 0239 a4bf 5030 0f3e
000003e0: 07b2 1e3f c5d8 28bd 02c1 77bd 433e c2be
000003f0: 6221 1abc 3df2 2bbf 811e d6bd 19e7 c63d

model.2.bias f4 [5]
0.014361776 -0.40291306 -3.1447334 0.88742924 -0.16662034
00000000: a84d 6b3c 9f4a cebe 5043 49c0 902e 633f
00000010: 869e 2abe
