BRCA/models/C_best_1702938751.pth (torch, 67616 bytes, 4 tensors)

model.0.weight f4 [125, 125]
000000 78 07 07 bf 00 9f c2 be b4 d5 d4 be 16 82 ca bc
       -0.5274577 -0.38011932 -0.41569293 -0.024720233
000010 1f c0 8d bf d3 a2 dd bd fa 87 09 be b8 7a 5f bd
       -1.1074256 -0.10822072 -0.13430777 -0.054560393
000020 44 7d b4 bf d8 58 e9 3e 7c 08 10 be 91 c6 1c be
       -1.4100728 0.45575595 -0.14065737 -0.15310122
000030 74 01 fa bd 6b 3f 8d 3d 16 72 f0 3d 47 1b 01 be
       -0.122073084 0.06896862 0.1174051 -0.12608062
000040 ee da 15 3c fe 3d da bd 3e ca ad 3f 13 ca 17 3f
       0.009146435 -0.10656355 1.3577344 0.59292716
000050 a4 b6 ea 3d 6a e4 13 3e ba 44 71 3e 8c f5 40 3d
       0.11460617 0.14442602 0.23561373 0.04710917
000060 2b 24 a6 3f e8 e9 a2 be 40 48 a5 be 78 5c 1a 3d
       1.2979788 -0.3181908 -0.32281685 0.03768584
000070 df da bf bf d0 25 55 3e c8 2d 0d 3e 16 19 be bd
       -1.4988669 0.20815206 0.13786995 -0.092821285
000080 a0 84 67 3e 19 08 6e bf f2 99 14 3e 5a 5d 8c 3d
       0.22609186 -0.92981106 0.1451185 0.06853743
000090 4f af 1b bd a9 f1 12 3d 10 a0 b0 bf 75 23 f0 be
       -0.038008984 0.035874996 -1.3798847 -0.46902052
0000a0 48 77 7a 3e 94 09 7d 3e 0e 31 d2 3e 90 bd ff 3d
       0.24459565 0.24710685 0.4105305 0.12487328
0000b0 61 56 06 3e 7c 64 16 3e 6b c6 ca 3d c3 4f 07 3d
       0.13118888 0.14686769 0.099011265 0.03303505
0000c0 e5 5d 5a bf c8 8b 0f bf 82 96 88 be 90 7d 5c 3d
       -0.8529952 -0.56072664 -0.26677328 0.053830683
0000d0 86 87 07 be 81 6e 99 bf c6 bc 0e 3f 34 e2 5c 3d
       -0.13235292 -1.1986848 0.55756795 0.05392666
0000e0 8a 84 4e 3e da d1 d5 3d 2a b2 90 be 90 6f 05 3f
       0.20167747 0.10440417 -0.28260928 0.52123356
0000f0 3d 05 b2 bd a7 9c 48 3d 9b 2b 16 3e 90 3d 90 bf
       -0.086924054 0.04897752 0.14665072 -1.1268787
000100 4a f6 a6 be 1a 0c c6 be 6f 2b c3 be 77 f9 9a 3e
       -0.3260978 -0.38681108 -0.38119075 0.30268452
000110 22 90 d8 3e a1 6b 79 3f 7f a1 9d 3e 9b 57 31 3e
       0.42297465 0.97429854 0.30787274 0.17318575
000120 1b bc d5 3d 9d 81 6b bf d7 9f 97 be 04 96 b9 bf
       0.10436269 -0.9199465 -0.29614136 -1.4498906
000130 9c 0d 8a 3e d6 b6 e6 3e be 69 3e 3f 44 bc 32 bf
       0.26963508 0.45061368 0.743801 -0.6981852
000140 36 d7 1e bf 5b a1 d9 3e db 31 0f 3f 63 37 24 be
       -0.62047136 0.42505917 0.5593545 -0.16036753
000150 80 3e 6f bf 60 a7 26 3f 42 2b 62 3c 80 48 a8 3c
       -0.9345474 0.65099144 0.013804259 0.020542383
000160 12 30 ab 3d 01 ca 5a bf 19 cf 3d be b4 92 5c 3f
       0.08358778 -0.85464483 -0.18536033 0.8616135
000170 c2 79 ce be 55 99 6a 3c 87 4c f9 be 7b 18 0a bf
       -0.4032727 0.014318784 -0.48691198 -0.53943604
000180 16 fa 2e 3e a5 a2 5e 3e 7d 91 e3 be 95 b6 27 bf
       0.17087588 0.21741731 -0.44446936 -0.65512973
000190 df 79 9b be 7c 6c 4f be 46 c4 95 be 3b e1 cf 3f
       -0.30366418 -0.20256227 -0.29251307 1.624061
0001a0 d8 49 f2 bd 93 f8 02 be 3a a1 0c bd 4f b9 c5 bd
       -0.11830491 -0.12790136 -0.034333445 -0.096544854
0001b0 71 0c 04 40 df 41 26 3f 1c 8c 82 3d 46 48 2a bd
       2.0632594 0.6494426 0.0637438 -0.04157283
0001c0 e8 9f ad bd d8 6d 8c 3d d2 51 8f be f1 5b 7a bf
       -0.08477765 0.068568885 -0.2799211 -0.9779654
0001d0 9c 82 8d bf 44 43 e5 be 75 c5 00 3f 9d f2 6d 3e
       -1.1055484 -0.44777882 0.50301296 0.23237081
0001e0 1d be a4 3e d0 0d 2a 3e 02 7c 3b be 88 08 9e bc
       0.32176295 0.16606832 -0.18309024 -0.019291177
0001f0 ce 38 00 3e a5 d4 5d 3e f4 89 07 3e c7 cf 55 3e
       0.1252167 0.21663149 0.13236219 0.20880042
000200 89 c9 73 c0 b2 19 93 bd 04 86 7d 3e ab db 78 3e
       -3.8091757 -0.07182635 0.24758154 0.24302547
000210 e3 c8 aa 3d 68 f8 da bf 8d 6c 52 be 14 a9 1f 3e
       0.08339097 -1.7107058 -0.20549221 0.15591842
000220 e0 da 03 3e 4c 83 1c 3e fe c4 23 c0 f0 0d f7 be
       0.12876463 0.15284461 -2.5588984 -0.4825282
000230 21 f6 2f bf b5 1a dd be dd 66 de 3e 9c 3c 9e 3d
       -0.6873494 -0.43184438 0.43437853 0.07726404
000240 47 fd 2b be 84 e9 db 3e 23 34 96 3e 43 df f1 3e
       -0.16795836 0.42951596 0.29336652 0.47240648
000250 82 61 55 3e 07 01 94 3f c1 8b 23 3e 29 63 b5 3e
       0.20837978 1.1562814 0.1597128 0.35427216
000260 9d 42 1a 3e ea 17 e5 bf f3 35 d5 bd de 81 b3 bd
       0.15064473 -1.7897923 -0.104106806 -0.087650046
000270 f7 19 05 3e 2d 06 93 be 6c e0 91 3f 52 ca b6 3e
       0.12998186 -0.2871565 1.1396613 0.35701233
000280 3f 08 04 be 01 3b b0 be 55 3e 91 be 4d 25 bf 3e
       -0.1289377 -0.34420016 -0.28367868 0.37333146
000290 2e 84 6e be 09 ae 43 3e a4 0d 4b 3e c1 35 3c 3f
       -0.2329261 0.19109358 0.19829422 0.7351952
0002a0 dd 58 fc 3f dd eb 87 3e 01 24 62 be c1 91 6a 3d
       1.9714619 0.26547137 -0.22084047 0.057267908
0002b0 33 6b 84 be 5c db bd 3e 08 12 30 3f e4 41 cb 3d
       -0.25863037 0.3708142 0.68777514 0.09924677
0002c0 3b 1a 95 3d 4c 94 33 bc cd 75 81 c0 46 25 79 3e
       0.07280394 -0.01096065 -4.04563 0.24330625
0002d0 24 9a 1a bd 93 98 99 bd c4 e7 a5 bc dd 2a 8e 3f
       -0.037744656 -0.07499804 -0.020252116 1.1106831
0002e0 46 27 ae 3e 77 0a 8c be 7f 11 a3 be 5a 27 bb be
       0.34014338 -0.27351734 -0.31849286 -0.3655346
0002f0 46 b3 89 3e 0d ad fa 3d d4 89 8a bf 61 ad 31 bf
       0.26894587 0.12240038 -1.0823312 -0.6940518
000300 95 c3 d8 be 9d 71 ef 3e e3 f4 12 3f a8 57 a9 3c
       -0.42336717 0.46766368 0.5740492 0.02067168
000310 82 25 a4 bd 4e 1c 1b bf 4c 28 ca bd 14 69 0b 3e
       -0.080149665 -0.60590065 -0.09870967 0.13614303
000320 8b b5 e1 be 7f 54 b2 bf bd 18 0d 3f 74 4c 26 40
       -0.4408382 -1.3932036 0.5511587 2.5984163
000330 54 c7 82 bf 37 33 c3 3e 06 3a c3 3e f4 e5 bb 3e
       -1.021708 0.3812501 0.38130206 0.36698878
000340 30 3d cd be 12 21 82 be 0c b2 46 3f ec f5 25 be
       -0.40085745 -0.25415856 0.7761543 -0.16207093
000350 ec 13 32 3e bc 03 2c 3f c0 c3 ec 3d 04 c9 9b be
       0.17390412 0.671932 0.11560774 -0.304268
000360 4a ce 94 bf 3b 0f a2 be 63 1b af 3e b4 9e cb 3e
       -1.1625454 -0.31652245 0.34200582 0.39769518
000370 82 02 00 bf b1 06 83 3e cb 3e b8 bd 55 e9 82 bf
       -0.50003827 0.25591043 -0.08996352 -1.0227457
000380 6b 8b 3f 3e 8d 9f 68 3e c7 47 1d 3e 28 e9 33 3e
       0.18705527 0.22717114 0.15359412 0.17569411
000390 2c ed fd bf eb 3a 9f 3f da 21 c0 be a4 43 e9 bd
       -1.9838004 1.2439855 -0.37525827 -0.113898546
0003a0 09 a8 82 be f1 72 34 3f e8 8e 9f 3d 29 a1 81 be
       -0.25518826 0.70487887 0.07790929 -0.25318268
0003b0 8a 82 55 be d4 c9 ea be 58 89 59 3f c9 fe fe bd
       -0.20850578 -0.45857108 0.84975195 -0.1245094
0003c0 81 e9 12 bf 34 41 f5 be b0 c0 c7 bf c4 44 9b be
       -0.5738755 -0.4790131 -1.5605679 -0.30325902
0003d0 8f a9 70 3f da 24 f6 bc f9 f5 f0 bd 0f 89 21 bf
       0.94008726 -0.03004687 -0.117656656 -0.6309976
0003e0 bc d2 77 be 30 a6 b1 3e cb 2d 06 3f 15 5b 61 3f
       -0.24201483 0.34697104 0.52413625 0.88029605
0003f0 3c ba 6f 3f 46 f3 04 c1 96 8d 98 40 d6 45 30 3d
       0.93643546 -8.309393 4.7672834 0.04303535

model.0.bias f4 [125]
000000 dd 85 e0 bd 4f 09 31 3e 65 11 43 bf 28 06 94 be
       -0.109630324 0.17288707 -0.76198417 -0.28910947
000010 7e d3 64 3e 19 2c 80 be 74 03 c5 bb ac ac 41 3e
       0.22346303 -0.25033644 -0.0060123745 0.18913525
000020 5e 40 d8 bc ee 44 75 3e 78 19 9e bf a5 94 7c 3d
       -0.02639788 0.23952076 -1.2351522 0.061665196
000030 6a 95 5b 3d 42 95 8f 3e 4e d9 1d 3f 18 08 88 bd
       0.05360929 0.28043562 0.61659706 -0.06642169
000040 e8 2e ec 3d e2 b7 1e bc bc 0e 85 3c ea 2e b8 3d
       0.11532384 -0.009687396 0.016242377 0.08993323
000050 94 51 db 3c 9b 42 f5 3d 60 a0 44 be b1 6e d9 bd
       0.026772298 0.119755946 -0.19201803 -0.10616816
000060 5f e9 56 3d 65 9d ff 3d 35 26 d5 bd af e3 d9 bc
       0.052468654 0.124811925 -0.10407678 -0.026597826
000070 e5 f8 17 be 0e 56 33 3f d8 e5 d5 b8 55 27 8a 3d
       -0.1484104 0.70053184 -0.00010199443 0.06745783
000080 bf 2f 28 3e 70 33 57 3d 9a a4 1e 3e 86 6f ea bd
       0.16424464 0.05253929 0.15492478 -0.11447053
000090 f5 44 25 3e d7 51 35 3e 84 f7 17 bf 0b b7 82 3d
       0.16139586 0.17707 -0.59362054 0.06382569
0000a0 07 c1 16 bf 6b 06 21 3e d4 65 20 3c 2e 06 00 3e
       -0.58888286 0.15725105 0.009789903 0.12502357
0000b0 81 35 ce be 66 43 75 be c4 6b c5 bd de ab 17 bf
       -0.40275195 -0.23951492 -0.09639695 -0.59246624
0000c0 ce 97 0e bf 05 bb e6 3d 77 67 31 3f 06 e8 60 bd
       -0.55700386 0.1126614 0.692985 -0.054908775
0000d0 54 d1 35 3e a2 b5 d3 3c 71 58 cd 3d e9 05 e8 bd
       0.17755634 0.025843445 0.100266345 -0.11329252
0000e0 d6 51 b0 bd 83 56 2d be 62 8a 4e bd 07 c7 5d 3c
       -0.08609359 -0.16927533 -0.05042494 0.013536221
0000f0 d6 78 87 bc e4 df a7 3d c1 54 01 3d 65 53 c7 bd
       -0.016537111 0.081970006 0.03157497 -0.09732703
000100 54 29 04 bd 9a 48 1b 3e 14 9d 03 c0 ec 8c 09 3d
       -0.032265976 0.15164414 -2.0564623 0.03358166
000110 2a b4 f3 3d 6c 7d 65 3d 41 f3 05 bd 03 f3 1c 3e
       0.11899598 0.056027815 -0.032702688 0.15327077
000120 3d b9 7b bd 94 a3 eb be 7e 8d 0c 3d 3d 6d 7e 3d
       -0.061455954 -0.46023238 0.034314625 0.062115896
000130 cb 20 2e 3e a4 6d 1e be f6 f5 a1 3f 70 02 07 bf
       0.17004697 -0.15471512 1.2653186 -0.52738094
000140 91 a3 99 be 63 ac b5 bd 5f ca 70 be 1a 38 ab 3d
       -0.30007604 -0.08870771 -0.23514698 0.0836031
000150 8e 57 0d 3e 23 23 70 be 32 66 01 3d 6b e6 bf 3d
       0.1380293 -0.23450904 0.0315916 0.093701206
000160 f0 14 52 be d4 91 81 bd da 67 5b 3e a4 63 fc 3b
       -0.205158 -0.06326643 0.21426335 0.007702308
000170 f5 df 82 be 53 95 04 3e c8 9c af be 69 ce ad be
       -0.2556149 0.12947588 -0.34299302 -0.3394654
000180 31 c8 68 bd dd 47 2d be 38 9f 22 be f9 c9 4e bf
       -0.056831542 -0.16921945 -0.1588105 -0.80776936
000190 60 c9 67 3d 5c 32 31 be 36 35 42 3e 9f 7d 0a be
       0.05658853 -0.17304367 0.18965611 -0.13524483
0001a0 df 40 81 3f a0 b9 4e 3e 55 a0 44 bd 30 f7 4d bd
       1.0097922 0.20187998 -0.048004467 -0.050284564
0001b0 f0 6f 36 ba 58 15 80 bf fd 7e 1c 3e ad 21 a2 bc
       -0.0006959429 -1.0006514 0.15282817 -0.019791448
0001c0 5f 07 14 bf 21 5c 18 bf 2e 37 04 3e 05 27 26 3e
       -0.5782375 -0.5951558 0.12911674 0.16225822
0001d0 63 f6 d8 bd e1 61 91 bf 0a 04 8e 3d c1 46 b0 3d
       -0.105938695 -1.1357995 0.06934364 0.08607245
0001e0 ec 55 33 bd cd 12 9d 3d d6 a0 3e 3f 95 5a 4d 3d
       -0.043783113 0.076696016 0.74464166 0.050135214
0001f0 0b 09 ac 3b
       0.0052501014

model.2.weight f4 [5, 125]
000000 84 b1 4d bd bb 9c 56 be 6e a8 a0 be f9 5b 91 3d
       -0.05021812 -0.20958225 -0.31378502 0.070976205
000010 15 76 a4 bf ac 79 12 3c be 39 e1 3d 33 08 69 3d
       -1.2848536 0.008940142 0.109973416 0.056892585
000020 49 ea f3 3c 99 42 39 bd b0 ce 96 3e 8a bd 61 be
       0.029774802 -0.045229528 0.29454565 -0.2204496
000030 f8 c1 60 bd 73 b2 19 be ee 07 8f 3d c2 9d f4 bd
       -0.054872483 -0.15009479 0.06983934 -0.119441524
000040 c2 2b 87 bd 9b 6e 41 be 01 38 ae 3d 82 38 91 be
       -0.06600143 -0.18889849 0.08506776 -0.28363425
000050 c1 46 7e be 79 5a 70 3d 14 98 c6 bd c6 ba df 3d
       -0.24831678 0.05868003 -0.09696975 0.10924296
000060 b4 8d 08 3e 18 a1 d8 bd f8 33 ee 3d 5e 14 90 be
       0.13335305 -0.10577601 0.11631006 -0.2814054
000070 2a 6e aa bc 8e b4 c6 be 61 9f 18 3d 8c 67 99 bb
       -0.020804483 -0.38809627 0.03726137 -0.004681533
000080 60 8b e1 be d1 36 cc 3d 7b 70 ce be 38 38 28 3d
       -0.44051647 0.09971393 -0.4032019 0.04106924
000090 f1 56 1b bc b8 1f c3 3c c7 b7 75 bd 91 71 be be
       -0.009481178 0.023818836 -0.059989717 -0.3719602
0000a0 13 09 00 be 04 9b e9 bd 65 31 dd bd bf 0f 2f be
       -0.12503462 -0.1140652 -0.10800437 -0.1709585
0000b0 e2 57 98 3d 1d 08 15 3e 54 f2 06 be 99 94 6e bf
       0.07438637 0.14553876 -0.13178378 -0.9319549
0000c0 74 f5 83 3e 55 17 66 3e 91 86 87 be ca 92 e4 bd
       0.25773203 0.22469838 -0.26469854 -0.1116081
0000d0 57 e2 00 bf 64 20 07 be 80 b5 fe bc 35 d7 9d 3e
       -0.5034537 -0.1319595 -0.031092405 0.30828252
0000e0 99 63 56 bc 9c 5b 40 3e ac 8a 5b 3d 1b f8 56 3e
       -0.013085269 0.18784946 0.053599045 0.20993082
0000f0 71 e7 dc 3e 3e 7c 36 be 4d 73 bc bd e7 09 95 be
       0.43145326 -0.17820832 -0.092016794 -0.29109117
000100 99 52 08 3e e0 11 5e be 0a c2 a4 bd aa fb 1e bf
       0.13312759 -0.21686506 -0.080448225 -0.6210276
000110 95 93 2e 3d 6f 8a e7 3d 95 2b 54 be 4c 17 43 bd
       0.042621214 0.11305701 -0.2071975 -0.04762964
000120 7f 08 9e 3d e1 c8 01 3e fc 22 6a 3d de bf 43 3e
       0.07716464 0.12674285 0.05716227 0.1911616
000130 6f a2 01 bd 60 4f 9f bd 46 d3 9c bd f4 ed 9c 3b
       -0.03164905 -0.077788115 -0.07657485 0.0047891084
000140 e7 12 60 be de bb 86 bd 8f fa 6f bc 84 40 37 ba
       -0.2188221 -0.065788016 -0.01464714 -0.00069905096
000150 45 53 2f be f8 5a f3 be 80 8f a9 b8 2f 83 25 bd
       -0.17121609 -0.4753034 -8.085277e-05 -0.04040831
000160 6a b8 1b be a8 8c 3c be 62 30 81 be f1 eb 63 be
       -0.15207067 -0.18413031 -0.25232226 -0.22257973
000170 96 9c 17 bf 6f 02 81 3e b0 0e f0 3d e9 a3 86 3e
       -0.59223306 0.2519717 0.117215514 0.2629693
000180 08 99 38 be 40 9f 4a 3d 8f 1b bd bc b7 22 57 be
       -0.18027127 0.04946828 -0.02308443 -0.21009336
000190 18 50 f2 3c 9e 51 b7 3e 96 88 d6 be d6 1c 82 bd
       0.029579207 0.35804456 -0.41901082 -0.06353156
0001a0 45 a6 c6 be 49 16 5e bd a9 ec 18 be bf c8 09 3e
       -0.3879873 -0.05422047 -0.14934029 0.13455485
0001b0 27 68 9f 3d 51 37 67 3e 8b e8 f3 bd b1 3b b2 be
       0.07783537 0.22579695 -0.119095884 -0.34811166
0001c0 99 2f a8 be f5 1c 99 3e 52 d8 1d 3e b6 ea 56 bd
       -0.32848814 0.29904905 0.15414551 -0.05246993
0001d0 54 0c d8 bc eb f2 c0 bd 3b f8 ad bd 0f 67 99 bd
       -0.026373066 -0.09421333 -0.08494612 -0.0749036
0001e0 a0 e6 7c be ca d3 ee 3e c0 5e b8 b9 cb ed 07 be
       -0.24697351 0.46645957 -0.0003516581 -0.13274305
0001f0 f9 5c 13 3e ba 40 59 bc 31 a7 66 be a2 f7 ea 3e
       0.14390935 -0.013260061 -0.22524716 0.45892054
000200 17 da c2 3e 88 e6 2b 3f 2d 3e 6e 3d 73 37 59 be
       0.38057014 0.6714864 0.058164764 -0.21212558
000210 ac ca 04 be 9b bb 4a 3d 56 dd a7 be 71 1d 25 3f
       -0.12967938 0.04949532 -0.32786053 0.6449805
000220 12 d9 4e be 31 46 67 bd 49 2d 87 be 5f a0 e1 3d
       -0.20199993 -0.056463424 -0.26401737 0.110169165
000230 b2 d3 7c bd 43 8a 59 bd 66 c6 07 be 03 ad 54 3e
       -0.061725326 -0.053110372 -0.13259277 0.20769124
000240 ad 8b dd bd 34 1f 8f be 58 04 26 3d 8e 71 31 bd
       -0.10817657 -0.27953494 0.040531486 -0.043321185
000250 de e2 4e 3e 4d 8b 14 3e b1 30 0e 3e f5 37 15 3e
       0.2020373 0.14506264 0.13885762 0.14572127
000260 2a ba 40 be 10 97 1c bc a2 fe 03 be 36 cb 75 3d
       -0.18821016 -0.0095575005 -0.12890103 0.06000825
000270 4d 0f 03 bd 3a 84 6e be 76 dd 88 3d 6e 23 09 be
       -0.031997014 -0.23292628 0.06682865 -0.13392422
000280 ad 0e ef 3d 32 0d 60 3e 09 b7 4b be 20 1d aa 3e
       0.11672721 0.21880034 -0.19894041 0.33225346
000290 fe a0 80 be cf a3 a1 3e d4 e1 c1 bd b3 08 8c bd
       -0.25122827 0.3157029 -0.094669014 -0.06837597
0002a0 27 fe 43 be 13 c8 11 3e 39 35 55 3e 0a 90 06 be
       -0.1913992 0.14236479 0.20821084 -0.13140884
0002b0 1f fb 99 3e 28 bf fe be 51 94 60 3e 53 f1 63 be
       0.30074403 -0.49755216 0.21931578 -0.22260027
0002c0 0e a7 04 3d 79 22 b8 bd 51 f8 3e be f6 16 df bb
       0.03238588 -0.0899095 -0.18649413 -0.006808157
0002d0 b3 e7 b0 3e db 49 38 bd a4 72 d7 3e 98 21 a3 3d
       0.34551772 -0.04499231 0.4207965 0.07965392
0002e0 60 a5 85 3e aa a3 50 3d 71 3c 5d be 4d d2 de 3d
       0.26102734 0.050937332 -0.21605088 0.108799554
0002f0 78 61 1f 3e bf a2 0f 3e cd a9 33 be 63 92 6c 3e
       0.15564525 0.14026926 -0.17545243 0.23102717
000300 52 d9 e8 3d cb 54 fa 3c 83 ea fb 3d 2f 1d 4f be
       0.113695756 0.03055801 0.12300589 -0.20225976
000310 23 50 09 be a0 65 df 3d fa 0f 9b 3c 14 81 d4 3e
       -0.13409476 0.10908055 0.018928517 0.4150473
000320 fa 82 a0 3d bb ee 6c 3d 1a 16 94 bd e5 5a 97 be
       0.07837482 0.05784486 -0.07230778 -0.29561535
000330 ce 4d d3 3d 34 50 97 3e c5 d8 cb bd fa ac 26 3d
       0.103175744 0.29553378 -0.09953455 0.040692307
000340 e1 49 c0 3c e9 49 5b be 27 92 c5 be bb 35 18 be
       0.023472728 -0.21414913 -0.38588068 -0.14864247
000350 78 bb 02 bd c8 af 74 bd df ed 81 bd e1 ab 7e be
       -0.031917065 -0.05973795 -0.063441984 -0.24870254
000360 cc d8 43 be 1b a2 8c be c4 43 3e bd 44 7c a0 bf
       -0.1912567 -0.27467427 -0.046451345 -1.2537923
000370 83 1b a0 3d 1a 01 04 bf 37 4c 02 bd 99 4e 19 bd
       0.078177474 -0.5156418 -0.031810965 -0.037428472
000380 5d e6 3a be 34 89 3d 3d 89 e9 11 bf e3 d8 95 be
       -0.18251939 0.046273425 -0.5699697 -0.29267034
000390 a8 6e 82 bd be 89 2c be 9d b8 16 be 62 7d 57 be
       -0.06368762 -0.1684942 -0.14718862 -0.21043923
0003a0 2f 12 0d 3e 1e a4 f2 3d 21 04 c4 be a0 91 96 3e
       0.13776468 0.11847709 -0.382844 0.29407978
0003b0 49 5d 95 be a1 4b 3a bf 83 1e 03 3f 28 ea 84 bd
       -0.29172733 -0.7277165 0.5121843 -0.06489974
0003c0 2d f0 bd bd da 39 f9 3b 40 04 c5 3d 8e 56 e9 bc
       -0.092743255 0.0076057734 0.09619951 -0.028483655
0003d0 a8 d5 15 be d5 ed 46 be 20 77 36 be 47 43 62 bd
       -0.14632285 -0.19426663 -0.1781888 -0.055239942
0003e0 9f 39 ed bd bb 30 19 3e 15 3c 9e bd 22 19 83 be
       -0.11583256 0.14959995 -0.077263035 -0.25605112
0003f0 af 76 20 be c0 16 f0 3e 4f ad 5b 3f 8c 42 f8 3d
       -0.15670274 0.46892357 0.8581132 0.12122068

model.2.bias f4 [5]
000000 f7 9b 2c 3f e3 8d 20 3f 5a 24 f5 bf 34 7c 5d 3e
       0.67425483 0.627165 -1.9151719 0.21629411
000010 57 a5 85 bf
       -1.0441083
