BRCA/models/C_best_1702917634.pth (torch, 67616 bytes, 4 tensors)

model.0.weight f4 [125, 125]
00000000: 8ac0 cd3e 94eb 90be 9713 a63d be98 47bf
00000010: 73ed 2b3f 7713 2c3f 143c 83bc 21a4 c83d
00000020: c287 3b3f 394c 7f3f 6a20 953e e7f3 11bf
00000030: b057 56be 45c7 8ac0 cb98 8bbe 699d 95bf
00000040: cd76 a4bf b9fa 1ec0 6468 e9be 5f94 143e
00000050: 5366 183f 3ebd b33e 3a29 983e 89b2 94bf
00000060: c2f2 183e 133b a03e 4c67 d6bd da23 683d
00000070: 6567 b6be 0bd9 1b3f f637 463e 50a8 ffbe
00000080: 8c96 9abe 44e8 f2be 0b3a c13b 3a67 80be
00000090: b9eb 06bf 6133 b8bd 898d b53d 53fc 0c3c
000000a0: b417 f33e e26d a4be 8264 93bf f3b4 c33f
000000b0: ed9e da3f 4878 1a3f 16cc 08be 7613 c63d
000000c0: f852 e83f c372 e03e 7176 b2be af1e 12bf
000000d0: 87d2 ab3d 84eb 53bf 6fba 8d3d ed3b 39bf
000000e0: c851 73bf b5ab aebe 804e 89c0 9e98 52bf
000000f0: 1a16 96be 95e3 3abf 5e12 84be a536 d93f
00000100: b5d6 90be ae8a 86bc 064e b7be 44c1 133f
00000110: 8a32 8f3d 811a 0f3f b9e6 3a3f f7c0 90bd
00000120: 7a4c da3e b0b9 f23e e66e 1e3d d163 84be
00000130: a3f8 66bf 8a4d 5ebf c956 9a3e c475 813e
00000140: feb1 ddbe cec3 1ebd fa26 283e b903 34bf
00000150: b6f0 243f c821 58be 49da 89bf 31df f33d
00000160: 8a71 00bf c5ac 893e 423b e43d 8326 72bf
00000170: b00c 5cbf 95ee 443e a1d6 443e ff36 a73e
00000180: 3c1d 243f e730 3d3e abdd a43c ad14 f7be
00000190: bf93 fd3e 1bc5 9d3d d0da 383e 718a 19bf
000001a0: fc0a d93d 88d1 893e 9cb9 e1bc 8961 6bbe
000001b0: a0fc 04bf 053e ca3e 4092 703e fa0e d9be
000001c0: 7d0c 04bf 787f 8c3f d4a2 203e 0965 1a3f
000001d0: aeb0 ec3e 9a81 053f 8272 21bf 8417 45bf
000001e0: 8b4f 613e 0759 2a3e b2c2 693e 4b84 18bf
000001f0: 6cd9 90bf ccf6 d7be 9be2 d03d 89ab cd3d
00000200: e3fa 64bd 96d5 de3e 75a8 1bbf 1ca3 9bbe
00000210: 13d9 8b3d edcc 5ebf 64ed ddbd ed11 85bc
00000220: d9a7 e1bc ab74 f93e aac8 47bf aa50 dc3e
00000230: 254a 18bf 7921 223f f8dd 0dc0 00bd 173f
00000240: 579c 463e 6372 5c3f 7c7a 8b3e 2e6e ba3e
00000250: 96e9 6e3f af00 283f e2e3 43be 8e13 dbbc
00000260: d98d 703e 5925 79bd a1e8 4f3e 8353 d1be
00000270: 645a 86be a8fb 9bbd 63a5 88bf cfd5 95be
00000280: 1f04 93bd 0085 90be b569 053d 69eb 983d
00000290: e917 46be 78b9 53bf 2fb4 b83e c55a eb3e
000002a0: e809 613e 017e b93f 3d1f 453e 29c2 90bd
000002b0: 536a 1c3e a502 91bf d3d7 a1be 6390 ebbd
000002c0: 3571 a1be 5c98 223e c78f c5bf 8645 ef3c
000002d0: 0fb2 9ebe e5e8 8abe 98ed fb3d 48b8 75bf
000002e0: ddb6 723d 5266 fe3d b3f3 adbe 1f14 9e3e
000002f0: db56 bd3f 736a d8bb aca3 0cc0 f8de e03d
00000300: 4972 683f 3244 c0bd 1400 a53d ab5a 4cbe
00000310: ca44 babd 1612 80be c734 f9be dbce d6be
00000320: 68d5 d4be 19b6 f63f 1d02 7fbe cd8d 1c3f
00000330: ad80 64bf a3bd b4bf e05d 48be e6c3 883f
00000340: 3038 773d 6c8e 76bf bb40 19bf 431b 25bf
00000350: e4f0 1140 512f 1b3f e040 963f a8ae 18be
00000360: 3958 4d3f 8919 dbbf 7816 073f 3c5a 02bf
00000370: 956e 25bf c3af ccbe 1838 443d 2529 18be
00000380: 789c 50bf b26b 2e3f 8b7e c13e cc05 b13e
00000390: 6119 663f d074 113f 4d82 553e 277b 463e
000003a0: fb1e 9a3e d869 94bf b941 1bbd bf5f 883e
000003b0: 69b0 03be a851 c1bd 4f18 4fbd a64c b9be
000003c0: 9647 7d3f 18f1 b93f 30ce de3e 37ee ee3e
000003d0: 3052 2e3d e07a 9dbd 2b28 b3be ea03 42bf
000003e0: 14bb 3fbf 69c9 19bf 212a a8bf cc88 27bf
000003f0: 41dd 8fbf 8f22 7f3e d383 0abf dbe6 3dbe
0.40185958 -0.28304732 0.08109205 -0.7796744 0.67159194 0.672172 -0.016019858 0.0979693
0.73254025 0.9972568 0.29126292 -0.5701279 -0.20931888 -4.336825 -0.2726501 -1.1688663
-1.2848755 -2.484053 -0.45587456 0.14509724 0.59531134 0.35105318 0.29718953 -1.1616985
0.14936355 0.3129507 -0.10468921 0.056674816 -0.3562576 0.60878056 0.19357285 -0.499331
-0.30192983 -0.4744283 0.005896812 -0.25078756 -0.52703434 -0.08994175 0.08864886 0.008605081
0.47479022 -0.32115084 -1.1515048 1.5289596 1.707975 0.60339785 -0.13359103 0.09671681
1.815032 0.43837556 -0.3485599 -0.5707807 0.08389764 -0.82781243 0.06920325 -0.72357064
-0.95046663 -0.34115377 -4.2908325 -0.82264125 -0.29313737 -0.7300351 -0.25795263 1.6969801
-0.28288808 -0.01642355 -0.35801715 0.57716775 0.069920614 0.55899817 0.73008305 -0.07068055
0.42636472 0.47407293 0.03867998 -0.25857404 -0.9022314 -0.86837065 0.30144337 0.2528516
-0.4329986 -0.038760953 0.16421118 -0.7031818 0.64429796 -0.21106637 -1.076974 0.11907805
-0.50173247 0.26889625 0.11144115 -0.94590014 -0.8595686 0.19231637 0.192225 0.32659146
0.6410711 0.18475686 0.02012523 -0.48257962 0.49526784 0.077036105 0.1805222 -0.5997687
0.10597798 0.26917672 -0.027554326 -0.22986425 -0.51947975 0.39500442 0.2349329 -0.4239424
-0.51581556 1.09764 0.15687114 0.6031042 0.46228546 0.5215088 -0.6306535 -0.76989007
0.22003 0.16635524 0.22828177 -0.59576863 -1.1316352 -0.4218048 0.101994716 0.10042483
-0.055903327 0.43522328 -0.6080392 -0.3039788 0.06828513 -0.8703144 -0.10836294 -0.0162439
-0.027545856 0.48721823 -0.78040564 0.43030292 -0.59488136 0.63332325 -2.216673 0.59272766
0.19395576 0.8611204 0.27241886 0.36412185 0.93325174 0.65626043 -0.19129899 -0.026742723
0.2349161 -0.060826633 0.20303585 -0.40884027 -0.26240838 -0.07616359 -1.0675472 -0.29264686
-0.071785204 -0.2822647 0.032571513 0.07466776 -0.19345059 -0.8270488 0.3607497 0.4596769
0.21976435 1.4491578 0.19250198 -0.07068283 0.15274934 -1.1328932 -0.31609973 -0.11502149
-0.31531683 0.15878433 -1.5434502 0.029207956 -0.30995223 -0.2713081 0.12301177 -0.95984316
0.059256423 0.1242186 -0.3397499 0.30874726 1.4792131 -0.0066044866 -2.1974897 0.10980028
0.90799385 -0.09388007 0.080566555 -0.19956462 -0.09095152 -0.25013798 -0.48673078 -0.41954693
-0.41569066 1.9274322 -0.2490315 0.6115387 -0.89258844 -1.4120373 -0.1956706 1.0684783
0.06035632 -0.9631107 -0.59864396 -0.64494723 2.2803278 0.60619074 1.1738548 -0.14910376
0.8021274 -1.7117168 0.5276866 -0.50918937 -0.6462186 -0.39977846 0.047905058 -0.14859445
-0.8148875 0.6813308 0.37791857 0.34574735 0.89882475 0.56818867 0.20850487 0.19382916
0.3010176 -1.1594801 -0.037904475 0.26635548 -0.12860264 -0.09439403 -0.05056029 -0.3619129
0.98937356 1.4526701 0.43516684 0.46666119 0.04255885 -0.07689452 -0.34991583 -0.7578722
-0.74894834 -0.6007295 -1.3137857 -0.6544311 -1.1239396 0.24915527 -0.541074 -0.18545096

model.0.bias f4 [125]
00000000: 0f41 1a3f 0c7f fdbe ae43 ba3e 73cf edbe
00000010: b13e 48be e03c adbe 8de9 04be bc88 57bd
00000020: d10b 823e b097 7e3e c143 0ebe 8ee7 31bf
00000030: 7580 1ebc a9af bf3e e4b0 993d 000e 023e
00000040: a26b 0fbd 5633 c8bc 9f83 b43d ac64 2a3d
00000050: cd6d 13bf b0cf d03e 48bc 4f3f 5d72 fbbd
00000060: f7d4 bcbe 619a 7b3f d77b eebe 57c7 9ebe
00000070: 2ec3 373f bcd8 933f 0003 dbbe 5a7d 8fbd
00000080: 2359 fdbe 0688 78be 40c4 e33e 3f93 1bbf
00000090: f5a0 3ebe 5774 383e 7f74 ebbb 9b3a 133e
000000a0: a858 c43b 8d48 c3bd 5831 eb3e c606 0a3f
000000b0: 64aa 7cbf 8913 7b3d 2a74 47bf d46c 9fbf
000000c0: 4102 d4bd a14a 63be 0b9a 2ec0 c212 143e
000000d0: 296b 5dbe 39ca 0abf a139 05bd 98dd 90bc
000000e0: 1b14 c43e 9d2b 7e3d 87be 633d c034 a83c
000000f0: 56cf aabf 72ce 343e 2578 e3bd 8649 26bf
00000100: 9472 3b3d 9b3c 8cbe dbc0 753f 373d 0fbf
00000110: de8b a4be 9add d3bf ef8d cd3e 0a0a e0bd
00000120: 7ebb 3e3e 32d1 543e f4c9 973e f936 dcbe
00000130: 6e1d f2bd 81a1 77bf a7b5 6e3e 1723 bcbe
00000140: f18c 143f bf83 383f e50d 7cbe bb23 b5bd
00000150: 4586 903f 837b 5abf 013f 2d3f 51e2 053e
00000160: a217 10bf 3e75 663f f194 84be c484 03be
00000170: 9ab0 60bf e4a9 8ebe 2b62 543e 34a1 2a3f
00000180: eb33 9fbe c0a8 e63e 335d 363f c1d7 b6be
00000190: a103 9ebf f676 32be d48c cd3e d780 2fbf
000001a0: 8a39 31c0 cb43 b9bd 96a2 9abe 4d58 023f
000001b0: d279 85bd eada 3e3d 1051 c5be 9016 97bf
000001c0: 722f bf3f c8fc 493d 55c0 bbbf fe11 e63e
000001d0: 003c 43bd 3e24 27bd 04f1 833e 5089 f4bd
000001e0: f81b 66bc 2095 313e add7 92bd a895 12bf
000001f0: 3f40 e4bf
0.6025552 -0.49510992 0.3637976 -0.46447334 -0.19555165 -0.33835506 -0.12979718 -0.052620634
0.2539964 0.24862552 -0.13893034 -0.6949395 -0.009674181 0.37438706 0.07504442 0.12700653
-0.035014756 -0.024438541 0.08814167 0.041599914 -0.5758942 0.40783453 0.8114667 -0.122776724
-0.3688123 0.9828244 -0.46578857 -0.3101146 0.71782196 1.1550517 -0.42775726 -0.07006331
-0.49482068 -0.24270639 0.44485664 -0.60771555 -0.18616088 0.1801313 -0.0071855183 0.14377825
0.005992014 -0.09535322 0.45936084 0.53916585 -0.98697495 0.061297927 -0.7791163 -1.2455087
-0.103519924 -0.22196437 -2.728152 0.1446028 -0.2162291 -0.5421482 -0.032525662 -0.01768379
0.3829659 0.06205331 0.055601623 0.020532966 -1.3344524 0.17656878 -0.111069 -0.6495594
0.045763567 -0.27389988 0.959974 -0.5595278 -0.3213796 -1.6552002 0.4014735 -0.10939415
0.1862621 0.20782927 0.29646266 -0.4301069 -0.118220195 -0.9673081 0.23311482 -0.3674552
0.5802756 0.7207603 -0.24614675 -0.08844706 1.1290976 -0.85344714 0.6767426 0.13074614
-0.5628606 0.9002265 -0.25894883 -0.12843615 -0.8776947 -0.2786399 0.20740573 0.66652226
-0.31094298 0.4505062 0.7123596 -0.35711482 -1.2344857 -0.17428192 0.40146506 -0.6855597
-2.769137 -0.090461336 -0.30202168 0.50915986 -0.06517376 0.04659549 -0.38538408 -1.180376
1.4936354 0.049313337 -1.466807 0.44935602 -0.047664642 -0.040806048 0.25769818 -0.11940253
-0.014044754 0.17342043 -0.07170043 -0.5725961 -1.7832106

model.2.weight f4 [5, 125]
00000000: d54d c03d a678 a13b b5cc eb3c 8243 d83d
00000010: 1c2d d5bd f674 803d 1f5d ac3e 0e59 90bd
00000020: 398c 043f e89d 1a3f c899 19be 8dd0 2bbd
00000030: a8cc 833d 5f24 82bd c92b 8d3e 49f0 62be
00000040: 9462 4b3e 74c2 90bd d24c b4bd f421 08bd
00000050: 5312 5e3e c42f 38be c7f4 423c 56f0 86bc
00000060: 5cc9 a73d 31fe f4bd 3672 b7bc 9742 0abe
00000070: bd18 ccbd eb68 a03d 4d15 253f 2e5a fe3d
00000080: 2ad0 933d 79e1 d6bd d0ac 1abe ebd6 3f3e
00000090: 6ba0 abbe 0845 39be 5ea2 67ba 9894 f23b
000000a0: 7862 8dbd 45cf 1abd 6697 c13d faf2 06bd
000000b0: 4741 8d3e 24fd 853e 9aa1 7fbd 7239 71be
000000c0: 9e13 143e 6982 f33d a90e 163d 3933 e33d
000000d0: ace0 18bd 603d 47bd 9121 e23e 1083 493d
000000e0: 07e7 36be fe56 aabd bb0f 2dbe 61b5 9abd
000000f0: 65cb 2b3d 583f 45bd 7a27 91bc 811b 893e
00000100: 4c85 39be 7029 393d ea50 bcbd 3409 2dba
00000110: 600b f4bd f7a3 7bbf 3c91 153e 1c4e 10be
00000120: 397e bfbd ef58 0c3e 8da9 e1bd 67f0 9dbd
00000130: daf7 c7bc 1857 923d 3ac4 a1bf 1e90 62bc
00000140: 749e 40bf c17f b5bc 2c00 b93c 3feb 8d3e
00000150: e64d 2c3e f8c1 b3be f37d 80be 8916 06be
00000160: 764c 073e 8b97 02bf 3e50 1dbe 2d8d 98bd
00000170: 83f2 edbc 55d8 14be e014 1abe 6eba 5a3d
00000180: 2789 89bd 2e50 783e 5a42 8ebd e5e0 5fbe
00000190: dfe8 b5bd 28f0 ef3d 18e1 ae3e 9759 003c
000001a0: 9193 31bf 2f81 f3bd faf4 073d 256c 3f3e
000001b0: 1ee5 10be 8b02 53bc 6e00 2abe cf8a a5bd
000001c0: 6bda 923e 3543 d7bd d5c5 b73e a428 6f3e
000001d0: b5f2 4dbe b1e0 5abe cd18 0a3e 6cd6 093e
000001e0: d0da 13bd b7ba 5dbd ad53 adbe 7f23 533e
000001f0: 8403 dfbe 9d8f a93d ad68 f1bc b890 2e3e
00000200: 76d1 52be eeec d4bc 39c6 8d3c 8915 39be
00000210: 94dd 383e 4ad5 47bf 1149 2a3f 81e9 073f
00000220: 76c0 b83d 8af2 1f3e 14ef c9bd ad13 873e
00000230: eb76 04be 82c6 e53e 1c1a 10bd 2b0a 83bd
00000240: 0211 873c f235 fcbd 9de6 28be cc0e 8a3d
00000250: 06be babd 7c09 1f3e 847b 80bd ab68 eabc
00000260: 4460 413e 7a19 59bd e32c 24bf 2b9d 91be
00000270: 5528 303e b1a1 d83d a4c3 dbbd 7281 00bf
00000280: 57af 473e 2fca 3abd cd77 14be f126 e7bd
00000290: a1f0 93bc e2c3 153e 5da4 5b3e 077d a1bf
000002a0: 7122 a5be d807 e4bd 5183 273e 1c5e 34be
000002b0: 2ab5 36be eafb df3d 115b fdba e766 1e3d
000002c0: 6443 123e 7b92 95bd e2cc adbc e93d 8a3e
000002d0: 6949 343e 96c1 3fbd 64e4 e63d b779 6cbd
000002e0: 302b 14bc 2eae 4abc cc7c cf3b 9565 0ebe
000002f0: 1445 cabe 248b 2ebd 3dc9 b73d d79f d7bc
00000300: ea1e c83c 2cea bfbd 798c 6fbf 6435 69bd
00000310: 5bf9 d3bd 0f58 adbc b3b8 0e3e 4dfc 94bd
00000320: 94b7 89bc 2fb0 bb3d 6a45 d93e 076c 1dbf
00000330: 3fd5 8bbd 007e 7dbf 3fa7 cbbc 9c19 1cbd
00000340: dae8 663f f82f c13e 7399 363d c8ac 8ebd
00000350: c266 9c3d a002 2d3f 9871 60be a380 eb3d
00000360: c0d7 bb3d de0a 38be 00b9 4dbd 24b0 95bd
00000370: 1b7f cd3d 9e0c b7bc c029 923e c3bf 583c
00000380: 8211 24be 16e3 813f 0910 ce3d 302d 0c3f
00000390: a939 e43e b6bb 59bd 4049 c8b8 b536 e83c
000003a0: e2d7 23bd 7916 77bd 1f3f d33d e703 55bd
000003b0: 3706 263f b85a b43e b261 0a3d b2a9 d93e
000003c0: 2320 793d 1a04 c5ba 56b9 abbe 61a9 e43e
000003d0: da61 373e 7093 8dbe c9e4 18bd 071d 15be
000003e0: 606e 9c3e 2e63 b4be 46c4 f33d 7652 543b
000003f0: b95b 8fbd fef7 1bbd 64c3 5dba b96b 63bd
0.09389845 0.0049277125 0.028784135 0.10559751 -0.104089946 0.062723085 0.33664796 -0.07048236
0.5177646 0.60397196 -0.15000069 -0.041946936 0.064355195 -0.063545935 0.27572468 -0.22161974
0.19861823 -0.07068339 -0.08803715 -0.033235505 0.21686678 -0.17986971 0.01189918 -0.016472023
0.08192703 -0.11962546 -0.022393327 -0.13501965 -0.09965656 0.078325115 0.6448563 0.12419544
0.072174385 -0.10492224 -0.15104985 0.18734328 -0.33520827 -0.1809274 -0.0008836145 0.0074029677
-0.06903547 -0.037795324 0.09452705 -0.032946564 0.27588865 0.26169693 -0.062409975 -0.2355707
0.14460608 0.11890108 0.036635075 0.11093754 -0.03732364 -0.048642516 0.44166234 0.049197257
-0.17861567 -0.08317374 -0.16900532 -0.075541265 0.04194202 -0.048156112 -0.01771902 0.26778796
-0.18117255 0.045205534 -0.09195121 -0.00066007976 -0.11916232 -0.98297065 0.14606184 -0.14092296
-0.09350247 0.137058 -0.11018667 -0.07711869 -0.024410177 0.07145518 -1.2638009 -0.0138283055
-0.7524178 -0.022155644 0.02258309 0.2771854 0.16826591 -0.35108924 -0.25096092 -0.13094534
0.13212761 -0.51012486 -0.15362641 -0.07448802 -0.029046303 -0.14535649 -0.15047026 0.05340045
-0.06715613 0.24249336 -0.06946249 -0.21863134 -0.08882307 0.11715728 0.34156108 0.00783386
-0.69365793 -0.11889874 0.033192612 0.18693598 -0.14149901 -0.012879024 -0.16601726 -0.08083116
0.28682265 -0.105108656 0.3589312 0.23355347 -0.20112117 -0.21374775 0.13486023 0.13460702
-0.036097348 -0.054133143 -0.33852902 0.2061901 -0.4355737 0.08279345 -0.029468859 0.17047393
-0.20587716 -0.025991883 0.017306434 -0.18074621 0.18053275 -0.7805983 0.6651774 0.53090674
0.09021084 0.15619865 -0.09860054 0.263822 -0.12935989 0.44878012 -0.03518115 -0.06398424
0.016487602 -0.12314977 -0.16494222 0.067411035 -0.09118275 0.15530962 -0.06273559 -0.028614363
0.18884379 -0.053002812 -0.6413099 -0.28440222 0.17202885 0.10577715 -0.10730675 -0.5019752
0.1950048 -0.045602974 -0.14498825 -0.11286724 -0.018059077 0.14625505 0.21449418 -1.261628
-0.3225284 -0.111343086 0.16358687 -0.17614025 -0.17842546 0.10936721 -0.0019329508 0.038672354
0.1428352 -0.073033296 -0.02121586 0.2700036 0.17606129 -0.046815477 0.11274031 -0.057733264
-0.0090435 -0.012370629 0.0063320156 -0.13905938 -0.39505827 -0.042613164 0.0897393 -0.026321335
0.024428803 -0.093708366 -0.9357372 -0.056935683 -0.10350295 -0.021160154 0.13937645 -0.07274685
-0.01681117 0.09164464 0.4243577 -0.6149296 -0.06827783 -0.99020386 -0.024860023 -0.03811036
0.90199053 0.3773191 0.044579934 -0.06966549 0.07636787 0.6758213 -0.21918333 0.11499145
0.091720104 -0.17972896 -0.050225258 -0.07308987 0.10034009 -0.022344884 0.28547478 0.013229313
-0.16022304 1.0147426 0.10061652 0.5475645 0.4457524 -0.05315753 -9.550387e-05 0.028346399
-0.040000804 -0.060324166 0.10314774 -0.052005675 0.64853233 0.35225463 0.033784576 0.4251228
0.060821664 -0.001503113 -0.33539838 0.44660476 0.17908421 -0.27651548 -0.03732756 -0.14561854
0.3055296 -0.35231918 0.119026706 0.0032397783 -0.069999166 -0.0380783 -0.00084595964 -0.055522654

model.2.bias f4 [5]
00000000: 0dba 15bf 01d7 29be 304d 15c0 9cb2 7b3f
00000010: 8dc7 a93e
-0.58487016 -0.16585924 -2.3328362 0.9831941 0.33160058
