BRCA/models/C_best_1703027228.pth (torch, 67616 bytes, 4 tensors)

model.0.weight f4 [125, 125]
0	0x3d8705fb	0.065929376
1	0xbd002df7	-0.031293835
2	0xbc9ef6c9	-0.019404786
3	0xbb146530	-0.002264332
4	0xbb1d2ca9	-0.0023982918
5	0x3d9c3fbb	0.07629343
6	0xbdb34b88	-0.08754641
7	0x3d63048c	0.055424258
8	0x3b44124e	0.0029918137
9	0x3d0b8fd5	0.034072716
10	0xbda658c6	-0.08122401
11	0xbe2e17f2	-0.17001322
12	0xbe3e1d98	-0.18565977
13	0x3c8afea6	0.016967129
14	0xbcaf3fce	-0.02139273
15	0x3d994537	0.07483905
16	0x3d891d93	0.06695094
17	0x3e633613	0.22188596
18	0x3d597289	0.053087745
19	0x3d737484	0.05943729
20	0xbdb0e6b7	-0.08637755
21	0x3dfe66e3	0.12421968
22	0xbda12e8e	-0.07870208
23	0xbdd4e010	-0.10394299
24	0x3d614aec	0.05500309
25	0xbe021aed	-0.12705584
26	0x3ce1e706	0.02757598
27	0xbd8a3374	-0.06748095
28	0xbea9aa16	-0.33137578
29	0x3d842379	0.06452078
30	0xbd57b1bc	-0.052659735
31	0x3baf4bcc	0.005349612
32	0xbbf89b40	-0.0075868666
33	0xbd99aeb1	-0.07504023
34	0xbd1514b8	-0.036396712
35	0xbd136727	-0.035987046
36	0xbd85210c	-0.06500444
37	0x3dabac78	0.08382505
38	0xbdb1411b	-0.08654996
39	0x3da768fe	0.081743225
40	0x3d7dda78	0.061975926
41	0xbe10ed4c	-0.14153022
42	0xbd36029b	-0.04443608
43	0x3e5a732f	0.21333002
44	0x3c6d7539	0.01449328
45	0xbdd7de00	-0.1054039
46	0x3e3f4463	0.18678431
47	0xbd2df52c	-0.042470142
48	0x393fede1	0.00018303796
49	0xbe0478d1	-0.12936713
50	0x3cd28d20	0.02570206
51	0xbdf6bc3e	-0.12047623
52	0xbdbe2689	-0.09284694
53	0x3e37a18b	0.17932718
54	0x3c445aa6	0.011984503
55	0x3d3e43de	0.046451442
56	0x3d01a7da	0.031654216
57	0x3d1d8a71	0.038462106
58	0xbd2e8add	-0.0426129
59	0xbd7624be	-0.060093634
60	0x3e0193eb	0.12654082
61	0xbde8b8af	-0.113633506
62	0xbd727388	-0.05919221
63	0x3db92842	0.09040882
64	0x3c46d3df	0.012135475
65	0xbb4fe463	-0.0031721822
66	0x3cfc5f46	0.030807149
67	0x3de79442	0.11307575
68	0x3d75e9f6	0.060037576
69	0xbc89f09b	-0.016838362
70	0xbdc3da0c	-0.095630735
71	0x3d041a46	0.03225162
72	0xbdf24b15	-0.11830727
73	0xbd2b74b5	-0.041859347
74	0xbd3e4bba	-0.046458937
75	0x3d745af6	0.05965706
76	0x3e0ce7f2	0.13760355
77	0xbc4c31e2	-0.012463065
78	0x3d3e700a	0.046493568
79	0xbc2cf8c7	-0.01055736
80	0xbc6e762c	-0.014554542
81	0xbd735a76	-0.059412442
82	0x3dd0c271	0.10193337
83	0xbd8a0b34	-0.06740418
84	0x3d545dce	0.05184727
85	0xbca20684	-0.019778498
86	0xbdb44222	-0.08801676
87	0x3d3210dc	0.04347311
88	0xbe7645e6	-0.24050102
89	0x3dea370a	0.11436279
90	0xbdafea93	-0.08589663
91	0xbd8f5f14	-0.070005566
92	0xbcf1fd4c	-0.029539727
93	0x3cdfd6d9	0.027324127
94	0xbc89bf63	-0.016814893
95	0x3cffe87f	0.031238792
96	0xbb4f8b25	-0.003166863
97	0x3bc45af9	0.00599229
98	0xbdc835c2	-0.097758785
99	0x3c2bc380	0.010483623
100	0x3d2931b1	0.041307155
101	0x3e4095a0	0.18807077
102	0xbd41321d	-0.047166932
103	0xbcfe1d41	-0.031019809
104	0x3cd69ef0	0.026198834
105	0xbd20a4f4	-0.03921981
106	0x3e0bdc3b	0.1365823
107	0x3cd0e685	0.025500545
108	0x3ccf6e06	0.025321018
109	0x3e028163	0.1274467
110	0x3db508fb	0.088396035
111	0xbbfc7817	-0.0077047455
112	0xbdc3ac13	-0.09554305
113	0xbd302926	-0.043007992
114	0x3db1842d	0.08667789
115	0x390007aa	0.00012209886
116	0xbe0d48f2	-0.13797358
117	0xbc778a1d	-0.015108612
118	0x3bff4d29	0.0077911806
119	0x3d892b83	0.06697752
120	0xbdef97c1	-0.11698867
121	0x3daabb4b	0.083365045
122	0xbe4f9095	-0.20269997
123	0xbdf0e7ec	-0.117629856
124	0xbc2181bf	-0.009857594
125	0x3c5140b2	0.012771772
126	0xbc57fa05	-0.013182168
127	0xbd34f801	-0.044181827
128	0x3e38d0fe	0.18048474
129	0x3b65d732	0.0035070893
130	0xbda0a55a	-0.07844038
131	0x3d3f17f2	0.046653695
132	0xbd7e50e8	-0.062088877
133	0xbdfae54c	-0.12250766
134	0xbd6ac32a	-0.05731503
135	0xbddc2105	-0.107484855
136	0xbd272760	-0.040809035
137	0xbb864095	-0.0040970542
138	0xbe19b3d3	-0.15010004
139	0xbd0cf878	-0.034416646
140	0xbce89c70	-0.028394908
141	0xbc9265db	-0.017870834
142	0xbdede402	-0.11615755
143	0xbd91111c	-0.070833415
144	0x3d1126a5	0.035437245
145	0xbd1ff368	-0.03905049
146	0x3d0b54c1	0.034016374
147	0x3ce71408	0.028207794
148	0xbd1b8621	-0.037969712
149	0xbd420a4f	-0.047373112
150	0x3e05daa3	0.13071685
151	0xbcdb27f3	-0.026752448
152	0x3df30790	0.11866677
153	0x3dd77d79	0.10521979
154	0xbdbcc0dc	-0.092164725
155	0xbcfae911	-0.030628713
156	0xbc67df60	-0.014152378
157	0x3dc8efca	0.09811361
158	0x3d0ae07c	0.03390549
159	0x3dd81a1c	0.10551855
160	0xbd384f15	-0.044997294
161	0xbd828db5	-0.06374685
162	0x3ce4048a	0.027834196
163	0x3d482e1f	0.04887211
164	0x3e0604d0	0.13087773
165	0xbcf3722c	-0.029717527
166	0xbda8cdb6	-0.08242361
167	0x3d0614c7	0.03273466
168	0xbc79d32a	-0.015248099
169	0x3e447346	0.19184598
170	0x3d3cb251	0.046068493
171	0x3cf4938f	0.029855518
172	0xbcdc8949	-0.026920931
173	0xbdbc5cb1	-0.09197367
174	0xbe42c2a0	-0.19019556
175	0x3daf81cf	0.08569681
176	0xbce6bbc2	-0.028165702
177	0x3ca67979	0.020321595
178	0xbe190964	-0.14944988
179	0x3dbf63fd	0.09345243
180	0xbc79b8b8	-0.015241794
181	0xbdf84221	-0.12121988
182	0x3dece24e	0.11566602
183	0xbdc19f69	-0.09454233
184	0xbdd40bfb	-0.103538476
185	0xbbe0d0aa	-0.006860812
186	0xbb269ad5	-0.0025421877
187	0xbe49f183	-0.19721036
188	0xbdbf9043	-0.093536876
189	0xbd9e5bfb	-0.07732388
190	0x3da91c1f	0.08257317
191	0x3cbb061e	0.022830065
192	0x3d1da074	0.0384831
193	0xbc456099	-0.012046956
194	0xbce08089	-0.02740504
195	0xbd7ad7d4	-0.061240986
196	0x3d46e191	0.04855496
197	0xbc2b53f8	-0.010457031
198	0xbd2b66ff	-0.04184627
199	0x3cc230f7	0.023704989
200	0x3c957415	0.018243829
201	0xbc9737b3	-0.018459177
202	0x3de63873	0.112412356
203	0xbbf5a8bf	-0.0074969227
204	0x3d6bdfa4	0.057586327
205	0xbd64a550	-0.055821717
206	0xbd0be3f8	-0.034152955
207	0x3e0bbbd3	0.13645868
208	0xbddbf95b	-0.1074092
209	0x3dc357bc	0.095382184
210	0xbe35fb0a	-0.17771545
211	0xbd450091	-0.048096243
212	0xbdda8a43	-0.106709026
213	0x3dad2bf4	0.08455649
214	0xbe20d6dd	-0.15706964
215	0x3dba6753	0.09101739
216	0xbe2f120f	-0.17096733
217	0xbdc8429d	-0.097783305
218	0x3c0241f0	0.007950291
219	0x3da89b8c	0.08232793
220	0x3d867e81	0.065670975
221	0xbdbd5626	-0.09244947
222	0xbb9a791c	-0.0047141444
223	0x3cc36c5f	0.023855386
224	0x3c8ac1bf	0.016938088
225	0xbcd9dc11	-0.026594194
226	0x3d9b5c92	0.07586016
227	0xbdfa7b9e	-0.12230609
228	0xbcce36a6	-0.025172543
229	0xbdf29b54	-0.11846033
230	0xbcb34435	-0.02188311
231	0x3de75c34	0.11296883
232	0xbbb5375e	-0.005530282
233	0x3d64790d	0.055779506
234	0xbd4ea35a	-0.050448753
235	0x3d193fc5	0.03741433
236	0xbdd6c46d	-0.10486684
237	0xbc0790aa	-0.008274237
238	0x3d789190	0.060685694
239	0x3cd84692	0.026400838
240	0xbc7da517	-0.015481255
241	0x3cdafd48	0.026732102
242	0x3d1f33e2	0.03886784
243	0x3d001b99	0.03127632
244	0xbdbdc515	-0.09266106
245	0x3d8930e1	0.06698776
246	0xba8bc0a8	-0.0010662274
247	0xbe020d8c	-0.1270048
248	0xbda21dc9	-0.07915837
249	0x3d231692	0.039816447
250	0x3d0622e9	0.032748137
251	0xbe08d0ce	-0.13360903
252	0x3dde893a	0.10866018
253	0xbdb07aa2	-0.0861714
254	0xbd9c8fad	-0.076445915
255	0xbce0450a	-0.02737667

model.0.bias f4 [125]
0	0x3d9ea293	0.07745852
1	0xbdd92abd	-0.10603855
2	0x3da1db56	0.07903163
3	0x3dbb1fba	0.09136911
4	0xbda84260	-0.08215785
5	0xbdc0171a	-0.09379406
6	0x3dde00bb	0.10839983
7	0xbdb33b64	-0.08751562
8	0xbdcdc737	-0.10047763
9	0x3dc5282d	0.096268035
10	0xbdabed1c	-0.083948344
11	0x3ddb36f1	0.107038386
12	0xbdc0a442	-0.0940633
13	0xbdbe6dda	-0.09298296
14	0xbd9f841d	-0.077888705
15	0x3d9d87ab	0.07691892
16	0xbddb2257	-0.10699909
17	0x3da5d14e	0.08096562
18	0x3dc788c7	0.09742885
19	0xbdf5d44d	-0.12003384
20	0xbdce53da	-0.10074587
21	0x3db90606	0.09034352
22	0xbdc44dcd	-0.09585152
23	0x3dc5dbe8	0.096610844
24	0x3d9e1671	0.07719124
25	0x3da2631b	0.07929059
26	0x3dca6c23	0.09883907
27	0xbdbff263	-0.093724035
28	0xbda6ae27	-0.08138686
29	0x3dcc6069	0.09979326
30	0x3dac151f	0.08402466
31	0x3dcd5b37	0.100271635
32	0xbddd2875	-0.10798732
33	0x3dd47714	0.10374275
34	0xbde2ef63	-0.11080816
35	0x3d9d1e84	0.07671836
36	0x3dbf1c5b	0.0933158
37	0x3dadca7a	0.08485885
38	0xbda628e5	-0.08113269
39	0xbda20e8f	-0.07912933
40	0xbd96127a	-0.07327743
41	0x3db5162d	0.0884212
42	0x3db09e72	0.08623971
43	0xbdb0c945	-0.08632139
44	0x3dafd53b	0.08585592
45	0xbdbaefc9	-0.09127767
46	0xbdb8012a	-0.08984597
47	0x3dbca14e	0.09210454
48	0xbd9fcfc6	-0.078033015
49	0x3db9dc4f	0.09075224
50	0xbddd2e4f	-0.10799848
51	0xbdbaad34	-0.09115067
52	0x3db72596	0.08942716
53	0xbdda32a7	-0.106541924
54	0xbd990451	-0.074715264
55	0xbde7fe69	-0.11327822
56	0x3da4b06b	0.080414616
57	0xbdb27d45	-0.087152995
58	0xbdd1a18f	-0.10235893
59	0x3dbd0621	0.092296846
60	0x3dcf47ea	0.101211384
61	0xbdd1c7eb	-0.102432095
62	0xbdb1e6f5	-0.0868663
63	0xbdbc6310	-0.09198582
64	0xbd9f4732	-0.07777251
65	0xbda4343d	-0.08017776
66	0xbdf305d7	-0.11866348
67	0x3dc0d941	0.09416438
68	0xbdc2189f	-0.09477352
69	0x3db042bf	0.08606481
70	0x3d9ee09f	0.07757687
71	0xbdb5378b	-0.088484846
72	0xbda76155	-0.081728615
73	0xbde51699	-0.11185951
74	0xbdac8abc	-0.08424899
75	0x3db684f9	0.08912081
76	0x3da057ef	0.07829272
77	0xbdabee22	-0.083950296
78	0x3d9aaabc	0.07552096
79	0x3d9bf78a	0.07615574
80	0x3da9c29c	0.08289072
81	0x3d9da023	0.07696559
82	0x3db6a817	0.08918779
83	0xbd9ec603	-0.077526115
84	0x3dbe019b	0.0927765
85	0xbdab3eb2	-0.083615676
86	0xbdae3178	-0.08505529
87	0x3db133f0	0.086524844
88	0xbda2605f	-0.079285376
89	0x3dae36af	0.08506524
90	0x3ddf4ded	0.10903535
91	0x3dbb831b	0.09155866
92	0xbddf15c3	-0.108928226
93	0x3dba79ab	0.091052376
94	0x3db15985	0.086596526
95	0x3de1a50a	0.11017807
96	0x3dc0c189	0.09411914
97	0xbdaa4eec	-0.083158344
98	0x3da10838	0.07862896
99	0xbda5836a	-0.08081706
100	0x3da527a5	0.08064202
101	0x3dacc180	0.08435345
102	0xbdbd2bfb	-0.09236904
103	0xbda2d4d7	-0.07950752
104	0x3dd2baa9	0.10289509
105	0xbde93234	-0.113865286
106	0xbdc3f377	-0.095679216
107	0xbde18d62	-0.11013295
108	0xbdb79d06	-0.08965497
109	0xbdc2a46e	-0.09504019
110	0xbdbb6baf	-0.091513984
111	0xbdb6ad57	-0.08919781
112	0x3d937134	0.07199326
113	0x3d95de80	0.07317829
114	0xbdc19f89	-0.09454257
115	0xbdc5038b	-0.096198164
116	0xbdca8bd8	-0.09889954
117	0x3da8907b	0.082306825
118	0xbdab259f	-0.08356785
119	0xbdadaad8	-0.084798515
120	0x3db2ab40	0.087240696
121	0xbdbdc83e	-0.09266709
122	0x3dae7ecf	0.085202806
123	0xbddfde9b	-0.109311305
124	0x3dae7e1e	0.08520149

model.2.weight f4 [5, 125]
0	0xbd3f9996	-0.04677733
1	0x3e264280	0.16236305
2	0xbe83922f	-0.25697467
3	0xbdc6af61	-0.097014196
4	0x3e2cd471	0.16877915
5	0x3ccda88f	0.025104789
6	0xbe425eaf	-0.18981431
7	0x3e3ef745	0.18649013
8	0x3dfcbd26	0.12340765
9	0xbe1700b9	-0.1474637
10	0x3e5b7a46	0.21433362
11	0xbea806df	-0.32817742
12	0x3dc55963	0.0963619
13	0xbd91bb32	-0.07115783
14	0x3ea51f4e	0.32250446
15	0xbe7962ed	-0.24354143
16	0x3ea328a3	0.3186694
17	0xbdc57a35	-0.0964245
18	0xbe131f02	-0.14367297
19	0xbbd4b1df	-0.0064909304
20	0x3e49b76b	0.19698875
21	0xbe2ff476	-0.17183098
22	0x3dd39b8e	0.10332404
23	0xbe6af3f9	-0.2294463
24	0x3d8dd936	0.06926195
25	0xbe791a25	-0.2432638
26	0xbdab1a9c	-0.08354685
27	0x3ea46ac7	0.32112715
28	0xbdb6761d	-0.08909247
29	0xbe67cc29	-0.22636475
30	0xbe836b2e	-0.2566771
31	0xbe7a70db	-0.24457113
32	0x3e87c445	0.2651693
33	0xbe4be64f	-0.19912075
34	0x3e390c49	0.18071093
35	0xbe643088	-0.22284138
36	0x3d8f5c20	0.06999993
37	0xbdc2d5c1	-0.095134266
38	0x3e2a92cd	0.16657563
39	0x3e255621	0.16146137
40	0x3e5a6236	0.21326527
41	0xbcb19675	-0.021678189
42	0x3d70fca8	0.0588347
43	0x3e0abaf9	0.13547887
44	0xbd95ad79	-0.07308478
45	0xbcd44445	-0.02591146
46	0x3e3eaf80	0.18621635
47	0xbce95a8b	-0.028485557
48	0x3ea97558	0.3309734
49	0xbe745ee5	-0.23864324
50	0x3eab7cad	0.33493558
51	0xbd5dabb2	-0.05411882
52	0xbb2b6e93	-0.0026158437
53	0xbdd0133c	-0.10159919
54	0x3e9195e3	0.28434667
55	0xbe21de13	-0.15807371
56	0xbe6a50fc	-0.22882456
57	0x3bb621a1	0.005558208
58	0x3e5473d8	0.20747316
59	0xbcd56cc4	-0.02605284
60	0xbe5a604e	-0.213258
61	0x3e90d329	0.28286102
62	0x3e1d22fe	0.1534538
63	0x3e167b03	0.14695363
64	0x3ecf6920	0.40509892
65	0x3a9ae52c	0.0011817566
66	0x3d98c66a	0.074597195
67	0xbd2f5d87	-0.042813804
68	0x3de0d0e1	0.109773405
69	0x3babb6fd	0.0052403198
70	0xbdf368dd	-0.118852355
71	0x3e89a75d	0.268855
72	0x3d96f219	0.07370395
73	0x3eae609a	0.34058076
74	0x3e29ae65	0.16570432
75	0xbd46008b	-0.04834036
76	0xbe774a68	-0.24149477
77	0x3dd2e645	0.10297827
78	0x3d046da9	0.032331143
79	0xbe55fa61	-0.20896293
80	0xbdfdd7c2	-0.12394668
81	0xbe72a0f2	-0.23694208
82	0xbd8be4bb	-0.06830736
83	0x3d3b05f6	0.04565998
84	0x3ca207fa	0.019779194
85	0x3e68bd53	0.22728471
86	0x3df51fb8	0.119689405
87	0xbe37da1e	-0.17954299
88	0x3e4a0faa	0.19732538
89	0xbf00a099	-0.5024505
90	0x3d5a211e	0.05325424
91	0xbe08e29a	-0.13367692
92	0xbc343765	-0.010999535
93	0xbe4bf278	-0.19916713
94	0xbe4d4e5a	-0.2004942
95	0xbbc2ca7e	-0.005944549
96	0xbc9a5eca	-0.018844027
97	0x3ece46ef	0.40288493
98	0xbd889396	-0.06668775
99	0x3eb89c04	0.3605653
100	0xbc94e180	-0.018173933
101	0xbe05d7d1	-0.13070609
102	0x3e8d9528	0.2765286
103	0x3d1c28c9	0.038124833
104	0x3ced8883	0.028995758
105	0x3d31c187	0.043397453
106	0xbe1fde39	-0.15612115
107	0x3e8cd867	0.27508852
108	0x3e0cf424	0.13765007
109	0x3dc70e1f	0.0971949
110	0x3e383ed9	0.17992724
111	0x3d25250e	0.04031854
112	0xbeae9062	-0.3409453
113	0xbe21ae25	-0.15789087
114	0x3e337afa	0.1752738
115	0x3e60157b	0.21883194
116	0xbe0c5a1b	-0.13706248
117	0xbd07a79c	-0.03311883
118	0x3d38b9d0	0.04509908
119	0x3e79f9f8	0.24411762
120	0xbce3059d	-0.027712638
121	0x3eba874f	0.36431357
122	0xbdfc951b	-0.12333127
123	0x3e053e29	0.13011993
124	0xbe707089	-0.23480429
125	0xbdfc6291	-0.123234876
126	0xbc119381	-0.008885265
127	0xbd31bf16	-0.043395124
128	0xbeaa553e	-0.3326816
129	0x3e9d79e8	0.3075707
130	0x3ddebf9f	0.108763926
131	0xbe67a3f9	-0.22621144
132	0x3e7e88c9	0.24856867
133	0x3e4c5b14	0.19956619
134	0xbe237354	-0.15961963
135	0x3e372ca6	0.17888126
136	0x3dcf9427	0.1013568
137	0x3eacfd68	0.33787084
138	0x3dabf5e3	0.083965085
139	0x3e1e6aff	0.15470503
140	0xbd5a65f8	-0.0533199
141	0x3d8fe8f0	0.07026851
142	0x3d757c1c	0.059932813
143	0xbcaccc63	-0.021093553
144	0x3cbc14c4	0.02295912
145	0x3e7fd4bb	0.24983494
146	0x3c66862f	0.014070078
147	0x3e632435	0.2218178
148	0xbddae463	-0.106880926
149	0x3d027233	0.03184719
150	0x3b6d57a0	0.0036215559
151	0xbd9aa102	-0.07550241
152	0x3e2aae83	0.16668133
153	0x3dadf35c	0.08493683
154	0xbe3269a5	-0.17423113
155	0xbe2ae615	-0.16689332
156	0xbd59a588	-0.05313638
157	0xbceef001	-0.029167177
158	0xbd4353b4	-0.047687247
159	0x3c9ca837	0.01912318
160	0xbe116274	-0.14197713
161	0xbe32a9da	-0.17447606
162	0xbd5d7bea	-0.05407325
163	0xbb488d50	-0.0030601807
164	0x3de6b966	0.11265831
165	0x3d9c91c5	0.07644991
166	0xbe84c4b0	-0.2593131
167	0xbdf14aa8	-0.11781818
168	0xbda7dd06	-0.08196454
169	0xbe5ed844	-0.21762186
170	0xbc4f2b36	-0.01264458
171	0x3e3922a9	0.18079628
172	0xbdcea35c	-0.10089752
173	0x3f04b082	0.5183183
174	0xbe4d98dc	-0.20077842
175	0x3db183d2	0.08667721
176	0x3bd65e30	0.0065419897
177	0xbdd5b2a7	-0.10434466
178	0x3e770f54	0.24126941
179	0x3deeca99	0.11659736
180	0x3e74bb8f	0.23899673
181	0x3dad6f42	0.08468486
182	0xbd834a1e	-0.06410621
183	0x3e8655a9	0.2623723
184	0xbd05092e	-0.032479458
185	0xbd514ee7	-0.051100638
186	0x3e375216	0.17902407
187	0x3c64172e	0.013921542
188	0x3e0e2795	0.13882287
189	0x3d473e2b	0.048643272
190	0x3e61848d	0.2202322
191	0x3a4d22fd	0.0007825343
192	0x3dec769f	0.11546063
193	0x3e68d5d3	0.22737817
194	0xbe1a7fac	-0.15087765
195	0xbce6eff8	-0.028190598
196	0x3ea85f86	0.3288538
197	0x3ca42ab3	0.020039892
198	0x3e1043c5	0.14088352
199	0x3e79d00e	0.24395773
200	0xbe2f5dcd	-0.17125626
201	0x3cad244e	0.021135475
202	0x3e4daa1e	0.20084426
203	0xbe5e7a5d	-0.21726365
204	0xbe60c2eb	-0.21949355
205	0xbe4024e4	-0.18764073
206	0xbea32fbc	-0.31872356
207	0xbe5bfd1a	-0.2148327
208	0x3e6b6a3a	0.22989741
209	0xbde531a4	-0.11191109
210	0xbc81f2e7	-0.015862895
211	0x3e594ca6	0.21220645
212	0xbd83ee25	-0.06441907
213	0x3e47398f	0.1945555
214	0xbdd58c88	-0.10427195
215	0xbc5032cd	-0.012707424
216	0xbe11e185	-0.14246185
217	0x39d8c3d9	0.00041344648
218	0xbe2d9704	-0.16952139
219	0xbd8bfa66	-0.06834869
220	0x3b6eb8d5	0.0036426086
221	0x3d91c62d	0.07117877
222	0x3e25c935	0.16190036
223	0xbe378d9b	-0.17925112
224	0x3e78a617	0.24282108
225	0xbdf72f11	-0.12069524
226	0xbe610c67	-0.21977387
227	0xbd471657	-0.04860529
228	0x3c28ea48	0.010309763
229	0xbe32656a	-0.17421499
230	0x3e1956fb	0.14974587
231	0xbd628ddc	-0.05531107
232	0x3d946a1a	0.072468
233	0xbdf42f56	-0.11923091
234	0x3db4ec3d	0.088341214
235	0x3dc83ff9	0.09777827
236	0x3d2effa0	0.04272425
237	0xbe294a77	-0.16532312
238	0xbe3e22be	-0.1856794
239	0xbbeed3ea	-0.0072884457
240	0x3e2b7d7a	0.16747084
241	0x3e63c48d	0.22242947
242	0xbd7e1211	-0.06202895
243	0x3e0a5c6a	0.13511816
244	0x3e78411d	0.24243589
245	0xbc9bee2c	-0.019034468
246	0xbe177377	-0.1479014
247	0xbd10de89	-0.035368476
248	0x3e1ffce9	0.15623821
249	0xbe35971b	-0.17733423
250	0xbe218023	-0.15771537
251	0x3e3d1b68	0.18467486
252	0xbe2a227f	-0.16614722
253	0xbe38160f	-0.17977165
254	0xbe33c508	-0.1755563
255	0xbbb6fbe3	-0.0055842265

model.2.bias f4 [5]
0	0xbd8419bb	-0.0645022
1	0xbd84157a	-0.06449409
2	0xbd9b480b	-0.075821005
3	0x3d86da85	0.06584648
4	0xbd419908	-0.047265083
